#[version = "0.0.5"]
def @main(%images_0: Tensor[(1, 224, 224, 3), float32], %efficientnet_lite4_model_stem_conv2d_Conv2D_weights_fused_bn: Tensor[(32, 3, 3, 3), float32], %efficientnet_lite4_model_stem_conv2d_Conv2D_bias_fused_bn: Tensor[(32), float32], %efficientnet_lite4_model_head_tpu_batch_normalization_ReadVariableOp_1_0: Tensor[(1280), float32], %efficientnet_lite4_model_head_tpu_batch_normalization_ReadVariableOp_0: Tensor[(1280), float32], %efficientnet_lite4_model_head_tpu_batch_normalization_FusedBatchNormV3_ReadVariableOp_1_0: Tensor[(1280), float32], %efficientnet_lite4_model_head_tpu_batch_normalization_FusedBatchNormV3_ReadVariableOp_0: Tensor[(1280), float32], %efficientnet_lite4_model_head_dense_MatMul_ReadVariableOp_0: Tensor[(1280, 1000), float32], %efficientnet_lite4_model_head_dense_BiasAdd_ReadVariableOp_0: Tensor[(1000), float32], %efficientnet_lite4_model_head_conv2d_Conv2D_ReadVariableOp_0: Tensor[(1280, 448, 1, 1), float32], %efficientnet_lite4_model_blocks_9_depthwise_conv2d_depthwise_weights_fused_bn: Tensor[(336, 1, 3, 3), float32], %efficientnet_lite4_model_blocks_9_depthwise_conv2d_depthwise_bias_fused_bn: Tensor[(336), float32], %efficientnet_lite4_model_blocks_9_conv2d_1_Conv2D_weights_fused_bn: Tensor[(112, 336, 1, 1), float32], %efficientnet_lite4_model_blocks_9_conv2d_1_Conv2D_bias_fused_bn: Tensor[(112), float32], %efficientnet_lite4_model_blocks_9_conv2d_Conv2D_weights_fused_bn: Tensor[(336, 56, 1, 1), float32], %efficientnet_lite4_model_blocks_9_conv2d_Conv2D_bias_fused_bn: Tensor[(336), float32], %efficientnet_lite4_model_blocks_8_depthwise_conv2d_depthwise_weights_fused_bn: Tensor[(336, 1, 5, 5), float32], %efficientnet_lite4_model_blocks_8_depthwise_conv2d_depthwise_bias_fused_bn: Tensor[(336), float32], %efficientnet_lite4_model_blocks_8_conv2d_1_Conv2D_weights_fused_bn: Tensor[(56, 336, 1, 1), float32], %efficientnet_lite4_model_blocks_8_conv2d_1_Conv2D_bias_fused_bn: Tensor[(56), float32], %efficientnet_lite4_model_blocks_8_conv2d_Conv2D_weights_fused_bn: Tensor[(336, 56, 1, 1), float32], %efficientnet_lite4_model_blocks_8_conv2d_Conv2D_bias_fused_bn: Tensor[(336), float32], %efficientnet_lite4_model_blocks_7_depthwise_conv2d_depthwise_weights_fused_bn: Tensor[(336, 1, 5, 5), float32], %efficientnet_lite4_model_blocks_7_depthwise_conv2d_depthwise_bias_fused_bn: Tensor[(336), float32], %efficientnet_lite4_model_blocks_7_conv2d_1_Conv2D_weights_fused_bn: Tensor[(56, 336, 1, 1), float32], %efficientnet_lite4_model_blocks_7_conv2d_1_Conv2D_bias_fused_bn: Tensor[(56), float32], %efficientnet_lite4_model_blocks_7_conv2d_Conv2D_weights_fused_bn: Tensor[(336, 56, 1, 1), float32], %efficientnet_lite4_model_blocks_7_conv2d_Conv2D_bias_fused_bn: Tensor[(336), float32], %efficientnet_lite4_model_blocks_6_tpu_batch_normalization_ReadVariableOp_1_0: Tensor[(336), float32], %efficientnet_lite4_model_blocks_6_tpu_batch_normalization_ReadVariableOp_0: Tensor[(336), float32], %efficientnet_lite4_model_blocks_6_tpu_batch_normalization_FusedBatchNormV3_ReadVariableOp_1_0: Tensor[(336), float32], %efficientnet_lite4_model_blocks_6_tpu_batch_normalization_FusedBatchNormV3_ReadVariableOp_0: Tensor[(336), float32], %efficientnet_lite4_model_blocks_6_depthwise_conv2d_depthwise_weights_fused_bn: Tensor[(336, 1, 5, 5), float32], %efficientnet_lite4_model_blocks_6_depthwise_conv2d_depthwise_bias_fused_bn: Tensor[(336), float32], %efficientnet_lite4_model_blocks_6_conv2d_1_Conv2D_weights_fused_bn: Tensor[(56, 336, 1, 1), float32], %efficientnet_lite4_model_blocks_6_conv2d_1_Conv2D_bias_fused_bn: Tensor[(56), float32], %efficientnet_lite4_model_blocks_6_conv2d_Conv2D_ReadVariableOp_0: Tensor[(336, 56, 1, 1), float32], %efficientnet_lite4_model_blocks_5_depthwise_conv2d_depthwise_weights_fused_bn: Tensor[(192, 1, 5, 5), float32], %efficientnet_lite4_model_blocks_5_depthwise_conv2d_depthwise_bias_fused_bn: Tensor[(192), float32], %efficientnet_lite4_model_blocks_5_conv2d_1_Conv2D_weights_fused_bn: Tensor[(56, 192, 1, 1), float32], %efficientnet_lite4_model_blocks_5_conv2d_1_Conv2D_bias_fused_bn: Tensor[(56), float32], %efficientnet_lite4_model_blocks_5_conv2d_Conv2D_weights_fused_bn: Tensor[(192, 32, 1, 1), float32], %efficientnet_lite4_model_blocks_5_conv2d_Conv2D_bias_fused_bn: Tensor[(192), float32], %efficientnet_lite4_model_blocks_4_depthwise_conv2d_depthwise_weights_fused_bn: Tensor[(192, 1, 3, 3), float32], %efficientnet_lite4_model_blocks_4_depthwise_conv2d_depthwise_bias_fused_bn: Tensor[(192), float32], %efficientnet_lite4_model_blocks_4_conv2d_1_Conv2D_weights_fused_bn: Tensor[(32, 192, 1, 1), float32], %efficientnet_lite4_model_blocks_4_conv2d_1_Conv2D_bias_fused_bn: Tensor[(32), float32], %efficientnet_lite4_model_blocks_4_conv2d_Conv2D_weights_fused_bn: Tensor[(192, 32, 1, 1), float32], %efficientnet_lite4_model_blocks_4_conv2d_Conv2D_bias_fused_bn: Tensor[(192), float32], %efficientnet_lite4_model_blocks_3_depthwise_conv2d_depthwise_weights_fused_bn: Tensor[(192, 1, 3, 3), float32], %efficientnet_lite4_model_blocks_3_depthwise_conv2d_depthwise_bias_fused_bn: Tensor[(192), float32], %efficientnet_lite4_model_blocks_3_conv2d_1_Conv2D_weights_fused_bn: Tensor[(32, 192, 1, 1), float32], %efficientnet_lite4_model_blocks_3_conv2d_1_Conv2D_bias_fused_bn: Tensor[(32), float32], %efficientnet_lite4_model_blocks_3_conv2d_Conv2D_weights_fused_bn: Tensor[(192, 32, 1, 1), float32], %efficientnet_lite4_model_blocks_3_conv2d_Conv2D_bias_fused_bn: Tensor[(192), float32], %efficientnet_lite4_model_blocks_29_depthwise_conv2d_depthwise_weights_fused_bn: Tensor[(1632, 1, 3, 3), float32], %efficientnet_lite4_model_blocks_29_depthwise_conv2d_depthwise_bias_fused_bn: Tensor[(1632), float32], %efficientnet_lite4_model_blocks_29_conv2d_1_Conv2D_weights_fused_bn: Tensor[(448, 1632, 1, 1), float32], %efficientnet_lite4_model_blocks_29_conv2d_1_Conv2D_bias_fused_bn: Tensor[(448), float32], %efficientnet_lite4_model_blocks_29_conv2d_Conv2D_weights_fused_bn: Tensor[(1632, 272, 1, 1), float32], %efficientnet_lite4_model_blocks_29_conv2d_Conv2D_bias_fused_bn: Tensor[(1632), float32], %efficientnet_lite4_model_blocks_29_Relu6_1_min__569: float32, %efficientnet_lite4_model_blocks_28_depthwise_conv2d_depthwise_weights_fused_bn: Tensor[(1632, 1, 5, 5), float32], %efficientnet_lite4_model_blocks_28_depthwise_conv2d_depthwise_bias_fused_bn: Tensor[(1632), float32], %efficientnet_lite4_model_blocks_28_conv2d_1_Conv2D_weights_fused_bn: Tensor[(272, 1632, 1, 1), float32], %efficientnet_lite4_model_blocks_28_conv2d_1_Conv2D_bias_fused_bn: Tensor[(272), float32], %efficientnet_lite4_model_blocks_28_conv2d_Conv2D_weights_fused_bn: Tensor[(1632, 272, 1, 1), float32], %efficientnet_lite4_model_blocks_28_conv2d_Conv2D_bias_fused_bn: Tensor[(1632), float32], %efficientnet_lite4_model_blocks_27_depthwise_conv2d_depthwise_weights_fused_bn: Tensor[(1632, 1, 5, 5), float32], %efficientnet_lite4_model_blocks_27_depthwise_conv2d_depthwise_bias_fused_bn: Tensor[(1632), float32], %efficientnet_lite4_model_blocks_27_conv2d_1_Conv2D_weights_fused_bn: Tensor[(272, 1632, 1, 1), float32], %efficientnet_lite4_model_blocks_27_conv2d_1_Conv2D_bias_fused_bn: Tensor[(272), float32], %efficientnet_lite4_model_blocks_27_conv2d_Conv2D_weights_fused_bn: Tensor[(1632, 272, 1, 1), float32], %efficientnet_lite4_model_blocks_27_conv2d_Conv2D_bias_fused_bn: Tensor[(1632), float32], %efficientnet_lite4_model_blocks_26_depthwise_conv2d_depthwise_weights_fused_bn: Tensor[(1632, 1, 5, 5), float32], %efficientnet_lite4_model_blocks_26_depthwise_conv2d_depthwise_bias_fused_bn: Tensor[(1632), float32], %efficientnet_lite4_model_blocks_26_conv2d_1_Conv2D_weights_fused_bn: Tensor[(272, 1632, 1, 1), float32], %efficientnet_lite4_model_blocks_26_conv2d_1_Conv2D_bias_fused_bn: Tensor[(272), float32], %efficientnet_lite4_model_blocks_26_conv2d_Conv2D_weights_fused_bn: Tensor[(1632, 272, 1, 1), float32], %efficientnet_lite4_model_blocks_26_conv2d_Conv2D_bias_fused_bn: Tensor[(1632), float32], %efficientnet_lite4_model_blocks_25_depthwise_conv2d_depthwise_weights_fused_bn: Tensor[(1632, 1, 5, 5), float32], %efficientnet_lite4_model_blocks_25_depthwise_conv2d_depthwise_bias_fused_bn: Tensor[(1632), float32], %efficientnet_lite4_model_blocks_25_conv2d_1_Conv2D_weights_fused_bn: Tensor[(272, 1632, 1, 1), float32], %efficientnet_lite4_model_blocks_25_conv2d_1_Conv2D_bias_fused_bn: Tensor[(272), float32], %efficientnet_lite4_model_blocks_25_conv2d_Conv2D_weights_fused_bn: Tensor[(1632, 272, 1, 1), float32], %efficientnet_lite4_model_blocks_25_conv2d_Conv2D_bias_fused_bn: Tensor[(1632), float32], %efficientnet_lite4_model_blocks_24_depthwise_conv2d_depthwise_weights_fused_bn: Tensor[(1632, 1, 5, 5), float32], %efficientnet_lite4_model_blocks_24_depthwise_conv2d_depthwise_bias_fused_bn: Tensor[(1632), float32], %efficientnet_lite4_model_blocks_24_conv2d_1_Conv2D_weights_fused_bn: Tensor[(272, 1632, 1, 1), float32], %efficientnet_lite4_model_blocks_24_conv2d_1_Conv2D_bias_fused_bn: Tensor[(272), float32], %efficientnet_lite4_model_blocks_24_conv2d_Conv2D_weights_fused_bn: Tensor[(1632, 272, 1, 1), float32], %efficientnet_lite4_model_blocks_24_conv2d_Conv2D_bias_fused_bn: Tensor[(1632), float32], %efficientnet_lite4_model_blocks_23_depthwise_conv2d_depthwise_weights_fused_bn: Tensor[(1632, 1, 5, 5), float32], %efficientnet_lite4_model_blocks_23_depthwise_conv2d_depthwise_bias_fused_bn: Tensor[(1632), float32], %efficientnet_lite4_model_blocks_23_conv2d_1_Conv2D_weights_fused_bn: Tensor[(272, 1632, 1, 1), float32], %efficientnet_lite4_model_blocks_23_conv2d_1_Conv2D_bias_fused_bn: Tensor[(272), float32], %efficientnet_lite4_model_blocks_23_conv2d_Conv2D_weights_fused_bn: Tensor[(1632, 272, 1, 1), float32], %efficientnet_lite4_model_blocks_23_conv2d_Conv2D_bias_fused_bn: Tensor[(1632), float32], %efficientnet_lite4_model_blocks_22_tpu_batch_normalization_ReadVariableOp_1_0: Tensor[(1632), float32], %efficientnet_lite4_model_blocks_22_tpu_batch_normalization_ReadVariableOp_0: Tensor[(1632), float32], %efficientnet_lite4_model_blocks_22_tpu_batch_normalization_FusedBatchNormV3_ReadVariableOp_1_0: Tensor[(1632), float32], %efficientnet_lite4_model_blocks_22_tpu_batch_normalization_FusedBatchNormV3_ReadVariableOp_0: Tensor[(1632), float32], %efficientnet_lite4_model_blocks_22_depthwise_conv2d_depthwise_weights_fused_bn: Tensor[(1632, 1, 5, 5), float32], %efficientnet_lite4_model_blocks_22_depthwise_conv2d_depthwise_bias_fused_bn: Tensor[(1632), float32], %efficientnet_lite4_model_blocks_22_conv2d_1_Conv2D_weights_fused_bn: Tensor[(272, 1632, 1, 1), float32], %efficientnet_lite4_model_blocks_22_conv2d_1_Conv2D_bias_fused_bn: Tensor[(272), float32], %efficientnet_lite4_model_blocks_22_conv2d_Conv2D_ReadVariableOp_0: Tensor[(1632, 272, 1, 1), float32], %efficientnet_lite4_model_blocks_21_depthwise_conv2d_depthwise_weights_fused_bn: Tensor[(960, 1, 5, 5), float32], %efficientnet_lite4_model_blocks_21_depthwise_conv2d_depthwise_bias_fused_bn: Tensor[(960), float32], %efficientnet_lite4_model_blocks_21_conv2d_1_Conv2D_weights_fused_bn: Tensor[(272, 960, 1, 1), float32], %efficientnet_lite4_model_blocks_21_conv2d_1_Conv2D_bias_fused_bn: Tensor[(272), float32], %efficientnet_lite4_model_blocks_21_conv2d_Conv2D_weights_fused_bn: Tensor[(960, 160, 1, 1), float32], %efficientnet_lite4_model_blocks_21_conv2d_Conv2D_bias_fused_bn: Tensor[(960), float32], %efficientnet_lite4_model_blocks_20_depthwise_conv2d_depthwise_weights_fused_bn: Tensor[(960, 1, 5, 5), float32], %efficientnet_lite4_model_blocks_20_depthwise_conv2d_depthwise_bias_fused_bn: Tensor[(960), float32], %efficientnet_lite4_model_blocks_20_conv2d_1_Conv2D_weights_fused_bn: Tensor[(160, 960, 1, 1), float32], %efficientnet_lite4_model_blocks_20_conv2d_1_Conv2D_bias_fused_bn: Tensor[(160), float32], %efficientnet_lite4_model_blocks_20_conv2d_Conv2D_weights_fused_bn: Tensor[(960, 160, 1, 1), float32], %efficientnet_lite4_model_blocks_20_conv2d_Conv2D_bias_fused_bn: Tensor[(960), float32], %efficientnet_lite4_model_blocks_2_tpu_batch_normalization_ReadVariableOp_1_0: Tensor[(192), float32], %efficientnet_lite4_model_blocks_2_tpu_batch_normalization_ReadVariableOp_0: Tensor[(192), float32], %efficientnet_lite4_model_blocks_2_tpu_batch_normalization_FusedBatchNormV3_ReadVariableOp_1_0: Tensor[(192), float32], %efficientnet_lite4_model_blocks_2_tpu_batch_normalization_FusedBatchNormV3_ReadVariableOp_0: Tensor[(192), float32], %efficientnet_lite4_model_blocks_2_depthwise_conv2d_depthwise_weights_fused_bn: Tensor[(192, 1, 3, 3), float32], %efficientnet_lite4_model_blocks_2_depthwise_conv2d_depthwise_bias_fused_bn: Tensor[(192), float32], %efficientnet_lite4_model_blocks_2_conv2d_1_Conv2D_weights_fused_bn: Tensor[(32, 192, 1, 1), float32], %efficientnet_lite4_model_blocks_2_conv2d_1_Conv2D_bias_fused_bn: Tensor[(32), float32], %efficientnet_lite4_model_blocks_2_conv2d_Conv2D_ReadVariableOp_0: Tensor[(192, 32, 1, 1), float32], %efficientnet_lite4_model_blocks_19_depthwise_conv2d_depthwise_weights_fused_bn: Tensor[(960, 1, 5, 5), float32], %efficientnet_lite4_model_blocks_19_depthwise_conv2d_depthwise_bias_fused_bn: Tensor[(960), float32], %efficientnet_lite4_model_blocks_19_conv2d_1_Conv2D_weights_fused_bn: Tensor[(160, 960, 1, 1), float32], %efficientnet_lite4_model_blocks_19_conv2d_1_Conv2D_bias_fused_bn: Tensor[(160), float32], %efficientnet_lite4_model_blocks_19_conv2d_Conv2D_weights_fused_bn: Tensor[(960, 160, 1, 1), float32], %efficientnet_lite4_model_blocks_19_conv2d_Conv2D_bias_fused_bn: Tensor[(960), float32], %efficientnet_lite4_model_blocks_19_Relu6_1_max__380: float32, %efficientnet_lite4_model_blocks_18_depthwise_conv2d_depthwise_weights_fused_bn: Tensor[(960, 1, 5, 5), float32], %efficientnet_lite4_model_blocks_18_depthwise_conv2d_depthwise_bias_fused_bn: Tensor[(960), float32], %efficientnet_lite4_model_blocks_18_conv2d_1_Conv2D_weights_fused_bn: Tensor[(160, 960, 1, 1), float32], %efficientnet_lite4_model_blocks_18_conv2d_1_Conv2D_bias_fused_bn: Tensor[(160), float32], %efficientnet_lite4_model_blocks_18_conv2d_Conv2D_weights_fused_bn: Tensor[(960, 160, 1, 1), float32], %efficientnet_lite4_model_blocks_18_conv2d_Conv2D_bias_fused_bn: Tensor[(960), float32], %efficientnet_lite4_model_blocks_17_depthwise_conv2d_depthwise_weights_fused_bn: Tensor[(960, 1, 5, 5), float32], %efficientnet_lite4_model_blocks_17_depthwise_conv2d_depthwise_bias_fused_bn: Tensor[(960), float32], %efficientnet_lite4_model_blocks_17_conv2d_1_Conv2D_weights_fused_bn: Tensor[(160, 960, 1, 1), float32], %efficientnet_lite4_model_blocks_17_conv2d_1_Conv2D_bias_fused_bn: Tensor[(160), float32], %efficientnet_lite4_model_blocks_17_conv2d_Conv2D_weights_fused_bn: Tensor[(960, 160, 1, 1), float32], %efficientnet_lite4_model_blocks_17_conv2d_Conv2D_bias_fused_bn: Tensor[(960), float32], %efficientnet_lite4_model_blocks_16_tpu_batch_normalization_ReadVariableOp_1_0: Tensor[(960), float32], %efficientnet_lite4_model_blocks_16_tpu_batch_normalization_ReadVariableOp_0: Tensor[(960), float32], %efficientnet_lite4_model_blocks_16_tpu_batch_normalization_FusedBatchNormV3_ReadVariableOp_1_0: Tensor[(960), float32], %efficientnet_lite4_model_blocks_16_tpu_batch_normalization_FusedBatchNormV3_ReadVariableOp_0: Tensor[(960), float32], %efficientnet_lite4_model_blocks_16_depthwise_conv2d_depthwise_weights_fused_bn: Tensor[(960, 1, 5, 5), float32], %efficientnet_lite4_model_blocks_16_depthwise_conv2d_depthwise_bias_fused_bn: Tensor[(960), float32], %efficientnet_lite4_model_blocks_16_conv2d_1_Conv2D_weights_fused_bn: Tensor[(160, 960, 1, 1), float32], %efficientnet_lite4_model_blocks_16_conv2d_1_Conv2D_bias_fused_bn: Tensor[(160), float32], %efficientnet_lite4_model_blocks_16_conv2d_Conv2D_ReadVariableOp_0: Tensor[(960, 160, 1, 1), float32], %efficientnet_lite4_model_blocks_15_depthwise_conv2d_depthwise_weights_fused_bn: Tensor[(672, 1, 5, 5), float32], %efficientnet_lite4_model_blocks_15_depthwise_conv2d_depthwise_bias_fused_bn: Tensor[(672), float32], %efficientnet_lite4_model_blocks_15_conv2d_1_Conv2D_weights_fused_bn: Tensor[(160, 672, 1, 1), float32], %efficientnet_lite4_model_blocks_15_conv2d_1_Conv2D_bias_fused_bn: Tensor[(160), float32], %efficientnet_lite4_model_blocks_15_conv2d_Conv2D_weights_fused_bn: Tensor[(672, 112, 1, 1), float32], %efficientnet_lite4_model_blocks_15_conv2d_Conv2D_bias_fused_bn: Tensor[(672), float32], %efficientnet_lite4_model_blocks_14_depthwise_conv2d_depthwise_weights_fused_bn: Tensor[(672, 1, 3, 3), float32], %efficientnet_lite4_model_blocks_14_depthwise_conv2d_depthwise_bias_fused_bn: Tensor[(672), float32], %efficientnet_lite4_model_blocks_14_conv2d_1_Conv2D_weights_fused_bn: Tensor[(112, 672, 1, 1), float32], %efficientnet_lite4_model_blocks_14_conv2d_1_Conv2D_bias_fused_bn: Tensor[(112), float32], %efficientnet_lite4_model_blocks_14_conv2d_Conv2D_weights_fused_bn: Tensor[(672, 112, 1, 1), float32], %efficientnet_lite4_model_blocks_14_conv2d_Conv2D_bias_fused_bn: Tensor[(672), float32], %efficientnet_lite4_model_blocks_13_depthwise_conv2d_depthwise_weights_fused_bn: Tensor[(672, 1, 3, 3), float32], %efficientnet_lite4_model_blocks_13_depthwise_conv2d_depthwise_bias_fused_bn: Tensor[(672), float32], %efficientnet_lite4_model_blocks_13_conv2d_1_Conv2D_weights_fused_bn: Tensor[(112, 672, 1, 1), float32], %efficientnet_lite4_model_blocks_13_conv2d_1_Conv2D_bias_fused_bn: Tensor[(112), float32], %efficientnet_lite4_model_blocks_13_conv2d_Conv2D_weights_fused_bn: Tensor[(672, 112, 1, 1), float32], %efficientnet_lite4_model_blocks_13_conv2d_Conv2D_bias_fused_bn: Tensor[(672), float32], %efficientnet_lite4_model_blocks_12_depthwise_conv2d_depthwise_weights_fused_bn: Tensor[(672, 1, 3, 3), float32], %efficientnet_lite4_model_blocks_12_depthwise_conv2d_depthwise_bias_fused_bn: Tensor[(672), float32], %efficientnet_lite4_model_blocks_12_conv2d_1_Conv2D_weights_fused_bn: Tensor[(112, 672, 1, 1), float32], %efficientnet_lite4_model_blocks_12_conv2d_1_Conv2D_bias_fused_bn: Tensor[(112), float32], %efficientnet_lite4_model_blocks_12_conv2d_Conv2D_weights_fused_bn: Tensor[(672, 112, 1, 1), float32], %efficientnet_lite4_model_blocks_12_conv2d_Conv2D_bias_fused_bn: Tensor[(672), float32], %efficientnet_lite4_model_blocks_11_depthwise_conv2d_depthwise_weights_fused_bn: Tensor[(672, 1, 3, 3), float32], %efficientnet_lite4_model_blocks_11_depthwise_conv2d_depthwise_bias_fused_bn: Tensor[(672), float32], %efficientnet_lite4_model_blocks_11_conv2d_1_Conv2D_weights_fused_bn: Tensor[(112, 672, 1, 1), float32], %efficientnet_lite4_model_blocks_11_conv2d_1_Conv2D_bias_fused_bn: Tensor[(112), float32], %efficientnet_lite4_model_blocks_11_conv2d_Conv2D_weights_fused_bn: Tensor[(672, 112, 1, 1), float32], %efficientnet_lite4_model_blocks_11_conv2d_Conv2D_bias_fused_bn: Tensor[(672), float32], %efficientnet_lite4_model_blocks_10_tpu_batch_normalization_ReadVariableOp_1_0: Tensor[(672), float32], %efficientnet_lite4_model_blocks_10_tpu_batch_normalization_ReadVariableOp_0: Tensor[(672), float32], %efficientnet_lite4_model_blocks_10_tpu_batch_normalization_FusedBatchNormV3_ReadVariableOp_1_0: Tensor[(672), float32], %efficientnet_lite4_model_blocks_10_tpu_batch_normalization_FusedBatchNormV3_ReadVariableOp_0: Tensor[(672), float32], %efficientnet_lite4_model_blocks_10_depthwise_conv2d_depthwise_weights_fused_bn: Tensor[(672, 1, 3, 3), float32], %efficientnet_lite4_model_blocks_10_depthwise_conv2d_depthwise_bias_fused_bn: Tensor[(672), float32], %efficientnet_lite4_model_blocks_10_conv2d_1_Conv2D_weights_fused_bn: Tensor[(112, 672, 1, 1), float32], %efficientnet_lite4_model_blocks_10_conv2d_1_Conv2D_bias_fused_bn: Tensor[(112), float32], %efficientnet_lite4_model_blocks_10_conv2d_Conv2D_ReadVariableOp_0: Tensor[(672, 112, 1, 1), float32], %efficientnet_lite4_model_blocks_1_tpu_batch_normalization_ReadVariableOp_1_0: Tensor[(144), float32], %efficientnet_lite4_model_blocks_1_tpu_batch_normalization_ReadVariableOp_0: Tensor[(144), float32], %efficientnet_lite4_model_blocks_1_tpu_batch_normalization_FusedBatchNormV3_ReadVariableOp_1_0: Tensor[(144), float32], %efficientnet_lite4_model_blocks_1_tpu_batch_normalization_FusedBatchNormV3_ReadVariableOp_0: Tensor[(144), float32], %efficientnet_lite4_model_blocks_1_depthwise_conv2d_depthwise_weights_fused_bn: Tensor[(144, 1, 3, 3), float32], %efficientnet_lite4_model_blocks_1_depthwise_conv2d_depthwise_bias_fused_bn: Tensor[(144), float32], %efficientnet_lite4_model_blocks_1_conv2d_1_Conv2D_weights_fused_bn: Tensor[(32, 144, 1, 1), float32], %efficientnet_lite4_model_blocks_1_conv2d_1_Conv2D_bias_fused_bn: Tensor[(32), float32], %efficientnet_lite4_model_blocks_1_conv2d_Conv2D_ReadVariableOp_0: Tensor[(144, 24, 1, 1), float32], %efficientnet_lite4_model_blocks_0_depthwise_conv2d_depthwise_weights_fused_bn: Tensor[(32, 1, 3, 3), float32], %efficientnet_lite4_model_blocks_0_depthwise_conv2d_depthwise_bias_fused_bn: Tensor[(32), float32], %efficientnet_lite4_model_blocks_0_conv2d_Conv2D_weights_fused_bn: Tensor[(24, 32, 1, 1), float32], %efficientnet_lite4_model_blocks_0_conv2d_Conv2D_bias_fused_bn: Tensor[(24), float32]) -> Tensor[(1, 1000), float32] {
  %0 = transpose(%images_0, axes=[0, 3, 1, 2]) /* ty=Tensor[(1, 3, 224, 224), float32] */;
  %1 = nn.conv2d(%0, %efficientnet_lite4_model_stem_conv2d_Conv2D_weights_fused_bn, strides=[2, 2], padding=[0, 0, 1, 1], kernel_size=[3, 3]) /* ty=Tensor[(1, 32, 112, 112), float32] */;
  %2 = nn.bias_add(%1, %efficientnet_lite4_model_stem_conv2d_Conv2D_bias_fused_bn) /* ty=Tensor[(1, 32, 112, 112), float32] */;
  %3 = maximum(%2, %efficientnet_lite4_model_blocks_29_Relu6_1_min__569) /* ty=Tensor[(1, 32, 112, 112), float32] */;
  %4 = minimum(%3, %efficientnet_lite4_model_blocks_19_Relu6_1_max__380) /* ty=Tensor[(1, 32, 112, 112), float32] */;
  %5 = nn.conv2d(%4, %efficientnet_lite4_model_blocks_0_depthwise_conv2d_depthwise_weights_fused_bn, padding=[1, 1, 1, 1], groups=32, kernel_size=[3, 3]) /* ty=Tensor[(1, 32, 112, 112), float32] */;
  %6 = nn.bias_add(%5, %efficientnet_lite4_model_blocks_0_depthwise_conv2d_depthwise_bias_fused_bn) /* ty=Tensor[(1, 32, 112, 112), float32] */;
  %7 = maximum(%6, %efficientnet_lite4_model_blocks_29_Relu6_1_min__569) /* ty=Tensor[(1, 32, 112, 112), float32] */;
  %8 = minimum(%7, %efficientnet_lite4_model_blocks_19_Relu6_1_max__380) /* ty=Tensor[(1, 32, 112, 112), float32] */;
  %9 = nn.conv2d(%8, %efficientnet_lite4_model_blocks_0_conv2d_Conv2D_weights_fused_bn, padding=[0, 0, 0, 0], kernel_size=[1, 1]) /* ty=Tensor[(1, 24, 112, 112), float32] */;
  %10 = nn.bias_add(%9, %efficientnet_lite4_model_blocks_0_conv2d_Conv2D_bias_fused_bn) /* ty=Tensor[(1, 24, 112, 112), float32] */;
  %11 = nn.conv2d(%10, %efficientnet_lite4_model_blocks_1_conv2d_Conv2D_ReadVariableOp_0, padding=[0, 0, 0, 0], kernel_size=[1, 1]) /* ty=Tensor[(1, 144, 112, 112), float32] */;
  %12 = nn.batch_norm(%11, %efficientnet_lite4_model_blocks_1_tpu_batch_normalization_ReadVariableOp_0, %efficientnet_lite4_model_blocks_1_tpu_batch_normalization_ReadVariableOp_1_0, %efficientnet_lite4_model_blocks_1_tpu_batch_normalization_FusedBatchNormV3_ReadVariableOp_0, %efficientnet_lite4_model_blocks_1_tpu_batch_normalization_FusedBatchNormV3_ReadVariableOp_1_0, epsilon=0.001f) /* ty=(Tensor[(1, 144, 112, 112), float32], Tensor[(144), float32], Tensor[(144), float32]) */;
  %13 = %12.0;
  %14 = maximum(%13, %efficientnet_lite4_model_blocks_29_Relu6_1_min__569) /* ty=Tensor[(1, 144, 112, 112), float32] */;
  %15 = minimum(%14, %efficientnet_lite4_model_blocks_19_Relu6_1_max__380) /* ty=Tensor[(1, 144, 112, 112), float32] */;
  %16 = nn.conv2d(%15, %efficientnet_lite4_model_blocks_1_depthwise_conv2d_depthwise_weights_fused_bn, strides=[2, 2], padding=[0, 0, 1, 1], groups=144, kernel_size=[3, 3]) /* ty=Tensor[(1, 144, 56, 56), float32] */;
  %17 = nn.bias_add(%16, %efficientnet_lite4_model_blocks_1_depthwise_conv2d_depthwise_bias_fused_bn) /* ty=Tensor[(1, 144, 56, 56), float32] */;
  %18 = maximum(%17, %efficientnet_lite4_model_blocks_29_Relu6_1_min__569) /* ty=Tensor[(1, 144, 56, 56), float32] */;
  %19 = minimum(%18, %efficientnet_lite4_model_blocks_19_Relu6_1_max__380) /* ty=Tensor[(1, 144, 56, 56), float32] */;
  %20 = nn.conv2d(%19, %efficientnet_lite4_model_blocks_1_conv2d_1_Conv2D_weights_fused_bn, padding=[0, 0, 0, 0], kernel_size=[1, 1]) /* ty=Tensor[(1, 32, 56, 56), float32] */;
  %21 = nn.bias_add(%20, %efficientnet_lite4_model_blocks_1_conv2d_1_Conv2D_bias_fused_bn) /* ty=Tensor[(1, 32, 56, 56), float32] */;
  %22 = nn.conv2d(%21, %efficientnet_lite4_model_blocks_2_conv2d_Conv2D_ReadVariableOp_0, padding=[0, 0, 0, 0], kernel_size=[1, 1]) /* ty=Tensor[(1, 192, 56, 56), float32] */;
  %23 = nn.batch_norm(%22, %efficientnet_lite4_model_blocks_2_tpu_batch_normalization_ReadVariableOp_0, %efficientnet_lite4_model_blocks_2_tpu_batch_normalization_ReadVariableOp_1_0, %efficientnet_lite4_model_blocks_2_tpu_batch_normalization_FusedBatchNormV3_ReadVariableOp_0, %efficientnet_lite4_model_blocks_2_tpu_batch_normalization_FusedBatchNormV3_ReadVariableOp_1_0, epsilon=0.001f) /* ty=(Tensor[(1, 192, 56, 56), float32], Tensor[(192), float32], Tensor[(192), float32]) */;
  %24 = %23.0;
  %25 = maximum(%24, %efficientnet_lite4_model_blocks_29_Relu6_1_min__569) /* ty=Tensor[(1, 192, 56, 56), float32] */;
  %26 = minimum(%25, %efficientnet_lite4_model_blocks_19_Relu6_1_max__380) /* ty=Tensor[(1, 192, 56, 56), float32] */;
  %27 = nn.conv2d(%26, %efficientnet_lite4_model_blocks_2_depthwise_conv2d_depthwise_weights_fused_bn, padding=[1, 1, 1, 1], groups=192, kernel_size=[3, 3]) /* ty=Tensor[(1, 192, 56, 56), float32] */;
  %28 = nn.bias_add(%27, %efficientnet_lite4_model_blocks_2_depthwise_conv2d_depthwise_bias_fused_bn) /* ty=Tensor[(1, 192, 56, 56), float32] */;
  %29 = maximum(%28, %efficientnet_lite4_model_blocks_29_Relu6_1_min__569) /* ty=Tensor[(1, 192, 56, 56), float32] */;
  %30 = minimum(%29, %efficientnet_lite4_model_blocks_19_Relu6_1_max__380) /* ty=Tensor[(1, 192, 56, 56), float32] */;
  %31 = nn.conv2d(%30, %efficientnet_lite4_model_blocks_2_conv2d_1_Conv2D_weights_fused_bn, padding=[0, 0, 0, 0], kernel_size=[1, 1]) /* ty=Tensor[(1, 32, 56, 56), float32] */;
  %32 = nn.bias_add(%31, %efficientnet_lite4_model_blocks_2_conv2d_1_Conv2D_bias_fused_bn) /* ty=Tensor[(1, 32, 56, 56), float32] */;
  %33 = add(%32, %21) /* ty=Tensor[(1, 32, 56, 56), float32] */;
  %34 = nn.conv2d(%33, %efficientnet_lite4_model_blocks_3_conv2d_Conv2D_weights_fused_bn, padding=[0, 0, 0, 0], kernel_size=[1, 1]) /* ty=Tensor[(1, 192, 56, 56), float32] */;
  %35 = nn.bias_add(%34, %efficientnet_lite4_model_blocks_3_conv2d_Conv2D_bias_fused_bn) /* ty=Tensor[(1, 192, 56, 56), float32] */;
  %36 = maximum(%35, %efficientnet_lite4_model_blocks_29_Relu6_1_min__569) /* ty=Tensor[(1, 192, 56, 56), float32] */;
  %37 = minimum(%36, %efficientnet_lite4_model_blocks_19_Relu6_1_max__380) /* ty=Tensor[(1, 192, 56, 56), float32] */;
  %38 = nn.conv2d(%37, %efficientnet_lite4_model_blocks_3_depthwise_conv2d_depthwise_weights_fused_bn, padding=[1, 1, 1, 1], groups=192, kernel_size=[3, 3]) /* ty=Tensor[(1, 192, 56, 56), float32] */;
  %39 = nn.bias_add(%38, %efficientnet_lite4_model_blocks_3_depthwise_conv2d_depthwise_bias_fused_bn) /* ty=Tensor[(1, 192, 56, 56), float32] */;
  %40 = maximum(%39, %efficientnet_lite4_model_blocks_29_Relu6_1_min__569) /* ty=Tensor[(1, 192, 56, 56), float32] */;
  %41 = minimum(%40, %efficientnet_lite4_model_blocks_19_Relu6_1_max__380) /* ty=Tensor[(1, 192, 56, 56), float32] */;
  %42 = nn.conv2d(%41, %efficientnet_lite4_model_blocks_3_conv2d_1_Conv2D_weights_fused_bn, padding=[0, 0, 0, 0], kernel_size=[1, 1]) /* ty=Tensor[(1, 32, 56, 56), float32] */;
  %43 = nn.bias_add(%42, %efficientnet_lite4_model_blocks_3_conv2d_1_Conv2D_bias_fused_bn) /* ty=Tensor[(1, 32, 56, 56), float32] */;
  %44 = add(%43, %33) /* ty=Tensor[(1, 32, 56, 56), float32] */;
  %45 = nn.conv2d(%44, %efficientnet_lite4_model_blocks_4_conv2d_Conv2D_weights_fused_bn, padding=[0, 0, 0, 0], kernel_size=[1, 1]) /* ty=Tensor[(1, 192, 56, 56), float32] */;
  %46 = nn.bias_add(%45, %efficientnet_lite4_model_blocks_4_conv2d_Conv2D_bias_fused_bn) /* ty=Tensor[(1, 192, 56, 56), float32] */;
  %47 = maximum(%46, %efficientnet_lite4_model_blocks_29_Relu6_1_min__569) /* ty=Tensor[(1, 192, 56, 56), float32] */;
  %48 = minimum(%47, %efficientnet_lite4_model_blocks_19_Relu6_1_max__380) /* ty=Tensor[(1, 192, 56, 56), float32] */;
  %49 = nn.conv2d(%48, %efficientnet_lite4_model_blocks_4_depthwise_conv2d_depthwise_weights_fused_bn, padding=[1, 1, 1, 1], groups=192, kernel_size=[3, 3]) /* ty=Tensor[(1, 192, 56, 56), float32] */;
  %50 = nn.bias_add(%49, %efficientnet_lite4_model_blocks_4_depthwise_conv2d_depthwise_bias_fused_bn) /* ty=Tensor[(1, 192, 56, 56), float32] */;
  %51 = maximum(%50, %efficientnet_lite4_model_blocks_29_Relu6_1_min__569) /* ty=Tensor[(1, 192, 56, 56), float32] */;
  %52 = minimum(%51, %efficientnet_lite4_model_blocks_19_Relu6_1_max__380) /* ty=Tensor[(1, 192, 56, 56), float32] */;
  %53 = nn.conv2d(%52, %efficientnet_lite4_model_blocks_4_conv2d_1_Conv2D_weights_fused_bn, padding=[0, 0, 0, 0], kernel_size=[1, 1]) /* ty=Tensor[(1, 32, 56, 56), float32] */;
  %54 = nn.bias_add(%53, %efficientnet_lite4_model_blocks_4_conv2d_1_Conv2D_bias_fused_bn) /* ty=Tensor[(1, 32, 56, 56), float32] */;
  %55 = add(%54, %44) /* ty=Tensor[(1, 32, 56, 56), float32] */;
  %56 = nn.conv2d(%55, %efficientnet_lite4_model_blocks_5_conv2d_Conv2D_weights_fused_bn, padding=[0, 0, 0, 0], kernel_size=[1, 1]) /* ty=Tensor[(1, 192, 56, 56), float32] */;
  %57 = nn.bias_add(%56, %efficientnet_lite4_model_blocks_5_conv2d_Conv2D_bias_fused_bn) /* ty=Tensor[(1, 192, 56, 56), float32] */;
  %58 = maximum(%57, %efficientnet_lite4_model_blocks_29_Relu6_1_min__569) /* ty=Tensor[(1, 192, 56, 56), float32] */;
  %59 = minimum(%58, %efficientnet_lite4_model_blocks_19_Relu6_1_max__380) /* ty=Tensor[(1, 192, 56, 56), float32] */;
  %60 = nn.conv2d(%59, %efficientnet_lite4_model_blocks_5_depthwise_conv2d_depthwise_weights_fused_bn, strides=[2, 2], padding=[1, 1, 2, 2], groups=192, kernel_size=[5, 5]) /* ty=Tensor[(1, 192, 28, 28), float32] */;
  %61 = nn.bias_add(%60, %efficientnet_lite4_model_blocks_5_depthwise_conv2d_depthwise_bias_fused_bn) /* ty=Tensor[(1, 192, 28, 28), float32] */;
  %62 = maximum(%61, %efficientnet_lite4_model_blocks_29_Relu6_1_min__569) /* ty=Tensor[(1, 192, 28, 28), float32] */;
  %63 = minimum(%62, %efficientnet_lite4_model_blocks_19_Relu6_1_max__380) /* ty=Tensor[(1, 192, 28, 28), float32] */;
  %64 = nn.conv2d(%63, %efficientnet_lite4_model_blocks_5_conv2d_1_Conv2D_weights_fused_bn, padding=[0, 0, 0, 0], kernel_size=[1, 1]) /* ty=Tensor[(1, 56, 28, 28), float32] */;
  %65 = nn.bias_add(%64, %efficientnet_lite4_model_blocks_5_conv2d_1_Conv2D_bias_fused_bn) /* ty=Tensor[(1, 56, 28, 28), float32] */;
  %66 = nn.conv2d(%65, %efficientnet_lite4_model_blocks_6_conv2d_Conv2D_ReadVariableOp_0, padding=[0, 0, 0, 0], kernel_size=[1, 1]) /* ty=Tensor[(1, 336, 28, 28), float32] */;
  %67 = nn.batch_norm(%66, %efficientnet_lite4_model_blocks_6_tpu_batch_normalization_ReadVariableOp_0, %efficientnet_lite4_model_blocks_6_tpu_batch_normalization_ReadVariableOp_1_0, %efficientnet_lite4_model_blocks_6_tpu_batch_normalization_FusedBatchNormV3_ReadVariableOp_0, %efficientnet_lite4_model_blocks_6_tpu_batch_normalization_FusedBatchNormV3_ReadVariableOp_1_0, epsilon=0.001f) /* ty=(Tensor[(1, 336, 28, 28), float32], Tensor[(336), float32], Tensor[(336), float32]) */;
  %68 = %67.0;
  %69 = maximum(%68, %efficientnet_lite4_model_blocks_29_Relu6_1_min__569) /* ty=Tensor[(1, 336, 28, 28), float32] */;
  %70 = minimum(%69, %efficientnet_lite4_model_blocks_19_Relu6_1_max__380) /* ty=Tensor[(1, 336, 28, 28), float32] */;
  %71 = nn.conv2d(%70, %efficientnet_lite4_model_blocks_6_depthwise_conv2d_depthwise_weights_fused_bn, padding=[2, 2, 2, 2], groups=336, kernel_size=[5, 5]) /* ty=Tensor[(1, 336, 28, 28), float32] */;
  %72 = nn.bias_add(%71, %efficientnet_lite4_model_blocks_6_depthwise_conv2d_depthwise_bias_fused_bn) /* ty=Tensor[(1, 336, 28, 28), float32] */;
  %73 = maximum(%72, %efficientnet_lite4_model_blocks_29_Relu6_1_min__569) /* ty=Tensor[(1, 336, 28, 28), float32] */;
  %74 = minimum(%73, %efficientnet_lite4_model_blocks_19_Relu6_1_max__380) /* ty=Tensor[(1, 336, 28, 28), float32] */;
  %75 = nn.conv2d(%74, %efficientnet_lite4_model_blocks_6_conv2d_1_Conv2D_weights_fused_bn, padding=[0, 0, 0, 0], kernel_size=[1, 1]) /* ty=Tensor[(1, 56, 28, 28), float32] */;
  %76 = nn.bias_add(%75, %efficientnet_lite4_model_blocks_6_conv2d_1_Conv2D_bias_fused_bn) /* ty=Tensor[(1, 56, 28, 28), float32] */;
  %77 = add(%76, %65) /* ty=Tensor[(1, 56, 28, 28), float32] */;
  %78 = nn.conv2d(%77, %efficientnet_lite4_model_blocks_7_conv2d_Conv2D_weights_fused_bn, padding=[0, 0, 0, 0], kernel_size=[1, 1]) /* ty=Tensor[(1, 336, 28, 28), float32] */;
  %79 = nn.bias_add(%78, %efficientnet_lite4_model_blocks_7_conv2d_Conv2D_bias_fused_bn) /* ty=Tensor[(1, 336, 28, 28), float32] */;
  %80 = maximum(%79, %efficientnet_lite4_model_blocks_29_Relu6_1_min__569) /* ty=Tensor[(1, 336, 28, 28), float32] */;
  %81 = minimum(%80, %efficientnet_lite4_model_blocks_19_Relu6_1_max__380) /* ty=Tensor[(1, 336, 28, 28), float32] */;
  %82 = nn.conv2d(%81, %efficientnet_lite4_model_blocks_7_depthwise_conv2d_depthwise_weights_fused_bn, padding=[2, 2, 2, 2], groups=336, kernel_size=[5, 5]) /* ty=Tensor[(1, 336, 28, 28), float32] */;
  %83 = nn.bias_add(%82, %efficientnet_lite4_model_blocks_7_depthwise_conv2d_depthwise_bias_fused_bn) /* ty=Tensor[(1, 336, 28, 28), float32] */;
  %84 = maximum(%83, %efficientnet_lite4_model_blocks_29_Relu6_1_min__569) /* ty=Tensor[(1, 336, 28, 28), float32] */;
  %85 = minimum(%84, %efficientnet_lite4_model_blocks_19_Relu6_1_max__380) /* ty=Tensor[(1, 336, 28, 28), float32] */;
  %86 = nn.conv2d(%85, %efficientnet_lite4_model_blocks_7_conv2d_1_Conv2D_weights_fused_bn, padding=[0, 0, 0, 0], kernel_size=[1, 1]) /* ty=Tensor[(1, 56, 28, 28), float32] */;
  %87 = nn.bias_add(%86, %efficientnet_lite4_model_blocks_7_conv2d_1_Conv2D_bias_fused_bn) /* ty=Tensor[(1, 56, 28, 28), float32] */;
  %88 = add(%87, %77) /* ty=Tensor[(1, 56, 28, 28), float32] */;
  %89 = nn.conv2d(%88, %efficientnet_lite4_model_blocks_8_conv2d_Conv2D_weights_fused_bn, padding=[0, 0, 0, 0], kernel_size=[1, 1]) /* ty=Tensor[(1, 336, 28, 28), float32] */;
  %90 = nn.bias_add(%89, %efficientnet_lite4_model_blocks_8_conv2d_Conv2D_bias_fused_bn) /* ty=Tensor[(1, 336, 28, 28), float32] */;
  %91 = maximum(%90, %efficientnet_lite4_model_blocks_29_Relu6_1_min__569) /* ty=Tensor[(1, 336, 28, 28), float32] */;
  %92 = minimum(%91, %efficientnet_lite4_model_blocks_19_Relu6_1_max__380) /* ty=Tensor[(1, 336, 28, 28), float32] */;
  %93 = nn.conv2d(%92, %efficientnet_lite4_model_blocks_8_depthwise_conv2d_depthwise_weights_fused_bn, padding=[2, 2, 2, 2], groups=336, kernel_size=[5, 5]) /* ty=Tensor[(1, 336, 28, 28), float32] */;
  %94 = nn.bias_add(%93, %efficientnet_lite4_model_blocks_8_depthwise_conv2d_depthwise_bias_fused_bn) /* ty=Tensor[(1, 336, 28, 28), float32] */;
  %95 = maximum(%94, %efficientnet_lite4_model_blocks_29_Relu6_1_min__569) /* ty=Tensor[(1, 336, 28, 28), float32] */;
  %96 = minimum(%95, %efficientnet_lite4_model_blocks_19_Relu6_1_max__380) /* ty=Tensor[(1, 336, 28, 28), float32] */;
  %97 = nn.conv2d(%96, %efficientnet_lite4_model_blocks_8_conv2d_1_Conv2D_weights_fused_bn, padding=[0, 0, 0, 0], kernel_size=[1, 1]) /* ty=Tensor[(1, 56, 28, 28), float32] */;
  %98 = nn.bias_add(%97, %efficientnet_lite4_model_blocks_8_conv2d_1_Conv2D_bias_fused_bn) /* ty=Tensor[(1, 56, 28, 28), float32] */;
  %99 = add(%98, %88) /* ty=Tensor[(1, 56, 28, 28), float32] */;
  %100 = nn.conv2d(%99, %efficientnet_lite4_model_blocks_9_conv2d_Conv2D_weights_fused_bn, padding=[0, 0, 0, 0], kernel_size=[1, 1]) /* ty=Tensor[(1, 336, 28, 28), float32] */;
  %101 = nn.bias_add(%100, %efficientnet_lite4_model_blocks_9_conv2d_Conv2D_bias_fused_bn) /* ty=Tensor[(1, 336, 28, 28), float32] */;
  %102 = maximum(%101, %efficientnet_lite4_model_blocks_29_Relu6_1_min__569) /* ty=Tensor[(1, 336, 28, 28), float32] */;
  %103 = minimum(%102, %efficientnet_lite4_model_blocks_19_Relu6_1_max__380) /* ty=Tensor[(1, 336, 28, 28), float32] */;
  %104 = nn.conv2d(%103, %efficientnet_lite4_model_blocks_9_depthwise_conv2d_depthwise_weights_fused_bn, strides=[2, 2], padding=[0, 0, 1, 1], groups=336, kernel_size=[3, 3]) /* ty=Tensor[(1, 336, 14, 14), float32] */;
  %105 = nn.bias_add(%104, %efficientnet_lite4_model_blocks_9_depthwise_conv2d_depthwise_bias_fused_bn) /* ty=Tensor[(1, 336, 14, 14), float32] */;
  %106 = maximum(%105, %efficientnet_lite4_model_blocks_29_Relu6_1_min__569) /* ty=Tensor[(1, 336, 14, 14), float32] */;
  %107 = minimum(%106, %efficientnet_lite4_model_blocks_19_Relu6_1_max__380) /* ty=Tensor[(1, 336, 14, 14), float32] */;
  %108 = nn.conv2d(%107, %efficientnet_lite4_model_blocks_9_conv2d_1_Conv2D_weights_fused_bn, padding=[0, 0, 0, 0], kernel_size=[1, 1]) /* ty=Tensor[(1, 112, 14, 14), float32] */;
  %109 = nn.bias_add(%108, %efficientnet_lite4_model_blocks_9_conv2d_1_Conv2D_bias_fused_bn) /* ty=Tensor[(1, 112, 14, 14), float32] */;
  %110 = nn.conv2d(%109, %efficientnet_lite4_model_blocks_10_conv2d_Conv2D_ReadVariableOp_0, padding=[0, 0, 0, 0], kernel_size=[1, 1]) /* ty=Tensor[(1, 672, 14, 14), float32] */;
  %111 = nn.batch_norm(%110, %efficientnet_lite4_model_blocks_10_tpu_batch_normalization_ReadVariableOp_0, %efficientnet_lite4_model_blocks_10_tpu_batch_normalization_ReadVariableOp_1_0, %efficientnet_lite4_model_blocks_10_tpu_batch_normalization_FusedBatchNormV3_ReadVariableOp_0, %efficientnet_lite4_model_blocks_10_tpu_batch_normalization_FusedBatchNormV3_ReadVariableOp_1_0, epsilon=0.001f) /* ty=(Tensor[(1, 672, 14, 14), float32], Tensor[(672), float32], Tensor[(672), float32]) */;
  %112 = %111.0;
  %113 = maximum(%112, %efficientnet_lite4_model_blocks_29_Relu6_1_min__569) /* ty=Tensor[(1, 672, 14, 14), float32] */;
  %114 = minimum(%113, %efficientnet_lite4_model_blocks_19_Relu6_1_max__380) /* ty=Tensor[(1, 672, 14, 14), float32] */;
  %115 = nn.conv2d(%114, %efficientnet_lite4_model_blocks_10_depthwise_conv2d_depthwise_weights_fused_bn, padding=[1, 1, 1, 1], groups=672, kernel_size=[3, 3]) /* ty=Tensor[(1, 672, 14, 14), float32] */;
  %116 = nn.bias_add(%115, %efficientnet_lite4_model_blocks_10_depthwise_conv2d_depthwise_bias_fused_bn) /* ty=Tensor[(1, 672, 14, 14), float32] */;
  %117 = maximum(%116, %efficientnet_lite4_model_blocks_29_Relu6_1_min__569) /* ty=Tensor[(1, 672, 14, 14), float32] */;
  %118 = minimum(%117, %efficientnet_lite4_model_blocks_19_Relu6_1_max__380) /* ty=Tensor[(1, 672, 14, 14), float32] */;
  %119 = nn.conv2d(%118, %efficientnet_lite4_model_blocks_10_conv2d_1_Conv2D_weights_fused_bn, padding=[0, 0, 0, 0], kernel_size=[1, 1]) /* ty=Tensor[(1, 112, 14, 14), float32] */;
  %120 = nn.bias_add(%119, %efficientnet_lite4_model_blocks_10_conv2d_1_Conv2D_bias_fused_bn) /* ty=Tensor[(1, 112, 14, 14), float32] */;
  %121 = add(%120, %109) /* ty=Tensor[(1, 112, 14, 14), float32] */;
  %122 = nn.conv2d(%121, %efficientnet_lite4_model_blocks_11_conv2d_Conv2D_weights_fused_bn, padding=[0, 0, 0, 0], kernel_size=[1, 1]) /* ty=Tensor[(1, 672, 14, 14), float32] */;
  %123 = nn.bias_add(%122, %efficientnet_lite4_model_blocks_11_conv2d_Conv2D_bias_fused_bn) /* ty=Tensor[(1, 672, 14, 14), float32] */;
  %124 = maximum(%123, %efficientnet_lite4_model_blocks_29_Relu6_1_min__569) /* ty=Tensor[(1, 672, 14, 14), float32] */;
  %125 = minimum(%124, %efficientnet_lite4_model_blocks_19_Relu6_1_max__380) /* ty=Tensor[(1, 672, 14, 14), float32] */;
  %126 = nn.conv2d(%125, %efficientnet_lite4_model_blocks_11_depthwise_conv2d_depthwise_weights_fused_bn, padding=[1, 1, 1, 1], groups=672, kernel_size=[3, 3]) /* ty=Tensor[(1, 672, 14, 14), float32] */;
  %127 = nn.bias_add(%126, %efficientnet_lite4_model_blocks_11_depthwise_conv2d_depthwise_bias_fused_bn) /* ty=Tensor[(1, 672, 14, 14), float32] */;
  %128 = maximum(%127, %efficientnet_lite4_model_blocks_29_Relu6_1_min__569) /* ty=Tensor[(1, 672, 14, 14), float32] */;
  %129 = minimum(%128, %efficientnet_lite4_model_blocks_19_Relu6_1_max__380) /* ty=Tensor[(1, 672, 14, 14), float32] */;
  %130 = nn.conv2d(%129, %efficientnet_lite4_model_blocks_11_conv2d_1_Conv2D_weights_fused_bn, padding=[0, 0, 0, 0], kernel_size=[1, 1]) /* ty=Tensor[(1, 112, 14, 14), float32] */;
  %131 = nn.bias_add(%130, %efficientnet_lite4_model_blocks_11_conv2d_1_Conv2D_bias_fused_bn) /* ty=Tensor[(1, 112, 14, 14), float32] */;
  %132 = add(%131, %121) /* ty=Tensor[(1, 112, 14, 14), float32] */;
  %133 = nn.conv2d(%132, %efficientnet_lite4_model_blocks_12_conv2d_Conv2D_weights_fused_bn, padding=[0, 0, 0, 0], kernel_size=[1, 1]) /* ty=Tensor[(1, 672, 14, 14), float32] */;
  %134 = nn.bias_add(%133, %efficientnet_lite4_model_blocks_12_conv2d_Conv2D_bias_fused_bn) /* ty=Tensor[(1, 672, 14, 14), float32] */;
  %135 = maximum(%134, %efficientnet_lite4_model_blocks_29_Relu6_1_min__569) /* ty=Tensor[(1, 672, 14, 14), float32] */;
  %136 = minimum(%135, %efficientnet_lite4_model_blocks_19_Relu6_1_max__380) /* ty=Tensor[(1, 672, 14, 14), float32] */;
  %137 = nn.conv2d(%136, %efficientnet_lite4_model_blocks_12_depthwise_conv2d_depthwise_weights_fused_bn, padding=[1, 1, 1, 1], groups=672, kernel_size=[3, 3]) /* ty=Tensor[(1, 672, 14, 14), float32] */;
  %138 = nn.bias_add(%137, %efficientnet_lite4_model_blocks_12_depthwise_conv2d_depthwise_bias_fused_bn) /* ty=Tensor[(1, 672, 14, 14), float32] */;
  %139 = maximum(%138, %efficientnet_lite4_model_blocks_29_Relu6_1_min__569) /* ty=Tensor[(1, 672, 14, 14), float32] */;
  %140 = minimum(%139, %efficientnet_lite4_model_blocks_19_Relu6_1_max__380) /* ty=Tensor[(1, 672, 14, 14), float32] */;
  %141 = nn.conv2d(%140, %efficientnet_lite4_model_blocks_12_conv2d_1_Conv2D_weights_fused_bn, padding=[0, 0, 0, 0], kernel_size=[1, 1]) /* ty=Tensor[(1, 112, 14, 14), float32] */;
  %142 = nn.bias_add(%141, %efficientnet_lite4_model_blocks_12_conv2d_1_Conv2D_bias_fused_bn) /* ty=Tensor[(1, 112, 14, 14), float32] */;
  %143 = add(%142, %132) /* ty=Tensor[(1, 112, 14, 14), float32] */;
  %144 = nn.conv2d(%143, %efficientnet_lite4_model_blocks_13_conv2d_Conv2D_weights_fused_bn, padding=[0, 0, 0, 0], kernel_size=[1, 1]) /* ty=Tensor[(1, 672, 14, 14), float32] */;
  %145 = nn.bias_add(%144, %efficientnet_lite4_model_blocks_13_conv2d_Conv2D_bias_fused_bn) /* ty=Tensor[(1, 672, 14, 14), float32] */;
  %146 = maximum(%145, %efficientnet_lite4_model_blocks_29_Relu6_1_min__569) /* ty=Tensor[(1, 672, 14, 14), float32] */;
  %147 = minimum(%146, %efficientnet_lite4_model_blocks_19_Relu6_1_max__380) /* ty=Tensor[(1, 672, 14, 14), float32] */;
  %148 = nn.conv2d(%147, %efficientnet_lite4_model_blocks_13_depthwise_conv2d_depthwise_weights_fused_bn, padding=[1, 1, 1, 1], groups=672, kernel_size=[3, 3]) /* ty=Tensor[(1, 672, 14, 14), float32] */;
  %149 = nn.bias_add(%148, %efficientnet_lite4_model_blocks_13_depthwise_conv2d_depthwise_bias_fused_bn) /* ty=Tensor[(1, 672, 14, 14), float32] */;
  %150 = maximum(%149, %efficientnet_lite4_model_blocks_29_Relu6_1_min__569) /* ty=Tensor[(1, 672, 14, 14), float32] */;
  %151 = minimum(%150, %efficientnet_lite4_model_blocks_19_Relu6_1_max__380) /* ty=Tensor[(1, 672, 14, 14), float32] */;
  %152 = nn.conv2d(%151, %efficientnet_lite4_model_blocks_13_conv2d_1_Conv2D_weights_fused_bn, padding=[0, 0, 0, 0], kernel_size=[1, 1]) /* ty=Tensor[(1, 112, 14, 14), float32] */;
  %153 = nn.bias_add(%152, %efficientnet_lite4_model_blocks_13_conv2d_1_Conv2D_bias_fused_bn) /* ty=Tensor[(1, 112, 14, 14), float32] */;
  %154 = add(%153, %143) /* ty=Tensor[(1, 112, 14, 14), float32] */;
  %155 = nn.conv2d(%154, %efficientnet_lite4_model_blocks_14_conv2d_Conv2D_weights_fused_bn, padding=[0, 0, 0, 0], kernel_size=[1, 1]) /* ty=Tensor[(1, 672, 14, 14), float32] */;
  %156 = nn.bias_add(%155, %efficientnet_lite4_model_blocks_14_conv2d_Conv2D_bias_fused_bn) /* ty=Tensor[(1, 672, 14, 14), float32] */;
  %157 = maximum(%156, %efficientnet_lite4_model_blocks_29_Relu6_1_min__569) /* ty=Tensor[(1, 672, 14, 14), float32] */;
  %158 = minimum(%157, %efficientnet_lite4_model_blocks_19_Relu6_1_max__380) /* ty=Tensor[(1, 672, 14, 14), float32] */;
  %159 = nn.conv2d(%158, %efficientnet_lite4_model_blocks_14_depthwise_conv2d_depthwise_weights_fused_bn, padding=[1, 1, 1, 1], groups=672, kernel_size=[3, 3]) /* ty=Tensor[(1, 672, 14, 14), float32] */;
  %160 = nn.bias_add(%159, %efficientnet_lite4_model_blocks_14_depthwise_conv2d_depthwise_bias_fused_bn) /* ty=Tensor[(1, 672, 14, 14), float32] */;
  %161 = maximum(%160, %efficientnet_lite4_model_blocks_29_Relu6_1_min__569) /* ty=Tensor[(1, 672, 14, 14), float32] */;
  %162 = minimum(%161, %efficientnet_lite4_model_blocks_19_Relu6_1_max__380) /* ty=Tensor[(1, 672, 14, 14), float32] */;
  %163 = nn.conv2d(%162, %efficientnet_lite4_model_blocks_14_conv2d_1_Conv2D_weights_fused_bn, padding=[0, 0, 0, 0], kernel_size=[1, 1]) /* ty=Tensor[(1, 112, 14, 14), float32] */;
  %164 = nn.bias_add(%163, %efficientnet_lite4_model_blocks_14_conv2d_1_Conv2D_bias_fused_bn) /* ty=Tensor[(1, 112, 14, 14), float32] */;
  %165 = add(%164, %154) /* ty=Tensor[(1, 112, 14, 14), float32] */;
  %166 = nn.conv2d(%165, %efficientnet_lite4_model_blocks_15_conv2d_Conv2D_weights_fused_bn, padding=[0, 0, 0, 0], kernel_size=[1, 1]) /* ty=Tensor[(1, 672, 14, 14), float32] */;
  %167 = nn.bias_add(%166, %efficientnet_lite4_model_blocks_15_conv2d_Conv2D_bias_fused_bn) /* ty=Tensor[(1, 672, 14, 14), float32] */;
  %168 = maximum(%167, %efficientnet_lite4_model_blocks_29_Relu6_1_min__569) /* ty=Tensor[(1, 672, 14, 14), float32] */;
  %169 = minimum(%168, %efficientnet_lite4_model_blocks_19_Relu6_1_max__380) /* ty=Tensor[(1, 672, 14, 14), float32] */;
  %170 = nn.conv2d(%169, %efficientnet_lite4_model_blocks_15_depthwise_conv2d_depthwise_weights_fused_bn, padding=[2, 2, 2, 2], groups=672, kernel_size=[5, 5]) /* ty=Tensor[(1, 672, 14, 14), float32] */;
  %171 = nn.bias_add(%170, %efficientnet_lite4_model_blocks_15_depthwise_conv2d_depthwise_bias_fused_bn) /* ty=Tensor[(1, 672, 14, 14), float32] */;
  %172 = maximum(%171, %efficientnet_lite4_model_blocks_29_Relu6_1_min__569) /* ty=Tensor[(1, 672, 14, 14), float32] */;
  %173 = minimum(%172, %efficientnet_lite4_model_blocks_19_Relu6_1_max__380) /* ty=Tensor[(1, 672, 14, 14), float32] */;
  %174 = nn.conv2d(%173, %efficientnet_lite4_model_blocks_15_conv2d_1_Conv2D_weights_fused_bn, padding=[0, 0, 0, 0], kernel_size=[1, 1]) /* ty=Tensor[(1, 160, 14, 14), float32] */;
  %175 = nn.bias_add(%174, %efficientnet_lite4_model_blocks_15_conv2d_1_Conv2D_bias_fused_bn) /* ty=Tensor[(1, 160, 14, 14), float32] */;
  %176 = nn.conv2d(%175, %efficientnet_lite4_model_blocks_16_conv2d_Conv2D_ReadVariableOp_0, padding=[0, 0, 0, 0], kernel_size=[1, 1]) /* ty=Tensor[(1, 960, 14, 14), float32] */;
  %177 = nn.batch_norm(%176, %efficientnet_lite4_model_blocks_16_tpu_batch_normalization_ReadVariableOp_0, %efficientnet_lite4_model_blocks_16_tpu_batch_normalization_ReadVariableOp_1_0, %efficientnet_lite4_model_blocks_16_tpu_batch_normalization_FusedBatchNormV3_ReadVariableOp_0, %efficientnet_lite4_model_blocks_16_tpu_batch_normalization_FusedBatchNormV3_ReadVariableOp_1_0, epsilon=0.001f) /* ty=(Tensor[(1, 960, 14, 14), float32], Tensor[(960), float32], Tensor[(960), float32]) */;
  %178 = %177.0;
  %179 = maximum(%178, %efficientnet_lite4_model_blocks_29_Relu6_1_min__569) /* ty=Tensor[(1, 960, 14, 14), float32] */;
  %180 = minimum(%179, %efficientnet_lite4_model_blocks_19_Relu6_1_max__380) /* ty=Tensor[(1, 960, 14, 14), float32] */;
  %181 = nn.conv2d(%180, %efficientnet_lite4_model_blocks_16_depthwise_conv2d_depthwise_weights_fused_bn, padding=[2, 2, 2, 2], groups=960, kernel_size=[5, 5]) /* ty=Tensor[(1, 960, 14, 14), float32] */;
  %182 = nn.bias_add(%181, %efficientnet_lite4_model_blocks_16_depthwise_conv2d_depthwise_bias_fused_bn) /* ty=Tensor[(1, 960, 14, 14), float32] */;
  %183 = maximum(%182, %efficientnet_lite4_model_blocks_29_Relu6_1_min__569) /* ty=Tensor[(1, 960, 14, 14), float32] */;
  %184 = minimum(%183, %efficientnet_lite4_model_blocks_19_Relu6_1_max__380) /* ty=Tensor[(1, 960, 14, 14), float32] */;
  %185 = nn.conv2d(%184, %efficientnet_lite4_model_blocks_16_conv2d_1_Conv2D_weights_fused_bn, padding=[0, 0, 0, 0], kernel_size=[1, 1]) /* ty=Tensor[(1, 160, 14, 14), float32] */;
  %186 = nn.bias_add(%185, %efficientnet_lite4_model_blocks_16_conv2d_1_Conv2D_bias_fused_bn) /* ty=Tensor[(1, 160, 14, 14), float32] */;
  %187 = add(%186, %175) /* ty=Tensor[(1, 160, 14, 14), float32] */;
  %188 = nn.conv2d(%187, %efficientnet_lite4_model_blocks_17_conv2d_Conv2D_weights_fused_bn, padding=[0, 0, 0, 0], kernel_size=[1, 1]) /* ty=Tensor[(1, 960, 14, 14), float32] */;
  %189 = nn.bias_add(%188, %efficientnet_lite4_model_blocks_17_conv2d_Conv2D_bias_fused_bn) /* ty=Tensor[(1, 960, 14, 14), float32] */;
  %190 = maximum(%189, %efficientnet_lite4_model_blocks_29_Relu6_1_min__569) /* ty=Tensor[(1, 960, 14, 14), float32] */;
  %191 = minimum(%190, %efficientnet_lite4_model_blocks_19_Relu6_1_max__380) /* ty=Tensor[(1, 960, 14, 14), float32] */;
  %192 = nn.conv2d(%191, %efficientnet_lite4_model_blocks_17_depthwise_conv2d_depthwise_weights_fused_bn, padding=[2, 2, 2, 2], groups=960, kernel_size=[5, 5]) /* ty=Tensor[(1, 960, 14, 14), float32] */;
  %193 = nn.bias_add(%192, %efficientnet_lite4_model_blocks_17_depthwise_conv2d_depthwise_bias_fused_bn) /* ty=Tensor[(1, 960, 14, 14), float32] */;
  %194 = maximum(%193, %efficientnet_lite4_model_blocks_29_Relu6_1_min__569) /* ty=Tensor[(1, 960, 14, 14), float32] */;
  %195 = minimum(%194, %efficientnet_lite4_model_blocks_19_Relu6_1_max__380) /* ty=Tensor[(1, 960, 14, 14), float32] */;
  %196 = nn.conv2d(%195, %efficientnet_lite4_model_blocks_17_conv2d_1_Conv2D_weights_fused_bn, padding=[0, 0, 0, 0], kernel_size=[1, 1]) /* ty=Tensor[(1, 160, 14, 14), float32] */;
  %197 = nn.bias_add(%196, %efficientnet_lite4_model_blocks_17_conv2d_1_Conv2D_bias_fused_bn) /* ty=Tensor[(1, 160, 14, 14), float32] */;
  %198 = add(%197, %187) /* ty=Tensor[(1, 160, 14, 14), float32] */;
  %199 = nn.conv2d(%198, %efficientnet_lite4_model_blocks_18_conv2d_Conv2D_weights_fused_bn, padding=[0, 0, 0, 0], kernel_size=[1, 1]) /* ty=Tensor[(1, 960, 14, 14), float32] */;
  %200 = nn.bias_add(%199, %efficientnet_lite4_model_blocks_18_conv2d_Conv2D_bias_fused_bn) /* ty=Tensor[(1, 960, 14, 14), float32] */;
  %201 = maximum(%200, %efficientnet_lite4_model_blocks_29_Relu6_1_min__569) /* ty=Tensor[(1, 960, 14, 14), float32] */;
  %202 = minimum(%201, %efficientnet_lite4_model_blocks_19_Relu6_1_max__380) /* ty=Tensor[(1, 960, 14, 14), float32] */;
  %203 = nn.conv2d(%202, %efficientnet_lite4_model_blocks_18_depthwise_conv2d_depthwise_weights_fused_bn, padding=[2, 2, 2, 2], groups=960, kernel_size=[5, 5]) /* ty=Tensor[(1, 960, 14, 14), float32] */;
  %204 = nn.bias_add(%203, %efficientnet_lite4_model_blocks_18_depthwise_conv2d_depthwise_bias_fused_bn) /* ty=Tensor[(1, 960, 14, 14), float32] */;
  %205 = maximum(%204, %efficientnet_lite4_model_blocks_29_Relu6_1_min__569) /* ty=Tensor[(1, 960, 14, 14), float32] */;
  %206 = minimum(%205, %efficientnet_lite4_model_blocks_19_Relu6_1_max__380) /* ty=Tensor[(1, 960, 14, 14), float32] */;
  %207 = nn.conv2d(%206, %efficientnet_lite4_model_blocks_18_conv2d_1_Conv2D_weights_fused_bn, padding=[0, 0, 0, 0], kernel_size=[1, 1]) /* ty=Tensor[(1, 160, 14, 14), float32] */;
  %208 = nn.bias_add(%207, %efficientnet_lite4_model_blocks_18_conv2d_1_Conv2D_bias_fused_bn) /* ty=Tensor[(1, 160, 14, 14), float32] */;
  %209 = add(%208, %198) /* ty=Tensor[(1, 160, 14, 14), float32] */;
  %210 = nn.conv2d(%209, %efficientnet_lite4_model_blocks_19_conv2d_Conv2D_weights_fused_bn, padding=[0, 0, 0, 0], kernel_size=[1, 1]) /* ty=Tensor[(1, 960, 14, 14), float32] */;
  %211 = nn.bias_add(%210, %efficientnet_lite4_model_blocks_19_conv2d_Conv2D_bias_fused_bn) /* ty=Tensor[(1, 960, 14, 14), float32] */;
  %212 = maximum(%211, %efficientnet_lite4_model_blocks_29_Relu6_1_min__569) /* ty=Tensor[(1, 960, 14, 14), float32] */;
  %213 = minimum(%212, %efficientnet_lite4_model_blocks_19_Relu6_1_max__380) /* ty=Tensor[(1, 960, 14, 14), float32] */;
  %214 = nn.conv2d(%213, %efficientnet_lite4_model_blocks_19_depthwise_conv2d_depthwise_weights_fused_bn, padding=[2, 2, 2, 2], groups=960, kernel_size=[5, 5]) /* ty=Tensor[(1, 960, 14, 14), float32] */;
  %215 = nn.bias_add(%214, %efficientnet_lite4_model_blocks_19_depthwise_conv2d_depthwise_bias_fused_bn) /* ty=Tensor[(1, 960, 14, 14), float32] */;
  %216 = maximum(%215, %efficientnet_lite4_model_blocks_29_Relu6_1_min__569) /* ty=Tensor[(1, 960, 14, 14), float32] */;
  %217 = minimum(%216, %efficientnet_lite4_model_blocks_19_Relu6_1_max__380) /* ty=Tensor[(1, 960, 14, 14), float32] */;
  %218 = nn.conv2d(%217, %efficientnet_lite4_model_blocks_19_conv2d_1_Conv2D_weights_fused_bn, padding=[0, 0, 0, 0], kernel_size=[1, 1]) /* ty=Tensor[(1, 160, 14, 14), float32] */;
  %219 = nn.bias_add(%218, %efficientnet_lite4_model_blocks_19_conv2d_1_Conv2D_bias_fused_bn) /* ty=Tensor[(1, 160, 14, 14), float32] */;
  %220 = add(%219, %209) /* ty=Tensor[(1, 160, 14, 14), float32] */;
  %221 = nn.conv2d(%220, %efficientnet_lite4_model_blocks_20_conv2d_Conv2D_weights_fused_bn, padding=[0, 0, 0, 0], kernel_size=[1, 1]) /* ty=Tensor[(1, 960, 14, 14), float32] */;
  %222 = nn.bias_add(%221, %efficientnet_lite4_model_blocks_20_conv2d_Conv2D_bias_fused_bn) /* ty=Tensor[(1, 960, 14, 14), float32] */;
  %223 = maximum(%222, %efficientnet_lite4_model_blocks_29_Relu6_1_min__569) /* ty=Tensor[(1, 960, 14, 14), float32] */;
  %224 = minimum(%223, %efficientnet_lite4_model_blocks_19_Relu6_1_max__380) /* ty=Tensor[(1, 960, 14, 14), float32] */;
  %225 = nn.conv2d(%224, %efficientnet_lite4_model_blocks_20_depthwise_conv2d_depthwise_weights_fused_bn, padding=[2, 2, 2, 2], groups=960, kernel_size=[5, 5]) /* ty=Tensor[(1, 960, 14, 14), float32] */;
  %226 = nn.bias_add(%225, %efficientnet_lite4_model_blocks_20_depthwise_conv2d_depthwise_bias_fused_bn) /* ty=Tensor[(1, 960, 14, 14), float32] */;
  %227 = maximum(%226, %efficientnet_lite4_model_blocks_29_Relu6_1_min__569) /* ty=Tensor[(1, 960, 14, 14), float32] */;
  %228 = minimum(%227, %efficientnet_lite4_model_blocks_19_Relu6_1_max__380) /* ty=Tensor[(1, 960, 14, 14), float32] */;
  %229 = nn.conv2d(%228, %efficientnet_lite4_model_blocks_20_conv2d_1_Conv2D_weights_fused_bn, padding=[0, 0, 0, 0], kernel_size=[1, 1]) /* ty=Tensor[(1, 160, 14, 14), float32] */;
  %230 = nn.bias_add(%229, %efficientnet_lite4_model_blocks_20_conv2d_1_Conv2D_bias_fused_bn) /* ty=Tensor[(1, 160, 14, 14), float32] */;
  %231 = add(%230, %220) /* ty=Tensor[(1, 160, 14, 14), float32] */;
  %232 = nn.conv2d(%231, %efficientnet_lite4_model_blocks_21_conv2d_Conv2D_weights_fused_bn, padding=[0, 0, 0, 0], kernel_size=[1, 1]) /* ty=Tensor[(1, 960, 14, 14), float32] */;
  %233 = nn.bias_add(%232, %efficientnet_lite4_model_blocks_21_conv2d_Conv2D_bias_fused_bn) /* ty=Tensor[(1, 960, 14, 14), float32] */;
  %234 = maximum(%233, %efficientnet_lite4_model_blocks_29_Relu6_1_min__569) /* ty=Tensor[(1, 960, 14, 14), float32] */;
  %235 = minimum(%234, %efficientnet_lite4_model_blocks_19_Relu6_1_max__380) /* ty=Tensor[(1, 960, 14, 14), float32] */;
  %236 = nn.conv2d(%235, %efficientnet_lite4_model_blocks_21_depthwise_conv2d_depthwise_weights_fused_bn, strides=[2, 2], padding=[1, 1, 2, 2], groups=960, kernel_size=[5, 5]) /* ty=Tensor[(1, 960, 7, 7), float32] */;
  %237 = nn.bias_add(%236, %efficientnet_lite4_model_blocks_21_depthwise_conv2d_depthwise_bias_fused_bn) /* ty=Tensor[(1, 960, 7, 7), float32] */;
  %238 = maximum(%237, %efficientnet_lite4_model_blocks_29_Relu6_1_min__569) /* ty=Tensor[(1, 960, 7, 7), float32] */;
  %239 = minimum(%238, %efficientnet_lite4_model_blocks_19_Relu6_1_max__380) /* ty=Tensor[(1, 960, 7, 7), float32] */;
  %240 = nn.conv2d(%239, %efficientnet_lite4_model_blocks_21_conv2d_1_Conv2D_weights_fused_bn, padding=[0, 0, 0, 0], kernel_size=[1, 1]) /* ty=Tensor[(1, 272, 7, 7), float32] */;
  %241 = nn.bias_add(%240, %efficientnet_lite4_model_blocks_21_conv2d_1_Conv2D_bias_fused_bn) /* ty=Tensor[(1, 272, 7, 7), float32] */;
  %242 = nn.conv2d(%241, %efficientnet_lite4_model_blocks_22_conv2d_Conv2D_ReadVariableOp_0, padding=[0, 0, 0, 0], kernel_size=[1, 1]) /* ty=Tensor[(1, 1632, 7, 7), float32] */;
  %243 = nn.batch_norm(%242, %efficientnet_lite4_model_blocks_22_tpu_batch_normalization_ReadVariableOp_0, %efficientnet_lite4_model_blocks_22_tpu_batch_normalization_ReadVariableOp_1_0, %efficientnet_lite4_model_blocks_22_tpu_batch_normalization_FusedBatchNormV3_ReadVariableOp_0, %efficientnet_lite4_model_blocks_22_tpu_batch_normalization_FusedBatchNormV3_ReadVariableOp_1_0, epsilon=0.001f) /* ty=(Tensor[(1, 1632, 7, 7), float32], Tensor[(1632), float32], Tensor[(1632), float32]) */;
  %244 = %243.0;
  %245 = maximum(%244, %efficientnet_lite4_model_blocks_29_Relu6_1_min__569) /* ty=Tensor[(1, 1632, 7, 7), float32] */;
  %246 = minimum(%245, %efficientnet_lite4_model_blocks_19_Relu6_1_max__380) /* ty=Tensor[(1, 1632, 7, 7), float32] */;
  %247 = nn.conv2d(%246, %efficientnet_lite4_model_blocks_22_depthwise_conv2d_depthwise_weights_fused_bn, padding=[2, 2, 2, 2], groups=1632, kernel_size=[5, 5]) /* ty=Tensor[(1, 1632, 7, 7), float32] */;
  %248 = nn.bias_add(%247, %efficientnet_lite4_model_blocks_22_depthwise_conv2d_depthwise_bias_fused_bn) /* ty=Tensor[(1, 1632, 7, 7), float32] */;
  %249 = maximum(%248, %efficientnet_lite4_model_blocks_29_Relu6_1_min__569) /* ty=Tensor[(1, 1632, 7, 7), float32] */;
  %250 = minimum(%249, %efficientnet_lite4_model_blocks_19_Relu6_1_max__380) /* ty=Tensor[(1, 1632, 7, 7), float32] */;
  %251 = nn.conv2d(%250, %efficientnet_lite4_model_blocks_22_conv2d_1_Conv2D_weights_fused_bn, padding=[0, 0, 0, 0], kernel_size=[1, 1]) /* ty=Tensor[(1, 272, 7, 7), float32] */;
  %252 = nn.bias_add(%251, %efficientnet_lite4_model_blocks_22_conv2d_1_Conv2D_bias_fused_bn) /* ty=Tensor[(1, 272, 7, 7), float32] */;
  %253 = add(%252, %241) /* ty=Tensor[(1, 272, 7, 7), float32] */;
  %254 = nn.conv2d(%253, %efficientnet_lite4_model_blocks_23_conv2d_Conv2D_weights_fused_bn, padding=[0, 0, 0, 0], kernel_size=[1, 1]) /* ty=Tensor[(1, 1632, 7, 7), float32] */;
  %255 = nn.bias_add(%254, %efficientnet_lite4_model_blocks_23_conv2d_Conv2D_bias_fused_bn) /* ty=Tensor[(1, 1632, 7, 7), float32] */;
  %256 = maximum(%255, %efficientnet_lite4_model_blocks_29_Relu6_1_min__569) /* ty=Tensor[(1, 1632, 7, 7), float32] */;
  %257 = minimum(%256, %efficientnet_lite4_model_blocks_19_Relu6_1_max__380) /* ty=Tensor[(1, 1632, 7, 7), float32] */;
  %258 = nn.conv2d(%257, %efficientnet_lite4_model_blocks_23_depthwise_conv2d_depthwise_weights_fused_bn, padding=[2, 2, 2, 2], groups=1632, kernel_size=[5, 5]) /* ty=Tensor[(1, 1632, 7, 7), float32] */;
  %259 = nn.bias_add(%258, %efficientnet_lite4_model_blocks_23_depthwise_conv2d_depthwise_bias_fused_bn) /* ty=Tensor[(1, 1632, 7, 7), float32] */;
  %260 = maximum(%259, %efficientnet_lite4_model_blocks_29_Relu6_1_min__569) /* ty=Tensor[(1, 1632, 7, 7), float32] */;
  %261 = minimum(%260, %efficientnet_lite4_model_blocks_19_Relu6_1_max__380) /* ty=Tensor[(1, 1632, 7, 7), float32] */;
  %262 = nn.conv2d(%261, %efficientnet_lite4_model_blocks_23_conv2d_1_Conv2D_weights_fused_bn, padding=[0, 0, 0, 0], kernel_size=[1, 1]) /* ty=Tensor[(1, 272, 7, 7), float32] */;
  %263 = nn.bias_add(%262, %efficientnet_lite4_model_blocks_23_conv2d_1_Conv2D_bias_fused_bn) /* ty=Tensor[(1, 272, 7, 7), float32] */;
  %264 = add(%263, %253) /* ty=Tensor[(1, 272, 7, 7), float32] */;
  %265 = nn.conv2d(%264, %efficientnet_lite4_model_blocks_24_conv2d_Conv2D_weights_fused_bn, padding=[0, 0, 0, 0], kernel_size=[1, 1]) /* ty=Tensor[(1, 1632, 7, 7), float32] */;
  %266 = nn.bias_add(%265, %efficientnet_lite4_model_blocks_24_conv2d_Conv2D_bias_fused_bn) /* ty=Tensor[(1, 1632, 7, 7), float32] */;
  %267 = maximum(%266, %efficientnet_lite4_model_blocks_29_Relu6_1_min__569) /* ty=Tensor[(1, 1632, 7, 7), float32] */;
  %268 = minimum(%267, %efficientnet_lite4_model_blocks_19_Relu6_1_max__380) /* ty=Tensor[(1, 1632, 7, 7), float32] */;
  %269 = nn.conv2d(%268, %efficientnet_lite4_model_blocks_24_depthwise_conv2d_depthwise_weights_fused_bn, padding=[2, 2, 2, 2], groups=1632, kernel_size=[5, 5]) /* ty=Tensor[(1, 1632, 7, 7), float32] */;
  %270 = nn.bias_add(%269, %efficientnet_lite4_model_blocks_24_depthwise_conv2d_depthwise_bias_fused_bn) /* ty=Tensor[(1, 1632, 7, 7), float32] */;
  %271 = maximum(%270, %efficientnet_lite4_model_blocks_29_Relu6_1_min__569) /* ty=Tensor[(1, 1632, 7, 7), float32] */;
  %272 = minimum(%271, %efficientnet_lite4_model_blocks_19_Relu6_1_max__380) /* ty=Tensor[(1, 1632, 7, 7), float32] */;
  %273 = nn.conv2d(%272, %efficientnet_lite4_model_blocks_24_conv2d_1_Conv2D_weights_fused_bn, padding=[0, 0, 0, 0], kernel_size=[1, 1]) /* ty=Tensor[(1, 272, 7, 7), float32] */;
  %274 = nn.bias_add(%273, %efficientnet_lite4_model_blocks_24_conv2d_1_Conv2D_bias_fused_bn) /* ty=Tensor[(1, 272, 7, 7), float32] */;
  %275 = add(%274, %264) /* ty=Tensor[(1, 272, 7, 7), float32] */;
  %276 = nn.conv2d(%275, %efficientnet_lite4_model_blocks_25_conv2d_Conv2D_weights_fused_bn, padding=[0, 0, 0, 0], kernel_size=[1, 1]) /* ty=Tensor[(1, 1632, 7, 7), float32] */;
  %277 = nn.bias_add(%276, %efficientnet_lite4_model_blocks_25_conv2d_Conv2D_bias_fused_bn) /* ty=Tensor[(1, 1632, 7, 7), float32] */;
  %278 = maximum(%277, %efficientnet_lite4_model_blocks_29_Relu6_1_min__569) /* ty=Tensor[(1, 1632, 7, 7), float32] */;
  %279 = minimum(%278, %efficientnet_lite4_model_blocks_19_Relu6_1_max__380) /* ty=Tensor[(1, 1632, 7, 7), float32] */;
  %280 = nn.conv2d(%279, %efficientnet_lite4_model_blocks_25_depthwise_conv2d_depthwise_weights_fused_bn, padding=[2, 2, 2, 2], groups=1632, kernel_size=[5, 5]) /* ty=Tensor[(1, 1632, 7, 7), float32] */;
  %281 = nn.bias_add(%280, %efficientnet_lite4_model_blocks_25_depthwise_conv2d_depthwise_bias_fused_bn) /* ty=Tensor[(1, 1632, 7, 7), float32] */;
  %282 = maximum(%281, %efficientnet_lite4_model_blocks_29_Relu6_1_min__569) /* ty=Tensor[(1, 1632, 7, 7), float32] */;
  %283 = minimum(%282, %efficientnet_lite4_model_blocks_19_Relu6_1_max__380) /* ty=Tensor[(1, 1632, 7, 7), float32] */;
  %284 = nn.conv2d(%283, %efficientnet_lite4_model_blocks_25_conv2d_1_Conv2D_weights_fused_bn, padding=[0, 0, 0, 0], kernel_size=[1, 1]) /* ty=Tensor[(1, 272, 7, 7), float32] */;
  %285 = nn.bias_add(%284, %efficientnet_lite4_model_blocks_25_conv2d_1_Conv2D_bias_fused_bn) /* ty=Tensor[(1, 272, 7, 7), float32] */;
  %286 = add(%285, %275) /* ty=Tensor[(1, 272, 7, 7), float32] */;
  %287 = nn.conv2d(%286, %efficientnet_lite4_model_blocks_26_conv2d_Conv2D_weights_fused_bn, padding=[0, 0, 0, 0], kernel_size=[1, 1]) /* ty=Tensor[(1, 1632, 7, 7), float32] */;
  %288 = nn.bias_add(%287, %efficientnet_lite4_model_blocks_26_conv2d_Conv2D_bias_fused_bn) /* ty=Tensor[(1, 1632, 7, 7), float32] */;
  %289 = maximum(%288, %efficientnet_lite4_model_blocks_29_Relu6_1_min__569) /* ty=Tensor[(1, 1632, 7, 7), float32] */;
  %290 = minimum(%289, %efficientnet_lite4_model_blocks_19_Relu6_1_max__380) /* ty=Tensor[(1, 1632, 7, 7), float32] */;
  %291 = nn.conv2d(%290, %efficientnet_lite4_model_blocks_26_depthwise_conv2d_depthwise_weights_fused_bn, padding=[2, 2, 2, 2], groups=1632, kernel_size=[5, 5]) /* ty=Tensor[(1, 1632, 7, 7), float32] */;
  %292 = nn.bias_add(%291, %efficientnet_lite4_model_blocks_26_depthwise_conv2d_depthwise_bias_fused_bn) /* ty=Tensor[(1, 1632, 7, 7), float32] */;
  %293 = maximum(%292, %efficientnet_lite4_model_blocks_29_Relu6_1_min__569) /* ty=Tensor[(1, 1632, 7, 7), float32] */;
  %294 = minimum(%293, %efficientnet_lite4_model_blocks_19_Relu6_1_max__380) /* ty=Tensor[(1, 1632, 7, 7), float32] */;
  %295 = nn.conv2d(%294, %efficientnet_lite4_model_blocks_26_conv2d_1_Conv2D_weights_fused_bn, padding=[0, 0, 0, 0], kernel_size=[1, 1]) /* ty=Tensor[(1, 272, 7, 7), float32] */;
  %296 = nn.bias_add(%295, %efficientnet_lite4_model_blocks_26_conv2d_1_Conv2D_bias_fused_bn) /* ty=Tensor[(1, 272, 7, 7), float32] */;
  %297 = add(%296, %286) /* ty=Tensor[(1, 272, 7, 7), float32] */;
  %298 = nn.conv2d(%297, %efficientnet_lite4_model_blocks_27_conv2d_Conv2D_weights_fused_bn, padding=[0, 0, 0, 0], kernel_size=[1, 1]) /* ty=Tensor[(1, 1632, 7, 7), float32] */;
  %299 = nn.bias_add(%298, %efficientnet_lite4_model_blocks_27_conv2d_Conv2D_bias_fused_bn) /* ty=Tensor[(1, 1632, 7, 7), float32] */;
  %300 = maximum(%299, %efficientnet_lite4_model_blocks_29_Relu6_1_min__569) /* ty=Tensor[(1, 1632, 7, 7), float32] */;
  %301 = minimum(%300, %efficientnet_lite4_model_blocks_19_Relu6_1_max__380) /* ty=Tensor[(1, 1632, 7, 7), float32] */;
  %302 = nn.conv2d(%301, %efficientnet_lite4_model_blocks_27_depthwise_conv2d_depthwise_weights_fused_bn, padding=[2, 2, 2, 2], groups=1632, kernel_size=[5, 5]) /* ty=Tensor[(1, 1632, 7, 7), float32] */;
  %303 = nn.bias_add(%302, %efficientnet_lite4_model_blocks_27_depthwise_conv2d_depthwise_bias_fused_bn) /* ty=Tensor[(1, 1632, 7, 7), float32] */;
  %304 = maximum(%303, %efficientnet_lite4_model_blocks_29_Relu6_1_min__569) /* ty=Tensor[(1, 1632, 7, 7), float32] */;
  %305 = minimum(%304, %efficientnet_lite4_model_blocks_19_Relu6_1_max__380) /* ty=Tensor[(1, 1632, 7, 7), float32] */;
  %306 = nn.conv2d(%305, %efficientnet_lite4_model_blocks_27_conv2d_1_Conv2D_weights_fused_bn, padding=[0, 0, 0, 0], kernel_size=[1, 1]) /* ty=Tensor[(1, 272, 7, 7), float32] */;
  %307 = nn.bias_add(%306, %efficientnet_lite4_model_blocks_27_conv2d_1_Conv2D_bias_fused_bn) /* ty=Tensor[(1, 272, 7, 7), float32] */;
  %308 = add(%307, %297) /* ty=Tensor[(1, 272, 7, 7), float32] */;
  %309 = nn.conv2d(%308, %efficientnet_lite4_model_blocks_28_conv2d_Conv2D_weights_fused_bn, padding=[0, 0, 0, 0], kernel_size=[1, 1]) /* ty=Tensor[(1, 1632, 7, 7), float32] */;
  %310 = nn.bias_add(%309, %efficientnet_lite4_model_blocks_28_conv2d_Conv2D_bias_fused_bn) /* ty=Tensor[(1, 1632, 7, 7), float32] */;
  %311 = maximum(%310, %efficientnet_lite4_model_blocks_29_Relu6_1_min__569) /* ty=Tensor[(1, 1632, 7, 7), float32] */;
  %312 = minimum(%311, %efficientnet_lite4_model_blocks_19_Relu6_1_max__380) /* ty=Tensor[(1, 1632, 7, 7), float32] */;
  %313 = nn.conv2d(%312, %efficientnet_lite4_model_blocks_28_depthwise_conv2d_depthwise_weights_fused_bn, padding=[2, 2, 2, 2], groups=1632, kernel_size=[5, 5]) /* ty=Tensor[(1, 1632, 7, 7), float32] */;
  %314 = nn.bias_add(%313, %efficientnet_lite4_model_blocks_28_depthwise_conv2d_depthwise_bias_fused_bn) /* ty=Tensor[(1, 1632, 7, 7), float32] */;
  %315 = maximum(%314, %efficientnet_lite4_model_blocks_29_Relu6_1_min__569) /* ty=Tensor[(1, 1632, 7, 7), float32] */;
  %316 = minimum(%315, %efficientnet_lite4_model_blocks_19_Relu6_1_max__380) /* ty=Tensor[(1, 1632, 7, 7), float32] */;
  %317 = nn.conv2d(%316, %efficientnet_lite4_model_blocks_28_conv2d_1_Conv2D_weights_fused_bn, padding=[0, 0, 0, 0], kernel_size=[1, 1]) /* ty=Tensor[(1, 272, 7, 7), float32] */;
  %318 = nn.bias_add(%317, %efficientnet_lite4_model_blocks_28_conv2d_1_Conv2D_bias_fused_bn) /* ty=Tensor[(1, 272, 7, 7), float32] */;
  %319 = add(%318, %308) /* ty=Tensor[(1, 272, 7, 7), float32] */;
  %320 = nn.conv2d(%319, %efficientnet_lite4_model_blocks_29_conv2d_Conv2D_weights_fused_bn, padding=[0, 0, 0, 0], kernel_size=[1, 1]) /* ty=Tensor[(1, 1632, 7, 7), float32] */;
  %321 = nn.bias_add(%320, %efficientnet_lite4_model_blocks_29_conv2d_Conv2D_bias_fused_bn) /* ty=Tensor[(1, 1632, 7, 7), float32] */;
  %322 = maximum(%321, %efficientnet_lite4_model_blocks_29_Relu6_1_min__569) /* ty=Tensor[(1, 1632, 7, 7), float32] */;
  %323 = minimum(%322, %efficientnet_lite4_model_blocks_19_Relu6_1_max__380) /* ty=Tensor[(1, 1632, 7, 7), float32] */;
  %324 = nn.conv2d(%323, %efficientnet_lite4_model_blocks_29_depthwise_conv2d_depthwise_weights_fused_bn, padding=[1, 1, 1, 1], groups=1632, kernel_size=[3, 3]) /* ty=Tensor[(1, 1632, 7, 7), float32] */;
  %325 = nn.bias_add(%324, %efficientnet_lite4_model_blocks_29_depthwise_conv2d_depthwise_bias_fused_bn) /* ty=Tensor[(1, 1632, 7, 7), float32] */;
  %326 = maximum(%325, %efficientnet_lite4_model_blocks_29_Relu6_1_min__569) /* ty=Tensor[(1, 1632, 7, 7), float32] */;
  %327 = minimum(%326, %efficientnet_lite4_model_blocks_19_Relu6_1_max__380) /* ty=Tensor[(1, 1632, 7, 7), float32] */;
  %328 = nn.conv2d(%327, %efficientnet_lite4_model_blocks_29_conv2d_1_Conv2D_weights_fused_bn, padding=[0, 0, 0, 0], kernel_size=[1, 1]) /* ty=Tensor[(1, 448, 7, 7), float32] */;
  %329 = nn.bias_add(%328, %efficientnet_lite4_model_blocks_29_conv2d_1_Conv2D_bias_fused_bn) /* ty=Tensor[(1, 448, 7, 7), float32] */;
  %330 = nn.conv2d(%329, %efficientnet_lite4_model_head_conv2d_Conv2D_ReadVariableOp_0, padding=[0, 0, 0, 0], kernel_size=[1, 1]) /* ty=Tensor[(1, 1280, 7, 7), float32] */;
  %331 = nn.batch_norm(%330, %efficientnet_lite4_model_head_tpu_batch_normalization_ReadVariableOp_0, %efficientnet_lite4_model_head_tpu_batch_normalization_ReadVariableOp_1_0, %efficientnet_lite4_model_head_tpu_batch_normalization_FusedBatchNormV3_ReadVariableOp_0, %efficientnet_lite4_model_head_tpu_batch_normalization_FusedBatchNormV3_ReadVariableOp_1_0, epsilon=0.001f) /* ty=(Tensor[(1, 1280, 7, 7), float32], Tensor[(1280), float32], Tensor[(1280), float32]) */;
  %332 = %331.0;
  %333 = maximum(%332, %efficientnet_lite4_model_blocks_29_Relu6_1_min__569) /* ty=Tensor[(1, 1280, 7, 7), float32] */;
  %334 = minimum(%333, %efficientnet_lite4_model_blocks_19_Relu6_1_max__380) /* ty=Tensor[(1, 1280, 7, 7), float32] */;
  %335 = nn.avg_pool2d(%334, pool_size=[7, 7], padding=[0, 0, 0, 0]) /* ty=Tensor[(1, 1280, 1, 1), float32] */;
  %336 = squeeze(%335, axis=[2, 3]) /* ty=Tensor[(1, 1280), float32] */;
  %337 = transpose(%efficientnet_lite4_model_head_dense_MatMul_ReadVariableOp_0, axes=[1, 0]) /* ty=Tensor[(1000, 1280), float32] */;
  %338 = nn.dense(%336, %337, units=1000) /* ty=Tensor[(1, 1000), float32] */;
  %339 = add(%338, %efficientnet_lite4_model_head_dense_BiasAdd_ReadVariableOp_0) /* ty=Tensor[(1, 1000), float32] */;
  nn.softmax(%339, axis=1) /* ty=Tensor[(1, 1000), float32] */
}
