#[version = "0.0.5"]
def @main(%input0: Tensor[(1, 3, 32, 32), float32], %v1_weight: Tensor[(64, 768), float32], %v1_bias: Tensor[(64), float32], %v2_0_affine_g: Tensor[(1, 1, 64), float32], %v2_0_affine_b: Tensor[(1, 1, 64), float32], %v2_0_fn_weight: Tensor[(4, 4, 1), float32], %v2_0_fn_bias: Tensor[(4), float32], %v2_0_scale: Tensor[(1, 1, 64), float32], %v2_1_affine_g: Tensor[(1, 1, 64), float32], %v2_1_affine_b: Tensor[(1, 1, 64), float32], %v2_1_fn_0_weight: Tensor[(256, 64), float32], %v2_1_fn_0_bias: Tensor[(256), float32], %v2_1_fn_2_weight: Tensor[(64, 256), float32], %v2_1_fn_2_bias: Tensor[(64), float32], %v2_1_scale: Tensor[(1, 1, 64), float32], %v3_0_affine_g: Tensor[(1, 1, 64), float32], %v3_0_affine_b: Tensor[(1, 1, 64), float32], %v3_0_fn_weight: Tensor[(4, 4, 1), float32], %v3_0_fn_bias: Tensor[(4), float32], %v3_0_scale: Tensor[(1, 1, 64), float32], %v3_1_affine_g: Tensor[(1, 1, 64), float32], %v3_1_affine_b: Tensor[(1, 1, 64), float32], %v3_1_fn_0_weight: Tensor[(256, 64), float32], %v3_1_fn_0_bias: Tensor[(256), float32], %v3_1_fn_2_weight: Tensor[(64, 256), float32], %v3_1_fn_2_bias: Tensor[(64), float32], %v3_1_scale: Tensor[(1, 1, 64), float32], %v4_0_affine_g: Tensor[(1, 1, 64), float32], %v4_0_affine_b: Tensor[(1, 1, 64), float32], %v4_0_fn_weight: Tensor[(4, 4, 1), float32], %v4_0_fn_bias: Tensor[(4), float32], %v4_0_scale: Tensor[(1, 1, 64), float32], %v4_1_affine_g: Tensor[(1, 1, 64), float32], %v4_1_affine_b: Tensor[(1, 1, 64), float32], %v4_1_fn_0_weight: Tensor[(256, 64), float32], %v4_1_fn_0_bias: Tensor[(256), float32], %v4_1_fn_2_weight: Tensor[(64, 256), float32], %v4_1_fn_2_bias: Tensor[(64), float32], %v4_1_scale: Tensor[(1, 1, 64), float32], %v5_0_affine_g: Tensor[(1, 1, 64), float32], %v5_0_affine_b: Tensor[(1, 1, 64), float32], %v5_0_fn_weight: Tensor[(4, 4, 1), float32], %v5_0_fn_bias: Tensor[(4), float32], %v5_0_scale: Tensor[(1, 1, 64), float32], %v5_1_affine_g: Tensor[(1, 1, 64), float32], %v5_1_affine_b: Tensor[(1, 1, 64), float32], %v5_1_fn_0_weight: Tensor[(256, 64), float32], %v5_1_fn_0_bias: Tensor[(256), float32], %v5_1_fn_2_weight: Tensor[(64, 256), float32], %v5_1_fn_2_bias: Tensor[(64), float32], %v5_1_scale: Tensor[(1, 1, 64), float32], %v6_0_affine_g: Tensor[(1, 1, 64), float32], %v6_0_affine_b: Tensor[(1, 1, 64), float32], %v6_0_fn_weight: Tensor[(4, 4, 1), float32], %v6_0_fn_bias: Tensor[(4), float32], %v6_0_scale: Tensor[(1, 1, 64), float32], %v6_1_affine_g: Tensor[(1, 1, 64), float32], %v6_1_affine_b: Tensor[(1, 1, 64), float32], %v6_1_fn_0_weight: Tensor[(256, 64), float32], %v6_1_fn_0_bias: Tensor[(256), float32], %v6_1_fn_2_weight: Tensor[(64, 256), float32], %v6_1_fn_2_bias: Tensor[(64), float32], %v6_1_scale: Tensor[(1, 1, 64), float32], %v7_0_affine_g: Tensor[(1, 1, 64), float32], %v7_0_affine_b: Tensor[(1, 1, 64), float32], %v7_0_fn_weight: Tensor[(4, 4, 1), float32], %v7_0_fn_bias: Tensor[(4), float32], %v7_0_scale: Tensor[(1, 1, 64), float32], %v7_1_affine_g: Tensor[(1, 1, 64), float32], %v7_1_affine_b: Tensor[(1, 1, 64), float32], %v7_1_fn_0_weight: Tensor[(256, 64), float32], %v7_1_fn_0_bias: Tensor[(256), float32], %v7_1_fn_2_weight: Tensor[(64, 256), float32], %v7_1_fn_2_bias: Tensor[(64), float32], %v7_1_scale: Tensor[(1, 1, 64), float32], %v8_0_affine_g: Tensor[(1, 1, 64), float32], %v8_0_affine_b: Tensor[(1, 1, 64), float32], %v8_0_fn_weight: Tensor[(4, 4, 1), float32], %v8_0_fn_bias: Tensor[(4), float32], %v8_0_scale: Tensor[(1, 1, 64), float32], %v8_1_affine_g: Tensor[(1, 1, 64), float32], %v8_1_affine_b: Tensor[(1, 1, 64), float32], %v8_1_fn_0_weight: Tensor[(256, 64), float32], %v8_1_fn_0_bias: Tensor[(256), float32], %v8_1_fn_2_weight: Tensor[(64, 256), float32], %v8_1_fn_2_bias: Tensor[(64), float32], %v8_1_scale: Tensor[(1, 1, 64), float32], %v9_0_affine_g: Tensor[(1, 1, 64), float32], %v9_0_affine_b: Tensor[(1, 1, 64), float32], %v9_0_fn_weight: Tensor[(4, 4, 1), float32], %v9_0_fn_bias: Tensor[(4), float32], %v9_0_scale: Tensor[(1, 1, 64), float32], %v9_1_affine_g: Tensor[(1, 1, 64), float32], %v9_1_affine_b: Tensor[(1, 1, 64), float32], %v9_1_fn_0_weight: Tensor[(256, 64), float32], %v9_1_fn_0_bias: Tensor[(256), float32], %v9_1_fn_2_weight: Tensor[(64, 256), float32], %v9_1_fn_2_bias: Tensor[(64), float32], %v9_1_scale: Tensor[(1, 1, 64), float32], %v10_0_affine_g: Tensor[(1, 1, 64), float32], %v10_0_affine_b: Tensor[(1, 1, 64), float32], %v10_0_fn_weight: Tensor[(4, 4, 1), float32], %v10_0_fn_bias: Tensor[(4), float32], %v10_0_scale: Tensor[(1, 1, 64), float32], %v10_1_affine_g: Tensor[(1, 1, 64), float32], %v10_1_affine_b: Tensor[(1, 1, 64), float32], %v10_1_fn_0_weight: Tensor[(256, 64), float32], %v10_1_fn_0_bias: Tensor[(256), float32], %v10_1_fn_2_weight: Tensor[(64, 256), float32], %v10_1_fn_2_bias: Tensor[(64), float32], %v10_1_scale: Tensor[(1, 1, 64), float32], %v11_0_affine_g: Tensor[(1, 1, 64), float32], %v11_0_affine_b: Tensor[(1, 1, 64), float32], %v11_0_fn_weight: Tensor[(4, 4, 1), float32], %v11_0_fn_bias: Tensor[(4), float32], %v11_0_scale: Tensor[(1, 1, 64), float32], %v11_1_affine_g: Tensor[(1, 1, 64), float32], %v11_1_affine_b: Tensor[(1, 1, 64), float32], %v11_1_fn_0_weight: Tensor[(256, 64), float32], %v11_1_fn_0_bias: Tensor[(256), float32], %v11_1_fn_2_weight: Tensor[(64, 256), float32], %v11_1_fn_2_bias: Tensor[(64), float32], %v11_1_scale: Tensor[(1, 1, 64), float32], %v12_0_affine_g: Tensor[(1, 1, 64), float32], %v12_0_affine_b: Tensor[(1, 1, 64), float32], %v12_0_fn_weight: Tensor[(4, 4, 1), float32], %v12_0_fn_bias: Tensor[(4), float32], %v12_0_scale: Tensor[(1, 1, 64), float32], %v12_1_affine_g: Tensor[(1, 1, 64), float32], %v12_1_affine_b: Tensor[(1, 1, 64), float32], %v12_1_fn_0_weight: Tensor[(256, 64), float32], %v12_1_fn_0_bias: Tensor[(256), float32], %v12_1_fn_2_weight: Tensor[(64, 256), float32], %v12_1_fn_2_bias: Tensor[(64), float32], %v12_1_scale: Tensor[(1, 1, 64), float32], %v13_0_affine_g: Tensor[(1, 1, 64), float32], %v13_0_affine_b: Tensor[(1, 1, 64), float32], %v13_0_fn_weight: Tensor[(4, 4, 1), float32], %v13_0_fn_bias: Tensor[(4), float32], %v13_0_scale: Tensor[(1, 1, 64), float32], %v13_1_affine_g: Tensor[(1, 1, 64), float32], %v13_1_affine_b: Tensor[(1, 1, 64), float32], %v13_1_fn_0_weight: Tensor[(256, 64), float32], %v13_1_fn_0_bias: Tensor[(256), float32], %v13_1_fn_2_weight: Tensor[(64, 256), float32], %v13_1_fn_2_bias: Tensor[(64), float32], %v13_1_scale: Tensor[(1, 1, 64), float32], %v14_g: Tensor[(1, 1, 64), float32], %v14_b: Tensor[(1, 1, 64), float32], %v16_weight: Tensor[(32, 64), float32], %v16_bias: Tensor[(32), float32]) -> Tensor[(1, 32), float32] {
  %0 = reshape(%input0, newshape=[1, 3, 2, 16, 2, 16]) /* ty=Tensor[(1, 3, 2, 16, 2, 16), float32] */;
  %1 = transpose(%0, axes=[0, 2, 4, 3, 5, 1]) /* ty=Tensor[(1, 2, 2, 16, 16, 3), float32] */;
  %2 = reshape(%1, newshape=[1, 4, 768]) /* ty=Tensor[(1, 4, 768), float32] */;
  %3 = transpose(%v1_weight, axes=[1, 0]) /* ty=Tensor[(768, 64), float32] */;
  %4 = reshape(%2, newshape=[-1, 768]) /* ty=Tensor[(4, 768), float32] */;
  %5 = transpose(%3, axes=[1, 0]) /* ty=Tensor[(64, 768), float32] */;
  %6 = nn.dense(%4, %5, units=None) /* ty=Tensor[(4, 64), float32] */;
  %7 = reshape(%6, newshape=[1, 4, 64]) /* ty=Tensor[(1, 4, 64), float32] */;
  %8 = add(%7, %v1_bias) /* ty=Tensor[(1, 4, 64), float32] */;
  %9 = multiply(%8, %v2_0_affine_g) /* ty=Tensor[(1, 4, 64), float32] */;
  %10 = add(%9, %v2_0_affine_b) /* ty=Tensor[(1, 4, 64), float32] */;
  %11 = nn.conv1d(%10, %v2_0_fn_weight, channels=4, kernel_size=[1]) /* ty=Tensor[(1, 4, 64), float32] */;
  %12 = nn.bias_add(%11, %v2_0_fn_bias) /* ty=Tensor[(1, 4, 64), float32] */;
  %13 = multiply(%12, %v2_0_scale) /* ty=Tensor[(1, 4, 64), float32] */;
  %14 = add(%13, %8) /* ty=Tensor[(1, 4, 64), float32] */;
  %15 = multiply(%14, %v2_1_affine_g) /* ty=Tensor[(1, 4, 64), float32] */;
  %16 = add(%15, %v2_1_affine_b) /* ty=Tensor[(1, 4, 64), float32] */;
  %17 = transpose(%v2_1_fn_0_weight, axes=[1, 0]) /* ty=Tensor[(64, 256), float32] */;
  %18 = reshape(%16, newshape=[-1, 64]) /* ty=Tensor[(4, 64), float32] */;
  %19 = transpose(%17, axes=[1, 0]) /* ty=Tensor[(256, 64), float32] */;
  %20 = nn.dense(%18, %19, units=None) /* ty=Tensor[(4, 256), float32] */;
  %21 = reshape(%20, newshape=[1, 4, 256]) /* ty=Tensor[(1, 4, 256), float32] */;
  %22 = add(%21, %v2_1_fn_0_bias) /* ty=Tensor[(1, 4, 256), float32] */;
  %23 = multiply(%22, 0.707107f /* ty=float32 */) /* ty=Tensor[(1, 4, 256), float32] */;
  %24 = erf(%23) /* ty=Tensor[(1, 4, 256), float32] */;
  %25 = multiply(%24, 0.5f /* ty=float32 */) /* ty=Tensor[(1, 4, 256), float32] */;
  %26 = add(0.5f /* ty=float32 */, %25) /* ty=Tensor[(1, 4, 256), float32] */;
  %27 = multiply(%22, %26) /* ty=Tensor[(1, 4, 256), float32] */;
  %28 = transpose(%v2_1_fn_2_weight, axes=[1, 0]) /* ty=Tensor[(256, 64), float32] */;
  %29 = reshape(%27, newshape=[-1, 256]) /* ty=Tensor[(4, 256), float32] */;
  %30 = transpose(%28, axes=[1, 0]) /* ty=Tensor[(64, 256), float32] */;
  %31 = nn.dense(%29, %30, units=None) /* ty=Tensor[(4, 64), float32] */;
  %32 = reshape(%31, newshape=[1, 4, 64]) /* ty=Tensor[(1, 4, 64), float32] */;
  %33 = add(%32, %v2_1_fn_2_bias) /* ty=Tensor[(1, 4, 64), float32] */;
  %34 = multiply(%33, %v2_1_scale) /* ty=Tensor[(1, 4, 64), float32] */;
  %35 = add(%34, %14) /* ty=Tensor[(1, 4, 64), float32] */;
  %36 = multiply(%35, %v3_0_affine_g) /* ty=Tensor[(1, 4, 64), float32] */;
  %37 = add(%36, %v3_0_affine_b) /* ty=Tensor[(1, 4, 64), float32] */;
  %38 = nn.conv1d(%37, %v3_0_fn_weight, channels=4, kernel_size=[1]) /* ty=Tensor[(1, 4, 64), float32] */;
  %39 = nn.bias_add(%38, %v3_0_fn_bias) /* ty=Tensor[(1, 4, 64), float32] */;
  %40 = multiply(%39, %v3_0_scale) /* ty=Tensor[(1, 4, 64), float32] */;
  %41 = add(%40, %35) /* ty=Tensor[(1, 4, 64), float32] */;
  %42 = multiply(%41, %v3_1_affine_g) /* ty=Tensor[(1, 4, 64), float32] */;
  %43 = add(%42, %v3_1_affine_b) /* ty=Tensor[(1, 4, 64), float32] */;
  %44 = transpose(%v3_1_fn_0_weight, axes=[1, 0]) /* ty=Tensor[(64, 256), float32] */;
  %45 = reshape(%43, newshape=[-1, 64]) /* ty=Tensor[(4, 64), float32] */;
  %46 = transpose(%44, axes=[1, 0]) /* ty=Tensor[(256, 64), float32] */;
  %47 = nn.dense(%45, %46, units=None) /* ty=Tensor[(4, 256), float32] */;
  %48 = reshape(%47, newshape=[1, 4, 256]) /* ty=Tensor[(1, 4, 256), float32] */;
  %49 = add(%48, %v3_1_fn_0_bias) /* ty=Tensor[(1, 4, 256), float32] */;
  %50 = multiply(%49, 0.707107f /* ty=float32 */) /* ty=Tensor[(1, 4, 256), float32] */;
  %51 = erf(%50) /* ty=Tensor[(1, 4, 256), float32] */;
  %52 = multiply(%51, 0.5f /* ty=float32 */) /* ty=Tensor[(1, 4, 256), float32] */;
  %53 = add(0.5f /* ty=float32 */, %52) /* ty=Tensor[(1, 4, 256), float32] */;
  %54 = multiply(%49, %53) /* ty=Tensor[(1, 4, 256), float32] */;
  %55 = transpose(%v3_1_fn_2_weight, axes=[1, 0]) /* ty=Tensor[(256, 64), float32] */;
  %56 = reshape(%54, newshape=[-1, 256]) /* ty=Tensor[(4, 256), float32] */;
  %57 = transpose(%55, axes=[1, 0]) /* ty=Tensor[(64, 256), float32] */;
  %58 = nn.dense(%56, %57, units=None) /* ty=Tensor[(4, 64), float32] */;
  %59 = reshape(%58, newshape=[1, 4, 64]) /* ty=Tensor[(1, 4, 64), float32] */;
  %60 = add(%59, %v3_1_fn_2_bias) /* ty=Tensor[(1, 4, 64), float32] */;
  %61 = multiply(%60, %v3_1_scale) /* ty=Tensor[(1, 4, 64), float32] */;
  %62 = add(%61, %41) /* ty=Tensor[(1, 4, 64), float32] */;
  %63 = multiply(%62, %v4_0_affine_g) /* ty=Tensor[(1, 4, 64), float32] */;
  %64 = add(%63, %v4_0_affine_b) /* ty=Tensor[(1, 4, 64), float32] */;
  %65 = nn.conv1d(%64, %v4_0_fn_weight, channels=4, kernel_size=[1]) /* ty=Tensor[(1, 4, 64), float32] */;
  %66 = nn.bias_add(%65, %v4_0_fn_bias) /* ty=Tensor[(1, 4, 64), float32] */;
  %67 = multiply(%66, %v4_0_scale) /* ty=Tensor[(1, 4, 64), float32] */;
  %68 = add(%67, %62) /* ty=Tensor[(1, 4, 64), float32] */;
  %69 = multiply(%68, %v4_1_affine_g) /* ty=Tensor[(1, 4, 64), float32] */;
  %70 = add(%69, %v4_1_affine_b) /* ty=Tensor[(1, 4, 64), float32] */;
  %71 = transpose(%v4_1_fn_0_weight, axes=[1, 0]) /* ty=Tensor[(64, 256), float32] */;
  %72 = reshape(%70, newshape=[-1, 64]) /* ty=Tensor[(4, 64), float32] */;
  %73 = transpose(%71, axes=[1, 0]) /* ty=Tensor[(256, 64), float32] */;
  %74 = nn.dense(%72, %73, units=None) /* ty=Tensor[(4, 256), float32] */;
  %75 = reshape(%74, newshape=[1, 4, 256]) /* ty=Tensor[(1, 4, 256), float32] */;
  %76 = add(%75, %v4_1_fn_0_bias) /* ty=Tensor[(1, 4, 256), float32] */;
  %77 = multiply(%76, 0.707107f /* ty=float32 */) /* ty=Tensor[(1, 4, 256), float32] */;
  %78 = erf(%77) /* ty=Tensor[(1, 4, 256), float32] */;
  %79 = multiply(%78, 0.5f /* ty=float32 */) /* ty=Tensor[(1, 4, 256), float32] */;
  %80 = add(0.5f /* ty=float32 */, %79) /* ty=Tensor[(1, 4, 256), float32] */;
  %81 = multiply(%76, %80) /* ty=Tensor[(1, 4, 256), float32] */;
  %82 = transpose(%v4_1_fn_2_weight, axes=[1, 0]) /* ty=Tensor[(256, 64), float32] */;
  %83 = reshape(%81, newshape=[-1, 256]) /* ty=Tensor[(4, 256), float32] */;
  %84 = transpose(%82, axes=[1, 0]) /* ty=Tensor[(64, 256), float32] */;
  %85 = nn.dense(%83, %84, units=None) /* ty=Tensor[(4, 64), float32] */;
  %86 = reshape(%85, newshape=[1, 4, 64]) /* ty=Tensor[(1, 4, 64), float32] */;
  %87 = add(%86, %v4_1_fn_2_bias) /* ty=Tensor[(1, 4, 64), float32] */;
  %88 = multiply(%87, %v4_1_scale) /* ty=Tensor[(1, 4, 64), float32] */;
  %89 = add(%88, %68) /* ty=Tensor[(1, 4, 64), float32] */;
  %90 = multiply(%89, %v5_0_affine_g) /* ty=Tensor[(1, 4, 64), float32] */;
  %91 = add(%90, %v5_0_affine_b) /* ty=Tensor[(1, 4, 64), float32] */;
  %92 = nn.conv1d(%91, %v5_0_fn_weight, channels=4, kernel_size=[1]) /* ty=Tensor[(1, 4, 64), float32] */;
  %93 = nn.bias_add(%92, %v5_0_fn_bias) /* ty=Tensor[(1, 4, 64), float32] */;
  %94 = multiply(%93, %v5_0_scale) /* ty=Tensor[(1, 4, 64), float32] */;
  %95 = add(%94, %89) /* ty=Tensor[(1, 4, 64), float32] */;
  %96 = multiply(%95, %v5_1_affine_g) /* ty=Tensor[(1, 4, 64), float32] */;
  %97 = add(%96, %v5_1_affine_b) /* ty=Tensor[(1, 4, 64), float32] */;
  %98 = transpose(%v5_1_fn_0_weight, axes=[1, 0]) /* ty=Tensor[(64, 256), float32] */;
  %99 = reshape(%97, newshape=[-1, 64]) /* ty=Tensor[(4, 64), float32] */;
  %100 = transpose(%98, axes=[1, 0]) /* ty=Tensor[(256, 64), float32] */;
  %101 = nn.dense(%99, %100, units=None) /* ty=Tensor[(4, 256), float32] */;
  %102 = reshape(%101, newshape=[1, 4, 256]) /* ty=Tensor[(1, 4, 256), float32] */;
  %103 = add(%102, %v5_1_fn_0_bias) /* ty=Tensor[(1, 4, 256), float32] */;
  %104 = multiply(%103, 0.707107f /* ty=float32 */) /* ty=Tensor[(1, 4, 256), float32] */;
  %105 = erf(%104) /* ty=Tensor[(1, 4, 256), float32] */;
  %106 = multiply(%105, 0.5f /* ty=float32 */) /* ty=Tensor[(1, 4, 256), float32] */;
  %107 = add(0.5f /* ty=float32 */, %106) /* ty=Tensor[(1, 4, 256), float32] */;
  %108 = multiply(%103, %107) /* ty=Tensor[(1, 4, 256), float32] */;
  %109 = transpose(%v5_1_fn_2_weight, axes=[1, 0]) /* ty=Tensor[(256, 64), float32] */;
  %110 = reshape(%108, newshape=[-1, 256]) /* ty=Tensor[(4, 256), float32] */;
  %111 = transpose(%109, axes=[1, 0]) /* ty=Tensor[(64, 256), float32] */;
  %112 = nn.dense(%110, %111, units=None) /* ty=Tensor[(4, 64), float32] */;
  %113 = reshape(%112, newshape=[1, 4, 64]) /* ty=Tensor[(1, 4, 64), float32] */;
  %114 = add(%113, %v5_1_fn_2_bias) /* ty=Tensor[(1, 4, 64), float32] */;
  %115 = multiply(%114, %v5_1_scale) /* ty=Tensor[(1, 4, 64), float32] */;
  %116 = add(%115, %95) /* ty=Tensor[(1, 4, 64), float32] */;
  %117 = multiply(%116, %v6_0_affine_g) /* ty=Tensor[(1, 4, 64), float32] */;
  %118 = add(%117, %v6_0_affine_b) /* ty=Tensor[(1, 4, 64), float32] */;
  %119 = nn.conv1d(%118, %v6_0_fn_weight, channels=4, kernel_size=[1]) /* ty=Tensor[(1, 4, 64), float32] */;
  %120 = nn.bias_add(%119, %v6_0_fn_bias) /* ty=Tensor[(1, 4, 64), float32] */;
  %121 = multiply(%120, %v6_0_scale) /* ty=Tensor[(1, 4, 64), float32] */;
  %122 = add(%121, %116) /* ty=Tensor[(1, 4, 64), float32] */;
  %123 = multiply(%122, %v6_1_affine_g) /* ty=Tensor[(1, 4, 64), float32] */;
  %124 = add(%123, %v6_1_affine_b) /* ty=Tensor[(1, 4, 64), float32] */;
  %125 = transpose(%v6_1_fn_0_weight, axes=[1, 0]) /* ty=Tensor[(64, 256), float32] */;
  %126 = reshape(%124, newshape=[-1, 64]) /* ty=Tensor[(4, 64), float32] */;
  %127 = transpose(%125, axes=[1, 0]) /* ty=Tensor[(256, 64), float32] */;
  %128 = nn.dense(%126, %127, units=None) /* ty=Tensor[(4, 256), float32] */;
  %129 = reshape(%128, newshape=[1, 4, 256]) /* ty=Tensor[(1, 4, 256), float32] */;
  %130 = add(%129, %v6_1_fn_0_bias) /* ty=Tensor[(1, 4, 256), float32] */;
  %131 = multiply(%130, 0.707107f /* ty=float32 */) /* ty=Tensor[(1, 4, 256), float32] */;
  %132 = erf(%131) /* ty=Tensor[(1, 4, 256), float32] */;
  %133 = multiply(%132, 0.5f /* ty=float32 */) /* ty=Tensor[(1, 4, 256), float32] */;
  %134 = add(0.5f /* ty=float32 */, %133) /* ty=Tensor[(1, 4, 256), float32] */;
  %135 = multiply(%130, %134) /* ty=Tensor[(1, 4, 256), float32] */;
  %136 = transpose(%v6_1_fn_2_weight, axes=[1, 0]) /* ty=Tensor[(256, 64), float32] */;
  %137 = reshape(%135, newshape=[-1, 256]) /* ty=Tensor[(4, 256), float32] */;
  %138 = transpose(%136, axes=[1, 0]) /* ty=Tensor[(64, 256), float32] */;
  %139 = nn.dense(%137, %138, units=None) /* ty=Tensor[(4, 64), float32] */;
  %140 = reshape(%139, newshape=[1, 4, 64]) /* ty=Tensor[(1, 4, 64), float32] */;
  %141 = add(%140, %v6_1_fn_2_bias) /* ty=Tensor[(1, 4, 64), float32] */;
  %142 = multiply(%141, %v6_1_scale) /* ty=Tensor[(1, 4, 64), float32] */;
  %143 = add(%142, %122) /* ty=Tensor[(1, 4, 64), float32] */;
  %144 = multiply(%143, %v7_0_affine_g) /* ty=Tensor[(1, 4, 64), float32] */;
  %145 = add(%144, %v7_0_affine_b) /* ty=Tensor[(1, 4, 64), float32] */;
  %146 = nn.conv1d(%145, %v7_0_fn_weight, channels=4, kernel_size=[1]) /* ty=Tensor[(1, 4, 64), float32] */;
  %147 = nn.bias_add(%146, %v7_0_fn_bias) /* ty=Tensor[(1, 4, 64), float32] */;
  %148 = multiply(%147, %v7_0_scale) /* ty=Tensor[(1, 4, 64), float32] */;
  %149 = add(%148, %143) /* ty=Tensor[(1, 4, 64), float32] */;
  %150 = multiply(%149, %v7_1_affine_g) /* ty=Tensor[(1, 4, 64), float32] */;
  %151 = add(%150, %v7_1_affine_b) /* ty=Tensor[(1, 4, 64), float32] */;
  %152 = transpose(%v7_1_fn_0_weight, axes=[1, 0]) /* ty=Tensor[(64, 256), float32] */;
  %153 = reshape(%151, newshape=[-1, 64]) /* ty=Tensor[(4, 64), float32] */;
  %154 = transpose(%152, axes=[1, 0]) /* ty=Tensor[(256, 64), float32] */;
  %155 = nn.dense(%153, %154, units=None) /* ty=Tensor[(4, 256), float32] */;
  %156 = reshape(%155, newshape=[1, 4, 256]) /* ty=Tensor[(1, 4, 256), float32] */;
  %157 = add(%156, %v7_1_fn_0_bias) /* ty=Tensor[(1, 4, 256), float32] */;
  %158 = multiply(%157, 0.707107f /* ty=float32 */) /* ty=Tensor[(1, 4, 256), float32] */;
  %159 = erf(%158) /* ty=Tensor[(1, 4, 256), float32] */;
  %160 = multiply(%159, 0.5f /* ty=float32 */) /* ty=Tensor[(1, 4, 256), float32] */;
  %161 = add(0.5f /* ty=float32 */, %160) /* ty=Tensor[(1, 4, 256), float32] */;
  %162 = multiply(%157, %161) /* ty=Tensor[(1, 4, 256), float32] */;
  %163 = transpose(%v7_1_fn_2_weight, axes=[1, 0]) /* ty=Tensor[(256, 64), float32] */;
  %164 = reshape(%162, newshape=[-1, 256]) /* ty=Tensor[(4, 256), float32] */;
  %165 = transpose(%163, axes=[1, 0]) /* ty=Tensor[(64, 256), float32] */;
  %166 = nn.dense(%164, %165, units=None) /* ty=Tensor[(4, 64), float32] */;
  %167 = reshape(%166, newshape=[1, 4, 64]) /* ty=Tensor[(1, 4, 64), float32] */;
  %168 = add(%167, %v7_1_fn_2_bias) /* ty=Tensor[(1, 4, 64), float32] */;
  %169 = multiply(%168, %v7_1_scale) /* ty=Tensor[(1, 4, 64), float32] */;
  %170 = add(%169, %149) /* ty=Tensor[(1, 4, 64), float32] */;
  %171 = multiply(%170, %v8_0_affine_g) /* ty=Tensor[(1, 4, 64), float32] */;
  %172 = add(%171, %v8_0_affine_b) /* ty=Tensor[(1, 4, 64), float32] */;
  %173 = nn.conv1d(%172, %v8_0_fn_weight, channels=4, kernel_size=[1]) /* ty=Tensor[(1, 4, 64), float32] */;
  %174 = nn.bias_add(%173, %v8_0_fn_bias) /* ty=Tensor[(1, 4, 64), float32] */;
  %175 = multiply(%174, %v8_0_scale) /* ty=Tensor[(1, 4, 64), float32] */;
  %176 = add(%175, %170) /* ty=Tensor[(1, 4, 64), float32] */;
  %177 = multiply(%176, %v8_1_affine_g) /* ty=Tensor[(1, 4, 64), float32] */;
  %178 = add(%177, %v8_1_affine_b) /* ty=Tensor[(1, 4, 64), float32] */;
  %179 = transpose(%v8_1_fn_0_weight, axes=[1, 0]) /* ty=Tensor[(64, 256), float32] */;
  %180 = reshape(%178, newshape=[-1, 64]) /* ty=Tensor[(4, 64), float32] */;
  %181 = transpose(%179, axes=[1, 0]) /* ty=Tensor[(256, 64), float32] */;
  %182 = nn.dense(%180, %181, units=None) /* ty=Tensor[(4, 256), float32] */;
  %183 = reshape(%182, newshape=[1, 4, 256]) /* ty=Tensor[(1, 4, 256), float32] */;
  %184 = add(%183, %v8_1_fn_0_bias) /* ty=Tensor[(1, 4, 256), float32] */;
  %185 = multiply(%184, 0.707107f /* ty=float32 */) /* ty=Tensor[(1, 4, 256), float32] */;
  %186 = erf(%185) /* ty=Tensor[(1, 4, 256), float32] */;
  %187 = multiply(%186, 0.5f /* ty=float32 */) /* ty=Tensor[(1, 4, 256), float32] */;
  %188 = add(0.5f /* ty=float32 */, %187) /* ty=Tensor[(1, 4, 256), float32] */;
  %189 = multiply(%184, %188) /* ty=Tensor[(1, 4, 256), float32] */;
  %190 = transpose(%v8_1_fn_2_weight, axes=[1, 0]) /* ty=Tensor[(256, 64), float32] */;
  %191 = reshape(%189, newshape=[-1, 256]) /* ty=Tensor[(4, 256), float32] */;
  %192 = transpose(%190, axes=[1, 0]) /* ty=Tensor[(64, 256), float32] */;
  %193 = nn.dense(%191, %192, units=None) /* ty=Tensor[(4, 64), float32] */;
  %194 = reshape(%193, newshape=[1, 4, 64]) /* ty=Tensor[(1, 4, 64), float32] */;
  %195 = add(%194, %v8_1_fn_2_bias) /* ty=Tensor[(1, 4, 64), float32] */;
  %196 = multiply(%195, %v8_1_scale) /* ty=Tensor[(1, 4, 64), float32] */;
  %197 = add(%196, %176) /* ty=Tensor[(1, 4, 64), float32] */;
  %198 = multiply(%197, %v9_0_affine_g) /* ty=Tensor[(1, 4, 64), float32] */;
  %199 = add(%198, %v9_0_affine_b) /* ty=Tensor[(1, 4, 64), float32] */;
  %200 = nn.conv1d(%199, %v9_0_fn_weight, channels=4, kernel_size=[1]) /* ty=Tensor[(1, 4, 64), float32] */;
  %201 = nn.bias_add(%200, %v9_0_fn_bias) /* ty=Tensor[(1, 4, 64), float32] */;
  %202 = multiply(%201, %v9_0_scale) /* ty=Tensor[(1, 4, 64), float32] */;
  %203 = add(%202, %197) /* ty=Tensor[(1, 4, 64), float32] */;
  %204 = multiply(%203, %v9_1_affine_g) /* ty=Tensor[(1, 4, 64), float32] */;
  %205 = add(%204, %v9_1_affine_b) /* ty=Tensor[(1, 4, 64), float32] */;
  %206 = transpose(%v9_1_fn_0_weight, axes=[1, 0]) /* ty=Tensor[(64, 256), float32] */;
  %207 = reshape(%205, newshape=[-1, 64]) /* ty=Tensor[(4, 64), float32] */;
  %208 = transpose(%206, axes=[1, 0]) /* ty=Tensor[(256, 64), float32] */;
  %209 = nn.dense(%207, %208, units=None) /* ty=Tensor[(4, 256), float32] */;
  %210 = reshape(%209, newshape=[1, 4, 256]) /* ty=Tensor[(1, 4, 256), float32] */;
  %211 = add(%210, %v9_1_fn_0_bias) /* ty=Tensor[(1, 4, 256), float32] */;
  %212 = multiply(%211, 0.707107f /* ty=float32 */) /* ty=Tensor[(1, 4, 256), float32] */;
  %213 = erf(%212) /* ty=Tensor[(1, 4, 256), float32] */;
  %214 = multiply(%213, 0.5f /* ty=float32 */) /* ty=Tensor[(1, 4, 256), float32] */;
  %215 = add(0.5f /* ty=float32 */, %214) /* ty=Tensor[(1, 4, 256), float32] */;
  %216 = multiply(%211, %215) /* ty=Tensor[(1, 4, 256), float32] */;
  %217 = transpose(%v9_1_fn_2_weight, axes=[1, 0]) /* ty=Tensor[(256, 64), float32] */;
  %218 = reshape(%216, newshape=[-1, 256]) /* ty=Tensor[(4, 256), float32] */;
  %219 = transpose(%217, axes=[1, 0]) /* ty=Tensor[(64, 256), float32] */;
  %220 = nn.dense(%218, %219, units=None) /* ty=Tensor[(4, 64), float32] */;
  %221 = reshape(%220, newshape=[1, 4, 64]) /* ty=Tensor[(1, 4, 64), float32] */;
  %222 = add(%221, %v9_1_fn_2_bias) /* ty=Tensor[(1, 4, 64), float32] */;
  %223 = multiply(%222, %v9_1_scale) /* ty=Tensor[(1, 4, 64), float32] */;
  %224 = add(%223, %203) /* ty=Tensor[(1, 4, 64), float32] */;
  %225 = multiply(%224, %v10_0_affine_g) /* ty=Tensor[(1, 4, 64), float32] */;
  %226 = add(%225, %v10_0_affine_b) /* ty=Tensor[(1, 4, 64), float32] */;
  %227 = nn.conv1d(%226, %v10_0_fn_weight, channels=4, kernel_size=[1]) /* ty=Tensor[(1, 4, 64), float32] */;
  %228 = nn.bias_add(%227, %v10_0_fn_bias) /* ty=Tensor[(1, 4, 64), float32] */;
  %229 = multiply(%228, %v10_0_scale) /* ty=Tensor[(1, 4, 64), float32] */;
  %230 = add(%229, %224) /* ty=Tensor[(1, 4, 64), float32] */;
  %231 = multiply(%230, %v10_1_affine_g) /* ty=Tensor[(1, 4, 64), float32] */;
  %232 = add(%231, %v10_1_affine_b) /* ty=Tensor[(1, 4, 64), float32] */;
  %233 = transpose(%v10_1_fn_0_weight, axes=[1, 0]) /* ty=Tensor[(64, 256), float32] */;
  %234 = reshape(%232, newshape=[-1, 64]) /* ty=Tensor[(4, 64), float32] */;
  %235 = transpose(%233, axes=[1, 0]) /* ty=Tensor[(256, 64), float32] */;
  %236 = nn.dense(%234, %235, units=None) /* ty=Tensor[(4, 256), float32] */;
  %237 = reshape(%236, newshape=[1, 4, 256]) /* ty=Tensor[(1, 4, 256), float32] */;
  %238 = add(%237, %v10_1_fn_0_bias) /* ty=Tensor[(1, 4, 256), float32] */;
  %239 = multiply(%238, 0.707107f /* ty=float32 */) /* ty=Tensor[(1, 4, 256), float32] */;
  %240 = erf(%239) /* ty=Tensor[(1, 4, 256), float32] */;
  %241 = multiply(%240, 0.5f /* ty=float32 */) /* ty=Tensor[(1, 4, 256), float32] */;
  %242 = add(0.5f /* ty=float32 */, %241) /* ty=Tensor[(1, 4, 256), float32] */;
  %243 = multiply(%238, %242) /* ty=Tensor[(1, 4, 256), float32] */;
  %244 = transpose(%v10_1_fn_2_weight, axes=[1, 0]) /* ty=Tensor[(256, 64), float32] */;
  %245 = reshape(%243, newshape=[-1, 256]) /* ty=Tensor[(4, 256), float32] */;
  %246 = transpose(%244, axes=[1, 0]) /* ty=Tensor[(64, 256), float32] */;
  %247 = nn.dense(%245, %246, units=None) /* ty=Tensor[(4, 64), float32] */;
  %248 = reshape(%247, newshape=[1, 4, 64]) /* ty=Tensor[(1, 4, 64), float32] */;
  %249 = add(%248, %v10_1_fn_2_bias) /* ty=Tensor[(1, 4, 64), float32] */;
  %250 = multiply(%249, %v10_1_scale) /* ty=Tensor[(1, 4, 64), float32] */;
  %251 = add(%250, %230) /* ty=Tensor[(1, 4, 64), float32] */;
  %252 = multiply(%251, %v11_0_affine_g) /* ty=Tensor[(1, 4, 64), float32] */;
  %253 = add(%252, %v11_0_affine_b) /* ty=Tensor[(1, 4, 64), float32] */;
  %254 = nn.conv1d(%253, %v11_0_fn_weight, channels=4, kernel_size=[1]) /* ty=Tensor[(1, 4, 64), float32] */;
  %255 = nn.bias_add(%254, %v11_0_fn_bias) /* ty=Tensor[(1, 4, 64), float32] */;
  %256 = multiply(%255, %v11_0_scale) /* ty=Tensor[(1, 4, 64), float32] */;
  %257 = add(%256, %251) /* ty=Tensor[(1, 4, 64), float32] */;
  %258 = multiply(%257, %v11_1_affine_g) /* ty=Tensor[(1, 4, 64), float32] */;
  %259 = add(%258, %v11_1_affine_b) /* ty=Tensor[(1, 4, 64), float32] */;
  %260 = transpose(%v11_1_fn_0_weight, axes=[1, 0]) /* ty=Tensor[(64, 256), float32] */;
  %261 = reshape(%259, newshape=[-1, 64]) /* ty=Tensor[(4, 64), float32] */;
  %262 = transpose(%260, axes=[1, 0]) /* ty=Tensor[(256, 64), float32] */;
  %263 = nn.dense(%261, %262, units=None) /* ty=Tensor[(4, 256), float32] */;
  %264 = reshape(%263, newshape=[1, 4, 256]) /* ty=Tensor[(1, 4, 256), float32] */;
  %265 = add(%264, %v11_1_fn_0_bias) /* ty=Tensor[(1, 4, 256), float32] */;
  %266 = multiply(%265, 0.707107f /* ty=float32 */) /* ty=Tensor[(1, 4, 256), float32] */;
  %267 = erf(%266) /* ty=Tensor[(1, 4, 256), float32] */;
  %268 = multiply(%267, 0.5f /* ty=float32 */) /* ty=Tensor[(1, 4, 256), float32] */;
  %269 = add(0.5f /* ty=float32 */, %268) /* ty=Tensor[(1, 4, 256), float32] */;
  %270 = multiply(%265, %269) /* ty=Tensor[(1, 4, 256), float32] */;
  %271 = transpose(%v11_1_fn_2_weight, axes=[1, 0]) /* ty=Tensor[(256, 64), float32] */;
  %272 = reshape(%270, newshape=[-1, 256]) /* ty=Tensor[(4, 256), float32] */;
  %273 = transpose(%271, axes=[1, 0]) /* ty=Tensor[(64, 256), float32] */;
  %274 = nn.dense(%272, %273, units=None) /* ty=Tensor[(4, 64), float32] */;
  %275 = reshape(%274, newshape=[1, 4, 64]) /* ty=Tensor[(1, 4, 64), float32] */;
  %276 = add(%275, %v11_1_fn_2_bias) /* ty=Tensor[(1, 4, 64), float32] */;
  %277 = multiply(%276, %v11_1_scale) /* ty=Tensor[(1, 4, 64), float32] */;
  %278 = add(%277, %257) /* ty=Tensor[(1, 4, 64), float32] */;
  %279 = multiply(%278, %v12_0_affine_g) /* ty=Tensor[(1, 4, 64), float32] */;
  %280 = add(%279, %v12_0_affine_b) /* ty=Tensor[(1, 4, 64), float32] */;
  %281 = nn.conv1d(%280, %v12_0_fn_weight, channels=4, kernel_size=[1]) /* ty=Tensor[(1, 4, 64), float32] */;
  %282 = nn.bias_add(%281, %v12_0_fn_bias) /* ty=Tensor[(1, 4, 64), float32] */;
  %283 = multiply(%282, %v12_0_scale) /* ty=Tensor[(1, 4, 64), float32] */;
  %284 = add(%283, %278) /* ty=Tensor[(1, 4, 64), float32] */;
  %285 = multiply(%284, %v12_1_affine_g) /* ty=Tensor[(1, 4, 64), float32] */;
  %286 = add(%285, %v12_1_affine_b) /* ty=Tensor[(1, 4, 64), float32] */;
  %287 = transpose(%v12_1_fn_0_weight, axes=[1, 0]) /* ty=Tensor[(64, 256), float32] */;
  %288 = reshape(%286, newshape=[-1, 64]) /* ty=Tensor[(4, 64), float32] */;
  %289 = transpose(%287, axes=[1, 0]) /* ty=Tensor[(256, 64), float32] */;
  %290 = nn.dense(%288, %289, units=None) /* ty=Tensor[(4, 256), float32] */;
  %291 = reshape(%290, newshape=[1, 4, 256]) /* ty=Tensor[(1, 4, 256), float32] */;
  %292 = add(%291, %v12_1_fn_0_bias) /* ty=Tensor[(1, 4, 256), float32] */;
  %293 = multiply(%292, 0.707107f /* ty=float32 */) /* ty=Tensor[(1, 4, 256), float32] */;
  %294 = erf(%293) /* ty=Tensor[(1, 4, 256), float32] */;
  %295 = multiply(%294, 0.5f /* ty=float32 */) /* ty=Tensor[(1, 4, 256), float32] */;
  %296 = add(0.5f /* ty=float32 */, %295) /* ty=Tensor[(1, 4, 256), float32] */;
  %297 = multiply(%292, %296) /* ty=Tensor[(1, 4, 256), float32] */;
  %298 = transpose(%v12_1_fn_2_weight, axes=[1, 0]) /* ty=Tensor[(256, 64), float32] */;
  %299 = reshape(%297, newshape=[-1, 256]) /* ty=Tensor[(4, 256), float32] */;
  %300 = transpose(%298, axes=[1, 0]) /* ty=Tensor[(64, 256), float32] */;
  %301 = nn.dense(%299, %300, units=None) /* ty=Tensor[(4, 64), float32] */;
  %302 = reshape(%301, newshape=[1, 4, 64]) /* ty=Tensor[(1, 4, 64), float32] */;
  %303 = add(%302, %v12_1_fn_2_bias) /* ty=Tensor[(1, 4, 64), float32] */;
  %304 = multiply(%303, %v12_1_scale) /* ty=Tensor[(1, 4, 64), float32] */;
  %305 = add(%304, %284) /* ty=Tensor[(1, 4, 64), float32] */;
  %306 = multiply(%305, %v13_0_affine_g) /* ty=Tensor[(1, 4, 64), float32] */;
  %307 = add(%306, %v13_0_affine_b) /* ty=Tensor[(1, 4, 64), float32] */;
  %308 = nn.conv1d(%307, %v13_0_fn_weight, channels=4, kernel_size=[1]) /* ty=Tensor[(1, 4, 64), float32] */;
  %309 = nn.bias_add(%308, %v13_0_fn_bias) /* ty=Tensor[(1, 4, 64), float32] */;
  %310 = multiply(%309, %v13_0_scale) /* ty=Tensor[(1, 4, 64), float32] */;
  %311 = add(%310, %305) /* ty=Tensor[(1, 4, 64), float32] */;
  %312 = multiply(%311, %v13_1_affine_g) /* ty=Tensor[(1, 4, 64), float32] */;
  %313 = add(%312, %v13_1_affine_b) /* ty=Tensor[(1, 4, 64), float32] */;
  %314 = transpose(%v13_1_fn_0_weight, axes=[1, 0]) /* ty=Tensor[(64, 256), float32] */;
  %315 = reshape(%313, newshape=[-1, 64]) /* ty=Tensor[(4, 64), float32] */;
  %316 = transpose(%314, axes=[1, 0]) /* ty=Tensor[(256, 64), float32] */;
  %317 = nn.dense(%315, %316, units=None) /* ty=Tensor[(4, 256), float32] */;
  %318 = reshape(%317, newshape=[1, 4, 256]) /* ty=Tensor[(1, 4, 256), float32] */;
  %319 = add(%318, %v13_1_fn_0_bias) /* ty=Tensor[(1, 4, 256), float32] */;
  %320 = multiply(%319, 0.707107f /* ty=float32 */) /* ty=Tensor[(1, 4, 256), float32] */;
  %321 = erf(%320) /* ty=Tensor[(1, 4, 256), float32] */;
  %322 = multiply(%321, 0.5f /* ty=float32 */) /* ty=Tensor[(1, 4, 256), float32] */;
  %323 = add(0.5f /* ty=float32 */, %322) /* ty=Tensor[(1, 4, 256), float32] */;
  %324 = multiply(%319, %323) /* ty=Tensor[(1, 4, 256), float32] */;
  %325 = transpose(%v13_1_fn_2_weight, axes=[1, 0]) /* ty=Tensor[(256, 64), float32] */;
  %326 = reshape(%324, newshape=[-1, 256]) /* ty=Tensor[(4, 256), float32] */;
  %327 = transpose(%325, axes=[1, 0]) /* ty=Tensor[(64, 256), float32] */;
  %328 = nn.dense(%326, %327, units=None) /* ty=Tensor[(4, 64), float32] */;
  %329 = reshape(%328, newshape=[1, 4, 64]) /* ty=Tensor[(1, 4, 64), float32] */;
  %330 = add(%329, %v13_1_fn_2_bias) /* ty=Tensor[(1, 4, 64), float32] */;
  %331 = multiply(%330, %v13_1_scale) /* ty=Tensor[(1, 4, 64), float32] */;
  %332 = add(%331, %311) /* ty=Tensor[(1, 4, 64), float32] */;
  %333 = multiply(%332, %v14_g) /* ty=Tensor[(1, 4, 64), float32] */;
  %334 = add(%333, %v14_b) /* ty=Tensor[(1, 4, 64), float32] */;
  %335 = reshape(%334, newshape=[1, 4, 64]) /* ty=Tensor[(1, 4, 64), float32] */;
  %336 = mean(%335, axis=[1]) /* ty=Tensor[(1, 64), float32] */;
  %337 = transpose(%336, axes=[0, 1]) /* ty=Tensor[(1, 64), float32] */;
  %338 = transpose(%v16_weight, axes=[1, 0]) /* ty=Tensor[(64, 32), float32] */;
  %339 = reshape(%337, newshape=[1, 64]) /* ty=Tensor[(1, 64), float32] */;
  %340 = transpose(%338, axes=[1, 0]) /* ty=Tensor[(32, 64), float32] */;
  %341 = nn.dense(%339, %340, units=32) /* ty=Tensor[(1, 32), float32] */;
  add(%341, %v16_bias) /* ty=Tensor[(1, 32), float32] */
}
