type List[A] {
  Cons(A, List[A]),
  Nil,
}

type Option[A] {
  Some(A),
  None,
}

type Tree[A] {
  Rose(A, List[Tree[A]]),
}

type tensor_float16_t {
  tensor_nil_float16,
  tensor0_float16(float16),
  tensor1_float16(Tensor[(?), float16]),
  tensor2_float16(Tensor[(?, ?), float16]),
  tensor3_float16(Tensor[(?, ?, ?), float16]),
  tensor4_float16(Tensor[(?, ?, ?, ?), float16]),
  tensor5_float16(Tensor[(?, ?, ?, ?, ?), float16]),
  tensor6_float16(Tensor[(?, ?, ?, ?, ?, ?), float16]),
}

type tensor_float32_t {
  tensor_nil_float32,
  tensor0_float32(float32),
  tensor1_float32(Tensor[(?), float32]),
  tensor2_float32(Tensor[(?, ?), float32]),
  tensor3_float32(Tensor[(?, ?, ?), float32]),
  tensor4_float32(Tensor[(?, ?, ?, ?), float32]),
  tensor5_float32(Tensor[(?, ?, ?, ?, ?), float32]),
  tensor6_float32(Tensor[(?, ?, ?, ?, ?, ?), float32]),
}

type tensor_float64_t {
  tensor_nil_float64,
  tensor0_float64(float64),
  tensor1_float64(Tensor[(?), float64]),
  tensor2_float64(Tensor[(?, ?), float64]),
  tensor3_float64(Tensor[(?, ?, ?), float64]),
  tensor4_float64(Tensor[(?, ?, ?, ?), float64]),
  tensor5_float64(Tensor[(?, ?, ?, ?, ?), float64]),
  tensor6_float64(Tensor[(?, ?, ?, ?, ?, ?), float64]),
}

type tensor_int16_t {
  tensor_nil_int16,
  tensor0_int16(int16),
  tensor1_int16(Tensor[(?), int16]),
  tensor2_int16(Tensor[(?, ?), int16]),
  tensor3_int16(Tensor[(?, ?, ?), int16]),
  tensor4_int16(Tensor[(?, ?, ?, ?), int16]),
  tensor5_int16(Tensor[(?, ?, ?, ?, ?), int16]),
  tensor6_int16(Tensor[(?, ?, ?, ?, ?, ?), int16]),
}

type tensor_int32_t {
  tensor_nil_int32,
  tensor0_int32(int32),
  tensor1_int32(Tensor[(?), int32]),
  tensor2_int32(Tensor[(?, ?), int32]),
  tensor3_int32(Tensor[(?, ?, ?), int32]),
  tensor4_int32(Tensor[(?, ?, ?, ?), int32]),
  tensor5_int32(Tensor[(?, ?, ?, ?, ?), int32]),
  tensor6_int32(Tensor[(?, ?, ?, ?, ?, ?), int32]),
}

type tensor_int64_t {
  tensor_nil_int64,
  tensor0_int64(int64),
  tensor1_int64(Tensor[(?), int64]),
  tensor2_int64(Tensor[(?, ?), int64]),
  tensor3_int64(Tensor[(?, ?, ?), int64]),
  tensor4_int64(Tensor[(?, ?, ?, ?), int64]),
  tensor5_int64(Tensor[(?, ?, ?, ?, ?), int64]),
  tensor6_int64(Tensor[(?, ?, ?, ?, ?, ?), int64]),
}

type tensor_int8_t {
  tensor_nil_int8,
  tensor0_int8(int8),
  tensor1_int8(Tensor[(?), int8]),
  tensor2_int8(Tensor[(?, ?), int8]),
  tensor3_int8(Tensor[(?, ?, ?), int8]),
  tensor4_int8(Tensor[(?, ?, ?, ?), int8]),
  tensor5_int8(Tensor[(?, ?, ?, ?, ?), int8]),
  tensor6_int8(Tensor[(?, ?, ?, ?, ?, ?), int8]),
}

type tensor_uint16_t {
  tensor_nil_uint16,
  tensor0_uint16(uint16),
  tensor1_uint16(Tensor[(?), uint16]),
  tensor2_uint16(Tensor[(?, ?), uint16]),
  tensor3_uint16(Tensor[(?, ?, ?), uint16]),
  tensor4_uint16(Tensor[(?, ?, ?, ?), uint16]),
  tensor5_uint16(Tensor[(?, ?, ?, ?, ?), uint16]),
  tensor6_uint16(Tensor[(?, ?, ?, ?, ?, ?), uint16]),
}

type tensor_uint8_t {
  tensor_nil_uint8,
  tensor0_uint8(uint8),
  tensor1_uint8(Tensor[(?), uint8]),
  tensor2_uint8(Tensor[(?, ?), uint8]),
  tensor3_uint8(Tensor[(?, ?, ?), uint8]),
  tensor4_uint8(Tensor[(?, ?, ?, ?), uint8]),
  tensor5_uint8(Tensor[(?, ?, ?, ?, ?), uint8]),
  tensor6_uint8(Tensor[(?, ?, ?, ?, ?, ?), uint8]),
}

def @main(%feats: Tensor[(277, 1, 240), float32] /* ty=Tensor[(277, 1, 240), float32] */, %txt: Tensor[(1, 47), int64] /* ty=Tensor[(1, 47), int64] */, %feat_lens: Tensor[(1), int32] /* ty=Tensor[(1), int32] */, %encoder.pre_rnn.lstm.weight_ih_l0: Tensor[(4096, 240), float32] /* ty=Tensor[(4096, 240), float32] */, %encoder.pre_rnn.lstm.weight_hh_l0: Tensor[(4096, 1024), float32] /* ty=Tensor[(4096, 1024), float32] */, %encoder.pre_rnn.lstm.bias_ih_l0: Tensor[(4096), float32] /* ty=Tensor[(4096), float32] */, %encoder.pre_rnn.lstm.bias_hh_l0: Tensor[(4096), float32] /* ty=Tensor[(4096), float32] */, %encoder.pre_rnn.lstm.weight_ih_l1: Tensor[(4096, 1024), float32] /* ty=Tensor[(4096, 1024), float32] */, %encoder.pre_rnn.lstm.weight_hh_l1: Tensor[(4096, 1024), float32] /* ty=Tensor[(4096, 1024), float32] */, %encoder.pre_rnn.lstm.bias_ih_l1: Tensor[(4096), float32] /* ty=Tensor[(4096), float32] */, %encoder.pre_rnn.lstm.bias_hh_l1: Tensor[(4096), float32] /* ty=Tensor[(4096), float32] */, %encoder.post_rnn.lstm.weight_ih_l0: Tensor[(4096, 2048), float32] /* ty=Tensor[(4096, 2048), float32] */, %encoder.post_rnn.lstm.weight_hh_l0: Tensor[(4096, 1024), float32] /* ty=Tensor[(4096, 1024), float32] */, %encoder.post_rnn.lstm.bias_ih_l0: Tensor[(4096), float32] /* ty=Tensor[(4096), float32] */, %encoder.post_rnn.lstm.bias_hh_l0: Tensor[(4096), float32] /* ty=Tensor[(4096), float32] */, %encoder.post_rnn.lstm.weight_ih_l1: Tensor[(4096, 1024), float32] /* ty=Tensor[(4096, 1024), float32] */, %encoder.post_rnn.lstm.weight_hh_l1: Tensor[(4096, 1024), float32] /* ty=Tensor[(4096, 1024), float32] */, %encoder.post_rnn.lstm.bias_ih_l1: Tensor[(4096), float32] /* ty=Tensor[(4096), float32] */, %encoder.post_rnn.lstm.bias_hh_l1: Tensor[(4096), float32] /* ty=Tensor[(4096), float32] */, %encoder.post_rnn.lstm.weight_ih_l2: Tensor[(4096, 1024), float32] /* ty=Tensor[(4096, 1024), float32] */, %encoder.post_rnn.lstm.weight_hh_l2: Tensor[(4096, 1024), float32] /* ty=Tensor[(4096, 1024), float32] */, %encoder.post_rnn.lstm.bias_ih_l2: Tensor[(4096), float32] /* ty=Tensor[(4096), float32] */, %encoder.post_rnn.lstm.bias_hh_l2: Tensor[(4096), float32] /* ty=Tensor[(4096), float32] */, %joint_enc.weight: Tensor[(512, 1024), float32] /* ty=Tensor[(512, 1024), float32] */, %joint_enc.bias: Tensor[(512), float32] /* ty=Tensor[(512), float32] */, %prediction.embed.weight: Tensor[(500, 512), float32] /* ty=Tensor[(500, 512), float32] */, %prediction.dec_rnn.lstm.weight_ih_l0: Tensor[(2048, 512), float32] /* ty=Tensor[(2048, 512), float32] */, %prediction.dec_rnn.lstm.weight_hh_l0: Tensor[(2048, 512), float32] /* ty=Tensor[(2048, 512), float32] */, %prediction.dec_rnn.lstm.bias_ih_l0: Tensor[(2048), float32] /* ty=Tensor[(2048), float32] */, %prediction.dec_rnn.lstm.bias_hh_l0: Tensor[(2048), float32] /* ty=Tensor[(2048), float32] */, %prediction.dec_rnn.lstm.weight_ih_l1: Tensor[(2048, 512), float32] /* ty=Tensor[(2048, 512), float32] */, %prediction.dec_rnn.lstm.weight_hh_l1: Tensor[(2048, 512), float32] /* ty=Tensor[(2048, 512), float32] */, %prediction.dec_rnn.lstm.bias_ih_l1: Tensor[(2048), float32] /* ty=Tensor[(2048), float32] */, %prediction.dec_rnn.lstm.bias_hh_l1: Tensor[(2048), float32] /* ty=Tensor[(2048), float32] */, %joint_pred.weight: Tensor[(512, 512), float32] /* ty=Tensor[(512, 512), float32] */, %joint_pred.bias: Tensor[(512), float32] /* ty=Tensor[(512), float32] */, %joint_net.2.weight: Tensor[(501, 512), float32] /* ty=Tensor[(501, 512), float32] */, %joint_net.2.bias: Tensor[(501), float32] /* ty=Tensor[(501), float32] */) -> (Tensor[(1, 139, 48, 501), float32], Tensor[(1), int32]) {
  %0 = split(%feats, indices_or_sections=277) /* ty=(Tensor[(1, 1, 240), float32], Tensor[(1, 1, 240), float32], Tensor[(1, 1, 240), float32], Tensor[(1, 1, 240), float32], Tensor[(1, 1, 240), float32], Tensor[(1, 1, 240), float32], Tensor[(1, 1, 240), float32], Tensor[(1, 1, 240), float32], Tensor[(1, 1, 240), float32], Tensor[(1, 1, 240), float32], Tensor[(1, 1, 240), float32], Tensor[(1, 1, 240), float32], Tensor[(1, 1, 240), float32], Tensor[(1, 1, 240), float32], Tensor[(1, 1, 240), float32], Tensor[(1, 1, 240), float32], Tensor[(1, 1, 240), float32], Tensor[(1, 1, 240), float32], Tensor[(1, 1, 240), float32], Tensor[(1, 1, 240), float32], Tensor[(1, 1, 240), float32], Tensor[(1, 1, 240), float32], Tensor[(1, 1, 240), float32], Tensor[(1, 1, 240), float32], Tensor[(1, 1, 240), float32], Tensor[(1, 1, 240), float32], Tensor[(1, 1, 240), float32], Tensor[(1, 1, 240), float32], Tensor[(1, 1, 240), float32], Tensor[(1, 1, 240), float32], Tensor[(1, 1, 240), float32], Tensor[(1, 1, 240), float32], Tensor[(1, 1, 240), float32], Tensor[(1, 1, 240), float32], Tensor[(1, 1, 240), float32], Tensor[(1, 1, 240), float32], Tensor[(1, 1, 240), float32], Tensor[(1, 1, 240), float32], Tensor[(1, 1, 240), float32], Tensor[(1, 1, 240), float32], Tensor[(1, 1, 240), float32], Tensor[(1, 1, 240), float32], Tensor[(1, 1, 240), float32], Tensor[(1, 1, 240), float32], Tensor[(1, 1, 240), float32], Tensor[(1, 1, 240), float32], Tensor[(1, 1, 240), float32], Tensor[(1, 1, 240), float32], Tensor[(1, 1, 240), float32], Tensor[(1, 1, 240), float32], Tensor[(1, 1, 240), float32], Tensor[(1, 1, 240), float32], Tensor[(1, 1, 240), float32], Tensor[(1, 1, 240), float32], Tensor[(1, 1, 240), float32], Tensor[(1, 1, 240), float32], Tensor[(1, 1, 240), float32], Tensor[(1, 1, 240), float32], Tensor[(1, 1, 240), float32], Tensor[(1, 1, 240), float32], Tensor[(1, 1, 240), float32], Tensor[(1, 1, 240), float32], Tensor[(1, 1, 240), float32], Tensor[(1, 1, 240), float32], Tensor[(1, 1, 240), float32], Tensor[(1, 1, 240), float32], Tensor[(1, 1, 240), float32], Tensor[(1, 1, 240), float32], Tensor[(1, 1, 240), float32], Tensor[(1, 1, 240), float32], Tensor[(1, 1, 240), float32], Tensor[(1, 1, 240), float32], Tensor[(1, 1, 240), float32], Tensor[(1, 1, 240), float32], Tensor[(1, 1, 240), float32], Tensor[(1, 1, 240), float32], Tensor[(1, 1, 240), float32], Tensor[(1, 1, 240), float32], Tensor[(1, 1, 240), float32], Tensor[(1, 1, 240), float32], Tensor[(1, 1, 240), float32], Tensor[(1, 1, 240), float32], Tensor[(1, 1, 240), float32], Tensor[(1, 1, 240), float32], Tensor[(1, 1, 240), float32], Tensor[(1, 1, 240), float32], Tensor[(1, 1, 240), float32], Tensor[(1, 1, 240), float32], Tensor[(1, 1, 240), float32], Tensor[(1, 1, 240), float32], Tensor[(1, 1, 240), float32], Tensor[(1, 1, 240), float32], Tensor[(1, 1, 240), float32], Tensor[(1, 1, 240), float32], Tensor[(1, 1, 240), float32], Tensor[(1, 1, 240), float32], Tensor[(1, 1, 240), float32], Tensor[(1, 1, 240), float32], Tensor[(1, 1, 240), float32], Tensor[(1, 1, 240), float32], Tensor[(1, 1, 240), float32], Tensor[(1, 1, 240), float32], Tensor[(1, 1, 240), float32], Tensor[(1, 1, 240), float32], Tensor[(1, 1, 240), float32], Tensor[(1, 1, 240), float32], Tensor[(1, 1, 240), float32], Tensor[(1, 1, 240), float32], Tensor[(1, 1, 240), float32], Tensor[(1, 1, 240), float32], Tensor[(1, 1, 240), float32], Tensor[(1, 1, 240), float32], Tensor[(1, 1, 240), float32], Tensor[(1, 1, 240), float32], Tensor[(1, 1, 240), float32], Tensor[(1, 1, 240), float32], Tensor[(1, 1, 240), float32], Tensor[(1, 1, 240), float32], Tensor[(1, 1, 240), float32], Tensor[(1, 1, 240), float32], Tensor[(1, 1, 240), float32], Tensor[(1, 1, 240), float32], Tensor[(1, 1, 240), float32], Tensor[(1, 1, 240), float32], Tensor[(1, 1, 240), float32], Tensor[(1, 1, 240), float32], Tensor[(1, 1, 240), float32], Tensor[(1, 1, 240), float32], Tensor[(1, 1, 240), float32], Tensor[(1, 1, 240), float32], Tensor[(1, 1, 240), float32], Tensor[(1, 1, 240), float32], Tensor[(1, 1, 240), float32], Tensor[(1, 1, 240), float32], Tensor[(1, 1, 240), float32], Tensor[(1, 1, 240), float32], Tensor[(1, 1, 240), float32], Tensor[(1, 1, 240), float32], Tensor[(1, 1, 240), float32], Tensor[(1, 1, 240), float32], Tensor[(1, 1, 240), float32], Tensor[(1, 1, 240), float32], Tensor[(1, 1, 240), float32], Tensor[(1, 1, 240), float32], Tensor[(1, 1, 240), float32], Tensor[(1, 1, 240), float32], Tensor[(1, 1, 240), float32], Tensor[(1, 1, 240), float32], Tensor[(1, 1, 240), float32], Tensor[(1, 1, 240), float32], Tensor[(1, 1, 240), float32], Tensor[(1, 1, 240), float32], Tensor[(1, 1, 240), float32], Tensor[(1, 1, 240), float32], Tensor[(1, 1, 240), float32], Tensor[(1, 1, 240), float32], Tensor[(1, 1, 240), float32], Tensor[(1, 1, 240), float32], Tensor[(1, 1, 240), float32], Tensor[(1, 1, 240), float32], Tensor[(1, 1, 240), float32], Tensor[(1, 1, 240), float32], Tensor[(1, 1, 240), float32], Tensor[(1, 1, 240), float32], Tensor[(1, 1, 240), float32], Tensor[(1, 1, 240), float32], Tensor[(1, 1, 240), float32], Tensor[(1, 1, 240), float32], Tensor[(1, 1, 240), float32], Tensor[(1, 1, 240), float32], Tensor[(1, 1, 240), float32], Tensor[(1, 1, 240), float32], Tensor[(1, 1, 240), float32], Tensor[(1, 1, 240), float32], Tensor[(1, 1, 240), float32], Tensor[(1, 1, 240), float32], Tensor[(1, 1, 240), float32], Tensor[(1, 1, 240), float32], Tensor[(1, 1, 240), float32], Tensor[(1, 1, 240), float32], Tensor[(1, 1, 240), float32], Tensor[(1, 1, 240), float32], Tensor[(1, 1, 240), float32], Tensor[(1, 1, 240), float32], Tensor[(1, 1, 240), float32], Tensor[(1, 1, 240), float32], Tensor[(1, 1, 240), float32], Tensor[(1, 1, 240), float32], Tensor[(1, 1, 240), float32], Tensor[(1, 1, 240), float32], Tensor[(1, 1, 240), float32], Tensor[(1, 1, 240), float32], Tensor[(1, 1, 240), float32], Tensor[(1, 1, 240), float32], Tensor[(1, 1, 240), float32], Tensor[(1, 1, 240), float32], Tensor[(1, 1, 240), float32], Tensor[(1, 1, 240), float32], Tensor[(1, 1, 240), float32], Tensor[(1, 1, 240), float32], Tensor[(1, 1, 240), float32], Tensor[(1, 1, 240), float32], Tensor[(1, 1, 240), float32], Tensor[(1, 1, 240), float32], Tensor[(1, 1, 240), float32], Tensor[(1, 1, 240), float32], Tensor[(1, 1, 240), float32], Tensor[(1, 1, 240), float32], Tensor[(1, 1, 240), float32], Tensor[(1, 1, 240), float32], Tensor[(1, 1, 240), float32], Tensor[(1, 1, 240), float32], Tensor[(1, 1, 240), float32], Tensor[(1, 1, 240), float32], Tensor[(1, 1, 240), float32], Tensor[(1, 1, 240), float32], Tensor[(1, 1, 240), float32], Tensor[(1, 1, 240), float32], Tensor[(1, 1, 240), float32], Tensor[(1, 1, 240), float32], Tensor[(1, 1, 240), float32], Tensor[(1, 1, 240), float32], Tensor[(1, 1, 240), float32], Tensor[(1, 1, 240), float32], Tensor[(1, 1, 240), float32], Tensor[(1, 1, 240), float32], Tensor[(1, 1, 240), float32], Tensor[(1, 1, 240), float32], Tensor[(1, 1, 240), float32], Tensor[(1, 1, 240), float32], Tensor[(1, 1, 240), float32], Tensor[(1, 1, 240), float32], Tensor[(1, 1, 240), float32], Tensor[(1, 1, 240), float32], Tensor[(1, 1, 240), float32], Tensor[(1, 1, 240), float32], Tensor[(1, 1, 240), float32], Tensor[(1, 1, 240), float32], Tensor[(1, 1, 240), float32], Tensor[(1, 1, 240), float32], Tensor[(1, 1, 240), float32], Tensor[(1, 1, 240), float32], Tensor[(1, 1, 240), float32], Tensor[(1, 1, 240), float32], Tensor[(1, 1, 240), float32], Tensor[(1, 1, 240), float32], Tensor[(1, 1, 240), float32], Tensor[(1, 1, 240), float32], Tensor[(1, 1, 240), float32], Tensor[(1, 1, 240), float32], Tensor[(1, 1, 240), float32], Tensor[(1, 1, 240), float32], Tensor[(1, 1, 240), float32], Tensor[(1, 1, 240), float32], Tensor[(1, 1, 240), float32], Tensor[(1, 1, 240), float32], Tensor[(1, 1, 240), float32], Tensor[(1, 1, 240), float32], Tensor[(1, 1, 240), float32], Tensor[(1, 1, 240), float32], Tensor[(1, 1, 240), float32], Tensor[(1, 1, 240), float32], Tensor[(1, 1, 240), float32], Tensor[(1, 1, 240), float32], Tensor[(1, 1, 240), float32], Tensor[(1, 1, 240), float32], Tensor[(1, 1, 240), float32], Tensor[(1, 1, 240), float32], Tensor[(1, 1, 240), float32], Tensor[(1, 1, 240), float32], Tensor[(1, 1, 240), float32], Tensor[(1, 1, 240), float32], Tensor[(1, 1, 240), float32], Tensor[(1, 1, 240), float32], Tensor[(1, 1, 240), float32], Tensor[(1, 1, 240), float32], Tensor[(1, 1, 240), float32]) */;
  %1 = %0.0 /* ty=Tensor[(1, 1, 240), float32] */;
  %2 = %0.1 /* ty=Tensor[(1, 1, 240), float32] */;
  %3 = %0.2 /* ty=Tensor[(1, 1, 240), float32] */;
  %4 = %0.3 /* ty=Tensor[(1, 1, 240), float32] */;
  %5 = %0.4 /* ty=Tensor[(1, 1, 240), float32] */;
  %6 = %0.5 /* ty=Tensor[(1, 1, 240), float32] */;
  %7 = %0.6 /* ty=Tensor[(1, 1, 240), float32] */;
  %8 = %0.7 /* ty=Tensor[(1, 1, 240), float32] */;
  %9 = %0.8 /* ty=Tensor[(1, 1, 240), float32] */;
  %10 = %0.9 /* ty=Tensor[(1, 1, 240), float32] */;
  %11 = %0.10 /* ty=Tensor[(1, 1, 240), float32] */;
  %12 = %0.11 /* ty=Tensor[(1, 1, 240), float32] */;
  %13 = %0.12 /* ty=Tensor[(1, 1, 240), float32] */;
  %14 = %0.13 /* ty=Tensor[(1, 1, 240), float32] */;
  %15 = %0.14 /* ty=Tensor[(1, 1, 240), float32] */;
  %16 = %0.15 /* ty=Tensor[(1, 1, 240), float32] */;
  %17 = %0.16 /* ty=Tensor[(1, 1, 240), float32] */;
  %18 = %0.17 /* ty=Tensor[(1, 1, 240), float32] */;
  %19 = %0.18 /* ty=Tensor[(1, 1, 240), float32] */;
  %20 = %0.19 /* ty=Tensor[(1, 1, 240), float32] */;
  %21 = %0.20 /* ty=Tensor[(1, 1, 240), float32] */;
  %22 = %0.21 /* ty=Tensor[(1, 1, 240), float32] */;
  %23 = %0.22 /* ty=Tensor[(1, 1, 240), float32] */;
  %24 = %0.23 /* ty=Tensor[(1, 1, 240), float32] */;
  %25 = %0.24 /* ty=Tensor[(1, 1, 240), float32] */;
  %26 = %0.25 /* ty=Tensor[(1, 1, 240), float32] */;
  %27 = %0.26 /* ty=Tensor[(1, 1, 240), float32] */;
  %28 = %0.27 /* ty=Tensor[(1, 1, 240), float32] */;
  %29 = %0.28 /* ty=Tensor[(1, 1, 240), float32] */;
  %30 = %0.29 /* ty=Tensor[(1, 1, 240), float32] */;
  %31 = %0.30 /* ty=Tensor[(1, 1, 240), float32] */;
  %32 = %0.31 /* ty=Tensor[(1, 1, 240), float32] */;
  %33 = %0.32 /* ty=Tensor[(1, 1, 240), float32] */;
  %34 = %0.33 /* ty=Tensor[(1, 1, 240), float32] */;
  %35 = %0.34 /* ty=Tensor[(1, 1, 240), float32] */;
  %36 = %0.35 /* ty=Tensor[(1, 1, 240), float32] */;
  %37 = %0.36 /* ty=Tensor[(1, 1, 240), float32] */;
  %38 = %0.37 /* ty=Tensor[(1, 1, 240), float32] */;
  %39 = %0.38 /* ty=Tensor[(1, 1, 240), float32] */;
  %40 = %0.39 /* ty=Tensor[(1, 1, 240), float32] */;
  %41 = %0.40 /* ty=Tensor[(1, 1, 240), float32] */;
  %42 = %0.41 /* ty=Tensor[(1, 1, 240), float32] */;
  %43 = %0.42 /* ty=Tensor[(1, 1, 240), float32] */;
  %44 = %0.43 /* ty=Tensor[(1, 1, 240), float32] */;
  %45 = %0.44 /* ty=Tensor[(1, 1, 240), float32] */;
  %46 = %0.45 /* ty=Tensor[(1, 1, 240), float32] */;
  %47 = %0.46 /* ty=Tensor[(1, 1, 240), float32] */;
  %48 = %0.47 /* ty=Tensor[(1, 1, 240), float32] */;
  %49 = %0.48 /* ty=Tensor[(1, 1, 240), float32] */;
  %50 = %0.49 /* ty=Tensor[(1, 1, 240), float32] */;
  %51 = %0.50 /* ty=Tensor[(1, 1, 240), float32] */;
  %52 = %0.51 /* ty=Tensor[(1, 1, 240), float32] */;
  %53 = %0.52 /* ty=Tensor[(1, 1, 240), float32] */;
  %54 = %0.53 /* ty=Tensor[(1, 1, 240), float32] */;
  %55 = %0.54 /* ty=Tensor[(1, 1, 240), float32] */;
  %56 = %0.55 /* ty=Tensor[(1, 1, 240), float32] */;
  %57 = %0.56 /* ty=Tensor[(1, 1, 240), float32] */;
  %58 = %0.57 /* ty=Tensor[(1, 1, 240), float32] */;
  %59 = %0.58 /* ty=Tensor[(1, 1, 240), float32] */;
  %60 = %0.59 /* ty=Tensor[(1, 1, 240), float32] */;
  %61 = %0.60 /* ty=Tensor[(1, 1, 240), float32] */;
  %62 = %0.61 /* ty=Tensor[(1, 1, 240), float32] */;
  %63 = %0.62 /* ty=Tensor[(1, 1, 240), float32] */;
  %64 = %0.63 /* ty=Tensor[(1, 1, 240), float32] */;
  %65 = %0.64 /* ty=Tensor[(1, 1, 240), float32] */;
  %66 = %0.65 /* ty=Tensor[(1, 1, 240), float32] */;
  %67 = %0.66 /* ty=Tensor[(1, 1, 240), float32] */;
  %68 = %0.67 /* ty=Tensor[(1, 1, 240), float32] */;
  %69 = %0.68 /* ty=Tensor[(1, 1, 240), float32] */;
  %70 = %0.69 /* ty=Tensor[(1, 1, 240), float32] */;
  %71 = %0.70 /* ty=Tensor[(1, 1, 240), float32] */;
  %72 = %0.71 /* ty=Tensor[(1, 1, 240), float32] */;
  %73 = %0.72 /* ty=Tensor[(1, 1, 240), float32] */;
  %74 = %0.73 /* ty=Tensor[(1, 1, 240), float32] */;
  %75 = %0.74 /* ty=Tensor[(1, 1, 240), float32] */;
  %76 = %0.75 /* ty=Tensor[(1, 1, 240), float32] */;
  %77 = %0.76 /* ty=Tensor[(1, 1, 240), float32] */;
  %78 = %0.77 /* ty=Tensor[(1, 1, 240), float32] */;
  %79 = %0.78 /* ty=Tensor[(1, 1, 240), float32] */;
  %80 = %0.79 /* ty=Tensor[(1, 1, 240), float32] */;
  %81 = %0.80 /* ty=Tensor[(1, 1, 240), float32] */;
  %82 = %0.81 /* ty=Tensor[(1, 1, 240), float32] */;
  %83 = %0.82 /* ty=Tensor[(1, 1, 240), float32] */;
  %84 = %0.83 /* ty=Tensor[(1, 1, 240), float32] */;
  %85 = %0.84 /* ty=Tensor[(1, 1, 240), float32] */;
  %86 = %0.85 /* ty=Tensor[(1, 1, 240), float32] */;
  %87 = %0.86 /* ty=Tensor[(1, 1, 240), float32] */;
  %88 = %0.87 /* ty=Tensor[(1, 1, 240), float32] */;
  %89 = %0.88 /* ty=Tensor[(1, 1, 240), float32] */;
  %90 = %0.89 /* ty=Tensor[(1, 1, 240), float32] */;
  %91 = %0.90 /* ty=Tensor[(1, 1, 240), float32] */;
  %92 = %0.91 /* ty=Tensor[(1, 1, 240), float32] */;
  %93 = %0.92 /* ty=Tensor[(1, 1, 240), float32] */;
  %94 = %0.93 /* ty=Tensor[(1, 1, 240), float32] */;
  %95 = %0.94 /* ty=Tensor[(1, 1, 240), float32] */;
  %96 = %0.95 /* ty=Tensor[(1, 1, 240), float32] */;
  %97 = %0.96 /* ty=Tensor[(1, 1, 240), float32] */;
  %98 = %0.97 /* ty=Tensor[(1, 1, 240), float32] */;
  %99 = %0.98 /* ty=Tensor[(1, 1, 240), float32] */;
  %100 = %0.99 /* ty=Tensor[(1, 1, 240), float32] */;
  %101 = %0.100 /* ty=Tensor[(1, 1, 240), float32] */;
  %102 = %0.101 /* ty=Tensor[(1, 1, 240), float32] */;
  %103 = %0.102 /* ty=Tensor[(1, 1, 240), float32] */;
  %104 = %0.103 /* ty=Tensor[(1, 1, 240), float32] */;
  %105 = %0.104 /* ty=Tensor[(1, 1, 240), float32] */;
  %106 = %0.105 /* ty=Tensor[(1, 1, 240), float32] */;
  %107 = %0.106 /* ty=Tensor[(1, 1, 240), float32] */;
  %108 = %0.107 /* ty=Tensor[(1, 1, 240), float32] */;
  %109 = %0.108 /* ty=Tensor[(1, 1, 240), float32] */;
  %110 = %0.109 /* ty=Tensor[(1, 1, 240), float32] */;
  %111 = %0.110 /* ty=Tensor[(1, 1, 240), float32] */;
  %112 = %0.111 /* ty=Tensor[(1, 1, 240), float32] */;
  %113 = %0.112 /* ty=Tensor[(1, 1, 240), float32] */;
  %114 = %0.113 /* ty=Tensor[(1, 1, 240), float32] */;
  %115 = %0.114 /* ty=Tensor[(1, 1, 240), float32] */;
  %116 = %0.115 /* ty=Tensor[(1, 1, 240), float32] */;
  %117 = %0.116 /* ty=Tensor[(1, 1, 240), float32] */;
  %118 = %0.117 /* ty=Tensor[(1, 1, 240), float32] */;
  %119 = %0.118 /* ty=Tensor[(1, 1, 240), float32] */;
  %120 = %0.119 /* ty=Tensor[(1, 1, 240), float32] */;
  %121 = %0.120 /* ty=Tensor[(1, 1, 240), float32] */;
  %122 = %0.121 /* ty=Tensor[(1, 1, 240), float32] */;
  %123 = %0.122 /* ty=Tensor[(1, 1, 240), float32] */;
  %124 = %0.123 /* ty=Tensor[(1, 1, 240), float32] */;
  %125 = %0.124 /* ty=Tensor[(1, 1, 240), float32] */;
  %126 = %0.125 /* ty=Tensor[(1, 1, 240), float32] */;
  %127 = %0.126 /* ty=Tensor[(1, 1, 240), float32] */;
  %128 = %0.127 /* ty=Tensor[(1, 1, 240), float32] */;
  %129 = %0.128 /* ty=Tensor[(1, 1, 240), float32] */;
  %130 = %0.129 /* ty=Tensor[(1, 1, 240), float32] */;
  %131 = %0.130 /* ty=Tensor[(1, 1, 240), float32] */;
  %132 = %0.131 /* ty=Tensor[(1, 1, 240), float32] */;
  %133 = %0.132 /* ty=Tensor[(1, 1, 240), float32] */;
  %134 = %0.133 /* ty=Tensor[(1, 1, 240), float32] */;
  %135 = %0.134 /* ty=Tensor[(1, 1, 240), float32] */;
  %136 = %0.135 /* ty=Tensor[(1, 1, 240), float32] */;
  %137 = %0.136 /* ty=Tensor[(1, 1, 240), float32] */;
  %138 = %0.137 /* ty=Tensor[(1, 1, 240), float32] */;
  %139 = %0.138 /* ty=Tensor[(1, 1, 240), float32] */;
  %140 = %0.139 /* ty=Tensor[(1, 1, 240), float32] */;
  %141 = %0.140 /* ty=Tensor[(1, 1, 240), float32] */;
  %142 = %0.141 /* ty=Tensor[(1, 1, 240), float32] */;
  %143 = %0.142 /* ty=Tensor[(1, 1, 240), float32] */;
  %144 = %0.143 /* ty=Tensor[(1, 1, 240), float32] */;
  %145 = %0.144 /* ty=Tensor[(1, 1, 240), float32] */;
  %146 = %0.145 /* ty=Tensor[(1, 1, 240), float32] */;
  %147 = %0.146 /* ty=Tensor[(1, 1, 240), float32] */;
  %148 = %0.147 /* ty=Tensor[(1, 1, 240), float32] */;
  %149 = %0.148 /* ty=Tensor[(1, 1, 240), float32] */;
  %150 = %0.149 /* ty=Tensor[(1, 1, 240), float32] */;
  %151 = %0.150 /* ty=Tensor[(1, 1, 240), float32] */;
  %152 = %0.151 /* ty=Tensor[(1, 1, 240), float32] */;
  %153 = %0.152 /* ty=Tensor[(1, 1, 240), float32] */;
  %154 = %0.153 /* ty=Tensor[(1, 1, 240), float32] */;
  %155 = %0.154 /* ty=Tensor[(1, 1, 240), float32] */;
  %156 = %0.155 /* ty=Tensor[(1, 1, 240), float32] */;
  %157 = %0.156 /* ty=Tensor[(1, 1, 240), float32] */;
  %158 = %0.157 /* ty=Tensor[(1, 1, 240), float32] */;
  %159 = %0.158 /* ty=Tensor[(1, 1, 240), float32] */;
  %160 = %0.159 /* ty=Tensor[(1, 1, 240), float32] */;
  %161 = %0.160 /* ty=Tensor[(1, 1, 240), float32] */;
  %162 = %0.161 /* ty=Tensor[(1, 1, 240), float32] */;
  %163 = %0.162 /* ty=Tensor[(1, 1, 240), float32] */;
  %164 = %0.163 /* ty=Tensor[(1, 1, 240), float32] */;
  %165 = %0.164 /* ty=Tensor[(1, 1, 240), float32] */;
  %166 = %0.165 /* ty=Tensor[(1, 1, 240), float32] */;
  %167 = %0.166 /* ty=Tensor[(1, 1, 240), float32] */;
  %168 = %0.167 /* ty=Tensor[(1, 1, 240), float32] */;
  %169 = %0.168 /* ty=Tensor[(1, 1, 240), float32] */;
  %170 = %0.169 /* ty=Tensor[(1, 1, 240), float32] */;
  %171 = %0.170 /* ty=Tensor[(1, 1, 240), float32] */;
  %172 = %0.171 /* ty=Tensor[(1, 1, 240), float32] */;
  %173 = %0.172 /* ty=Tensor[(1, 1, 240), float32] */;
  %174 = %0.173 /* ty=Tensor[(1, 1, 240), float32] */;
  %175 = %0.174 /* ty=Tensor[(1, 1, 240), float32] */;
  %176 = %0.175 /* ty=Tensor[(1, 1, 240), float32] */;
  %177 = %0.176 /* ty=Tensor[(1, 1, 240), float32] */;
  %178 = %0.177 /* ty=Tensor[(1, 1, 240), float32] */;
  %179 = %0.178 /* ty=Tensor[(1, 1, 240), float32] */;
  %180 = %0.179 /* ty=Tensor[(1, 1, 240), float32] */;
  %181 = %0.180 /* ty=Tensor[(1, 1, 240), float32] */;
  %182 = %0.181 /* ty=Tensor[(1, 1, 240), float32] */;
  %183 = %0.182 /* ty=Tensor[(1, 1, 240), float32] */;
  %184 = %0.183 /* ty=Tensor[(1, 1, 240), float32] */;
  %185 = %0.184 /* ty=Tensor[(1, 1, 240), float32] */;
  %186 = %0.185 /* ty=Tensor[(1, 1, 240), float32] */;
  %187 = %0.186 /* ty=Tensor[(1, 1, 240), float32] */;
  %188 = %0.187 /* ty=Tensor[(1, 1, 240), float32] */;
  %189 = %0.188 /* ty=Tensor[(1, 1, 240), float32] */;
  %190 = %0.189 /* ty=Tensor[(1, 1, 240), float32] */;
  %191 = %0.190 /* ty=Tensor[(1, 1, 240), float32] */;
  %192 = %0.191 /* ty=Tensor[(1, 1, 240), float32] */;
  %193 = %0.192 /* ty=Tensor[(1, 1, 240), float32] */;
  %194 = %0.193 /* ty=Tensor[(1, 1, 240), float32] */;
  %195 = %0.194 /* ty=Tensor[(1, 1, 240), float32] */;
  %196 = %0.195 /* ty=Tensor[(1, 1, 240), float32] */;
  %197 = %0.196 /* ty=Tensor[(1, 1, 240), float32] */;
  %198 = %0.197 /* ty=Tensor[(1, 1, 240), float32] */;
  %199 = %0.198 /* ty=Tensor[(1, 1, 240), float32] */;
  %200 = %0.199 /* ty=Tensor[(1, 1, 240), float32] */;
  %201 = %0.200 /* ty=Tensor[(1, 1, 240), float32] */;
  %202 = %0.201 /* ty=Tensor[(1, 1, 240), float32] */;
  %203 = %0.202 /* ty=Tensor[(1, 1, 240), float32] */;
  %204 = %0.203 /* ty=Tensor[(1, 1, 240), float32] */;
  %205 = %0.204 /* ty=Tensor[(1, 1, 240), float32] */;
  %206 = %0.205 /* ty=Tensor[(1, 1, 240), float32] */;
  %207 = %0.206 /* ty=Tensor[(1, 1, 240), float32] */;
  %208 = %0.207 /* ty=Tensor[(1, 1, 240), float32] */;
  %209 = %0.208 /* ty=Tensor[(1, 1, 240), float32] */;
  %210 = %0.209 /* ty=Tensor[(1, 1, 240), float32] */;
  %211 = %0.210 /* ty=Tensor[(1, 1, 240), float32] */;
  %212 = %0.211 /* ty=Tensor[(1, 1, 240), float32] */;
  %213 = %0.212 /* ty=Tensor[(1, 1, 240), float32] */;
  %214 = %0.213 /* ty=Tensor[(1, 1, 240), float32] */;
  %215 = %0.214 /* ty=Tensor[(1, 1, 240), float32] */;
  %216 = %0.215 /* ty=Tensor[(1, 1, 240), float32] */;
  %217 = %0.216 /* ty=Tensor[(1, 1, 240), float32] */;
  %218 = %0.217 /* ty=Tensor[(1, 1, 240), float32] */;
  %219 = %0.218 /* ty=Tensor[(1, 1, 240), float32] */;
  %220 = %0.219 /* ty=Tensor[(1, 1, 240), float32] */;
  %221 = %0.220 /* ty=Tensor[(1, 1, 240), float32] */;
  %222 = %0.221 /* ty=Tensor[(1, 1, 240), float32] */;
  %223 = %0.222 /* ty=Tensor[(1, 1, 240), float32] */;
  %224 = %0.223 /* ty=Tensor[(1, 1, 240), float32] */;
  %225 = %0.224 /* ty=Tensor[(1, 1, 240), float32] */;
  %226 = %0.225 /* ty=Tensor[(1, 1, 240), float32] */;
  %227 = %0.226 /* ty=Tensor[(1, 1, 240), float32] */;
  %228 = %0.227 /* ty=Tensor[(1, 1, 240), float32] */;
  %229 = %0.228 /* ty=Tensor[(1, 1, 240), float32] */;
  %230 = %0.229 /* ty=Tensor[(1, 1, 240), float32] */;
  %231 = %0.230 /* ty=Tensor[(1, 1, 240), float32] */;
  %232 = %0.231 /* ty=Tensor[(1, 1, 240), float32] */;
  %233 = %0.232 /* ty=Tensor[(1, 1, 240), float32] */;
  %234 = %0.233 /* ty=Tensor[(1, 1, 240), float32] */;
  %235 = %0.234 /* ty=Tensor[(1, 1, 240), float32] */;
  %236 = %0.235 /* ty=Tensor[(1, 1, 240), float32] */;
  %237 = %0.236 /* ty=Tensor[(1, 1, 240), float32] */;
  %238 = %0.237 /* ty=Tensor[(1, 1, 240), float32] */;
  %239 = %0.238 /* ty=Tensor[(1, 1, 240), float32] */;
  %240 = %0.239 /* ty=Tensor[(1, 1, 240), float32] */;
  %241 = %0.240 /* ty=Tensor[(1, 1, 240), float32] */;
  %242 = %0.241 /* ty=Tensor[(1, 1, 240), float32] */;
  %243 = %0.242 /* ty=Tensor[(1, 1, 240), float32] */;
  %244 = %0.243 /* ty=Tensor[(1, 1, 240), float32] */;
  %245 = %0.244 /* ty=Tensor[(1, 1, 240), float32] */;
  %246 = %0.245 /* ty=Tensor[(1, 1, 240), float32] */;
  %247 = %0.246 /* ty=Tensor[(1, 1, 240), float32] */;
  %248 = %0.247 /* ty=Tensor[(1, 1, 240), float32] */;
  %249 = %0.248 /* ty=Tensor[(1, 1, 240), float32] */;
  %250 = %0.249 /* ty=Tensor[(1, 1, 240), float32] */;
  %251 = %0.250 /* ty=Tensor[(1, 1, 240), float32] */;
  %252 = %0.251 /* ty=Tensor[(1, 1, 240), float32] */;
  %253 = %0.252 /* ty=Tensor[(1, 1, 240), float32] */;
  %254 = %0.253 /* ty=Tensor[(1, 1, 240), float32] */;
  %255 = %0.254 /* ty=Tensor[(1, 1, 240), float32] */;
  %256 = %0.255 /* ty=Tensor[(1, 1, 240), float32] */;
  %257 = %0.256 /* ty=Tensor[(1, 1, 240), float32] */;
  %258 = %0.257 /* ty=Tensor[(1, 1, 240), float32] */;
  %259 = %0.258 /* ty=Tensor[(1, 1, 240), float32] */;
  %260 = %0.259 /* ty=Tensor[(1, 1, 240), float32] */;
  %261 = %0.260 /* ty=Tensor[(1, 1, 240), float32] */;
  %262 = %0.261 /* ty=Tensor[(1, 1, 240), float32] */;
  %263 = %0.262 /* ty=Tensor[(1, 1, 240), float32] */;
  %264 = %0.263 /* ty=Tensor[(1, 1, 240), float32] */;
  %265 = %0.264 /* ty=Tensor[(1, 1, 240), float32] */;
  %266 = %0.265 /* ty=Tensor[(1, 1, 240), float32] */;
  %267 = %0.266 /* ty=Tensor[(1, 1, 240), float32] */;
  %268 = %0.267 /* ty=Tensor[(1, 1, 240), float32] */;
  %269 = %0.268 /* ty=Tensor[(1, 1, 240), float32] */;
  %270 = %0.269 /* ty=Tensor[(1, 1, 240), float32] */;
  %271 = %0.270 /* ty=Tensor[(1, 1, 240), float32] */;
  %272 = %0.271 /* ty=Tensor[(1, 1, 240), float32] */;
  %273 = %0.272 /* ty=Tensor[(1, 1, 240), float32] */;
  %274 = %0.273 /* ty=Tensor[(1, 1, 240), float32] */;
  %275 = %0.274 /* ty=Tensor[(1, 1, 240), float32] */;
  %276 = %0.275 /* ty=Tensor[(1, 1, 240), float32] */;
  %277 = %0.276 /* ty=Tensor[(1, 1, 240), float32] */;
  %278 = squeeze(%1, axis=[0]) /* ty=Tensor[(1, 240), float32] */;
  %279 = squeeze(%2, axis=[0]) /* ty=Tensor[(1, 240), float32] */;
  %280 = squeeze(%3, axis=[0]) /* ty=Tensor[(1, 240), float32] */;
  %281 = squeeze(%4, axis=[0]) /* ty=Tensor[(1, 240), float32] */;
  %282 = squeeze(%5, axis=[0]) /* ty=Tensor[(1, 240), float32] */;
  %283 = squeeze(%6, axis=[0]) /* ty=Tensor[(1, 240), float32] */;
  %284 = squeeze(%7, axis=[0]) /* ty=Tensor[(1, 240), float32] */;
  %285 = squeeze(%8, axis=[0]) /* ty=Tensor[(1, 240), float32] */;
  %286 = squeeze(%9, axis=[0]) /* ty=Tensor[(1, 240), float32] */;
  %287 = squeeze(%10, axis=[0]) /* ty=Tensor[(1, 240), float32] */;
  %288 = squeeze(%11, axis=[0]) /* ty=Tensor[(1, 240), float32] */;
  %289 = squeeze(%12, axis=[0]) /* ty=Tensor[(1, 240), float32] */;
  %290 = squeeze(%13, axis=[0]) /* ty=Tensor[(1, 240), float32] */;
  %291 = squeeze(%14, axis=[0]) /* ty=Tensor[(1, 240), float32] */;
  %292 = squeeze(%15, axis=[0]) /* ty=Tensor[(1, 240), float32] */;
  %293 = squeeze(%16, axis=[0]) /* ty=Tensor[(1, 240), float32] */;
  %294 = squeeze(%17, axis=[0]) /* ty=Tensor[(1, 240), float32] */;
  %295 = squeeze(%18, axis=[0]) /* ty=Tensor[(1, 240), float32] */;
  %296 = squeeze(%19, axis=[0]) /* ty=Tensor[(1, 240), float32] */;
  %297 = squeeze(%20, axis=[0]) /* ty=Tensor[(1, 240), float32] */;
  %298 = squeeze(%21, axis=[0]) /* ty=Tensor[(1, 240), float32] */;
  %299 = squeeze(%22, axis=[0]) /* ty=Tensor[(1, 240), float32] */;
  %300 = squeeze(%23, axis=[0]) /* ty=Tensor[(1, 240), float32] */;
  %301 = squeeze(%24, axis=[0]) /* ty=Tensor[(1, 240), float32] */;
  %302 = squeeze(%25, axis=[0]) /* ty=Tensor[(1, 240), float32] */;
  %303 = squeeze(%26, axis=[0]) /* ty=Tensor[(1, 240), float32] */;
  %304 = squeeze(%27, axis=[0]) /* ty=Tensor[(1, 240), float32] */;
  %305 = squeeze(%28, axis=[0]) /* ty=Tensor[(1, 240), float32] */;
  %306 = squeeze(%29, axis=[0]) /* ty=Tensor[(1, 240), float32] */;
  %307 = squeeze(%30, axis=[0]) /* ty=Tensor[(1, 240), float32] */;
  %308 = squeeze(%31, axis=[0]) /* ty=Tensor[(1, 240), float32] */;
  %309 = squeeze(%32, axis=[0]) /* ty=Tensor[(1, 240), float32] */;
  %310 = squeeze(%33, axis=[0]) /* ty=Tensor[(1, 240), float32] */;
  %311 = squeeze(%34, axis=[0]) /* ty=Tensor[(1, 240), float32] */;
  %312 = squeeze(%35, axis=[0]) /* ty=Tensor[(1, 240), float32] */;
  %313 = squeeze(%36, axis=[0]) /* ty=Tensor[(1, 240), float32] */;
  %314 = squeeze(%37, axis=[0]) /* ty=Tensor[(1, 240), float32] */;
  %315 = squeeze(%38, axis=[0]) /* ty=Tensor[(1, 240), float32] */;
  %316 = squeeze(%39, axis=[0]) /* ty=Tensor[(1, 240), float32] */;
  %317 = squeeze(%40, axis=[0]) /* ty=Tensor[(1, 240), float32] */;
  %318 = squeeze(%41, axis=[0]) /* ty=Tensor[(1, 240), float32] */;
  %319 = squeeze(%42, axis=[0]) /* ty=Tensor[(1, 240), float32] */;
  %320 = squeeze(%43, axis=[0]) /* ty=Tensor[(1, 240), float32] */;
  %321 = squeeze(%44, axis=[0]) /* ty=Tensor[(1, 240), float32] */;
  %322 = squeeze(%45, axis=[0]) /* ty=Tensor[(1, 240), float32] */;
  %323 = squeeze(%46, axis=[0]) /* ty=Tensor[(1, 240), float32] */;
  %324 = squeeze(%47, axis=[0]) /* ty=Tensor[(1, 240), float32] */;
  %325 = squeeze(%48, axis=[0]) /* ty=Tensor[(1, 240), float32] */;
  %326 = squeeze(%49, axis=[0]) /* ty=Tensor[(1, 240), float32] */;
  %327 = squeeze(%50, axis=[0]) /* ty=Tensor[(1, 240), float32] */;
  %328 = squeeze(%51, axis=[0]) /* ty=Tensor[(1, 240), float32] */;
  %329 = squeeze(%52, axis=[0]) /* ty=Tensor[(1, 240), float32] */;
  %330 = squeeze(%53, axis=[0]) /* ty=Tensor[(1, 240), float32] */;
  %331 = squeeze(%54, axis=[0]) /* ty=Tensor[(1, 240), float32] */;
  %332 = squeeze(%55, axis=[0]) /* ty=Tensor[(1, 240), float32] */;
  %333 = squeeze(%56, axis=[0]) /* ty=Tensor[(1, 240), float32] */;
  %334 = squeeze(%57, axis=[0]) /* ty=Tensor[(1, 240), float32] */;
  %335 = squeeze(%58, axis=[0]) /* ty=Tensor[(1, 240), float32] */;
  %336 = squeeze(%59, axis=[0]) /* ty=Tensor[(1, 240), float32] */;
  %337 = squeeze(%60, axis=[0]) /* ty=Tensor[(1, 240), float32] */;
  %338 = squeeze(%61, axis=[0]) /* ty=Tensor[(1, 240), float32] */;
  %339 = squeeze(%62, axis=[0]) /* ty=Tensor[(1, 240), float32] */;
  %340 = squeeze(%63, axis=[0]) /* ty=Tensor[(1, 240), float32] */;
  %341 = squeeze(%64, axis=[0]) /* ty=Tensor[(1, 240), float32] */;
  %342 = squeeze(%65, axis=[0]) /* ty=Tensor[(1, 240), float32] */;
  %343 = squeeze(%66, axis=[0]) /* ty=Tensor[(1, 240), float32] */;
  %344 = squeeze(%67, axis=[0]) /* ty=Tensor[(1, 240), float32] */;
  %345 = squeeze(%68, axis=[0]) /* ty=Tensor[(1, 240), float32] */;
  %346 = squeeze(%69, axis=[0]) /* ty=Tensor[(1, 240), float32] */;
  %347 = squeeze(%70, axis=[0]) /* ty=Tensor[(1, 240), float32] */;
  %348 = squeeze(%71, axis=[0]) /* ty=Tensor[(1, 240), float32] */;
  %349 = squeeze(%72, axis=[0]) /* ty=Tensor[(1, 240), float32] */;
  %350 = squeeze(%73, axis=[0]) /* ty=Tensor[(1, 240), float32] */;
  %351 = squeeze(%74, axis=[0]) /* ty=Tensor[(1, 240), float32] */;
  %352 = squeeze(%75, axis=[0]) /* ty=Tensor[(1, 240), float32] */;
  %353 = squeeze(%76, axis=[0]) /* ty=Tensor[(1, 240), float32] */;
  %354 = squeeze(%77, axis=[0]) /* ty=Tensor[(1, 240), float32] */;
  %355 = squeeze(%78, axis=[0]) /* ty=Tensor[(1, 240), float32] */;
  %356 = squeeze(%79, axis=[0]) /* ty=Tensor[(1, 240), float32] */;
  %357 = squeeze(%80, axis=[0]) /* ty=Tensor[(1, 240), float32] */;
  %358 = squeeze(%81, axis=[0]) /* ty=Tensor[(1, 240), float32] */;
  %359 = squeeze(%82, axis=[0]) /* ty=Tensor[(1, 240), float32] */;
  %360 = squeeze(%83, axis=[0]) /* ty=Tensor[(1, 240), float32] */;
  %361 = squeeze(%84, axis=[0]) /* ty=Tensor[(1, 240), float32] */;
  %362 = squeeze(%85, axis=[0]) /* ty=Tensor[(1, 240), float32] */;
  %363 = squeeze(%86, axis=[0]) /* ty=Tensor[(1, 240), float32] */;
  %364 = squeeze(%87, axis=[0]) /* ty=Tensor[(1, 240), float32] */;
  %365 = squeeze(%88, axis=[0]) /* ty=Tensor[(1, 240), float32] */;
  %366 = squeeze(%89, axis=[0]) /* ty=Tensor[(1, 240), float32] */;
  %367 = squeeze(%90, axis=[0]) /* ty=Tensor[(1, 240), float32] */;
  %368 = squeeze(%91, axis=[0]) /* ty=Tensor[(1, 240), float32] */;
  %369 = squeeze(%92, axis=[0]) /* ty=Tensor[(1, 240), float32] */;
  %370 = squeeze(%93, axis=[0]) /* ty=Tensor[(1, 240), float32] */;
  %371 = squeeze(%94, axis=[0]) /* ty=Tensor[(1, 240), float32] */;
  %372 = squeeze(%95, axis=[0]) /* ty=Tensor[(1, 240), float32] */;
  %373 = squeeze(%96, axis=[0]) /* ty=Tensor[(1, 240), float32] */;
  %374 = squeeze(%97, axis=[0]) /* ty=Tensor[(1, 240), float32] */;
  %375 = squeeze(%98, axis=[0]) /* ty=Tensor[(1, 240), float32] */;
  %376 = squeeze(%99, axis=[0]) /* ty=Tensor[(1, 240), float32] */;
  %377 = squeeze(%100, axis=[0]) /* ty=Tensor[(1, 240), float32] */;
  %378 = squeeze(%101, axis=[0]) /* ty=Tensor[(1, 240), float32] */;
  %379 = squeeze(%102, axis=[0]) /* ty=Tensor[(1, 240), float32] */;
  %380 = squeeze(%103, axis=[0]) /* ty=Tensor[(1, 240), float32] */;
  %381 = squeeze(%104, axis=[0]) /* ty=Tensor[(1, 240), float32] */;
  %382 = squeeze(%105, axis=[0]) /* ty=Tensor[(1, 240), float32] */;
  %383 = squeeze(%106, axis=[0]) /* ty=Tensor[(1, 240), float32] */;
  %384 = squeeze(%107, axis=[0]) /* ty=Tensor[(1, 240), float32] */;
  %385 = squeeze(%108, axis=[0]) /* ty=Tensor[(1, 240), float32] */;
  %386 = squeeze(%109, axis=[0]) /* ty=Tensor[(1, 240), float32] */;
  %387 = squeeze(%110, axis=[0]) /* ty=Tensor[(1, 240), float32] */;
  %388 = squeeze(%111, axis=[0]) /* ty=Tensor[(1, 240), float32] */;
  %389 = squeeze(%112, axis=[0]) /* ty=Tensor[(1, 240), float32] */;
  %390 = squeeze(%113, axis=[0]) /* ty=Tensor[(1, 240), float32] */;
  %391 = squeeze(%114, axis=[0]) /* ty=Tensor[(1, 240), float32] */;
  %392 = squeeze(%115, axis=[0]) /* ty=Tensor[(1, 240), float32] */;
  %393 = squeeze(%116, axis=[0]) /* ty=Tensor[(1, 240), float32] */;
  %394 = squeeze(%117, axis=[0]) /* ty=Tensor[(1, 240), float32] */;
  %395 = squeeze(%118, axis=[0]) /* ty=Tensor[(1, 240), float32] */;
  %396 = squeeze(%119, axis=[0]) /* ty=Tensor[(1, 240), float32] */;
  %397 = squeeze(%120, axis=[0]) /* ty=Tensor[(1, 240), float32] */;
  %398 = squeeze(%121, axis=[0]) /* ty=Tensor[(1, 240), float32] */;
  %399 = squeeze(%122, axis=[0]) /* ty=Tensor[(1, 240), float32] */;
  %400 = squeeze(%123, axis=[0]) /* ty=Tensor[(1, 240), float32] */;
  %401 = squeeze(%124, axis=[0]) /* ty=Tensor[(1, 240), float32] */;
  %402 = squeeze(%125, axis=[0]) /* ty=Tensor[(1, 240), float32] */;
  %403 = squeeze(%126, axis=[0]) /* ty=Tensor[(1, 240), float32] */;
  %404 = squeeze(%127, axis=[0]) /* ty=Tensor[(1, 240), float32] */;
  %405 = squeeze(%128, axis=[0]) /* ty=Tensor[(1, 240), float32] */;
  %406 = squeeze(%129, axis=[0]) /* ty=Tensor[(1, 240), float32] */;
  %407 = squeeze(%130, axis=[0]) /* ty=Tensor[(1, 240), float32] */;
  %408 = squeeze(%131, axis=[0]) /* ty=Tensor[(1, 240), float32] */;
  %409 = squeeze(%132, axis=[0]) /* ty=Tensor[(1, 240), float32] */;
  %410 = squeeze(%133, axis=[0]) /* ty=Tensor[(1, 240), float32] */;
  %411 = squeeze(%134, axis=[0]) /* ty=Tensor[(1, 240), float32] */;
  %412 = squeeze(%135, axis=[0]) /* ty=Tensor[(1, 240), float32] */;
  %413 = squeeze(%136, axis=[0]) /* ty=Tensor[(1, 240), float32] */;
  %414 = squeeze(%137, axis=[0]) /* ty=Tensor[(1, 240), float32] */;
  %415 = squeeze(%138, axis=[0]) /* ty=Tensor[(1, 240), float32] */;
  %416 = squeeze(%139, axis=[0]) /* ty=Tensor[(1, 240), float32] */;
  %417 = squeeze(%140, axis=[0]) /* ty=Tensor[(1, 240), float32] */;
  %418 = squeeze(%141, axis=[0]) /* ty=Tensor[(1, 240), float32] */;
  %419 = squeeze(%142, axis=[0]) /* ty=Tensor[(1, 240), float32] */;
  %420 = squeeze(%143, axis=[0]) /* ty=Tensor[(1, 240), float32] */;
  %421 = squeeze(%144, axis=[0]) /* ty=Tensor[(1, 240), float32] */;
  %422 = squeeze(%145, axis=[0]) /* ty=Tensor[(1, 240), float32] */;
  %423 = squeeze(%146, axis=[0]) /* ty=Tensor[(1, 240), float32] */;
  %424 = squeeze(%147, axis=[0]) /* ty=Tensor[(1, 240), float32] */;
  %425 = squeeze(%148, axis=[0]) /* ty=Tensor[(1, 240), float32] */;
  %426 = squeeze(%149, axis=[0]) /* ty=Tensor[(1, 240), float32] */;
  %427 = squeeze(%150, axis=[0]) /* ty=Tensor[(1, 240), float32] */;
  %428 = squeeze(%151, axis=[0]) /* ty=Tensor[(1, 240), float32] */;
  %429 = squeeze(%152, axis=[0]) /* ty=Tensor[(1, 240), float32] */;
  %430 = squeeze(%153, axis=[0]) /* ty=Tensor[(1, 240), float32] */;
  %431 = squeeze(%154, axis=[0]) /* ty=Tensor[(1, 240), float32] */;
  %432 = squeeze(%155, axis=[0]) /* ty=Tensor[(1, 240), float32] */;
  %433 = squeeze(%156, axis=[0]) /* ty=Tensor[(1, 240), float32] */;
  %434 = squeeze(%157, axis=[0]) /* ty=Tensor[(1, 240), float32] */;
  %435 = squeeze(%158, axis=[0]) /* ty=Tensor[(1, 240), float32] */;
  %436 = squeeze(%159, axis=[0]) /* ty=Tensor[(1, 240), float32] */;
  %437 = squeeze(%160, axis=[0]) /* ty=Tensor[(1, 240), float32] */;
  %438 = squeeze(%161, axis=[0]) /* ty=Tensor[(1, 240), float32] */;
  %439 = squeeze(%162, axis=[0]) /* ty=Tensor[(1, 240), float32] */;
  %440 = squeeze(%163, axis=[0]) /* ty=Tensor[(1, 240), float32] */;
  %441 = squeeze(%164, axis=[0]) /* ty=Tensor[(1, 240), float32] */;
  %442 = squeeze(%165, axis=[0]) /* ty=Tensor[(1, 240), float32] */;
  %443 = squeeze(%166, axis=[0]) /* ty=Tensor[(1, 240), float32] */;
  %444 = squeeze(%167, axis=[0]) /* ty=Tensor[(1, 240), float32] */;
  %445 = squeeze(%168, axis=[0]) /* ty=Tensor[(1, 240), float32] */;
  %446 = squeeze(%169, axis=[0]) /* ty=Tensor[(1, 240), float32] */;
  %447 = squeeze(%170, axis=[0]) /* ty=Tensor[(1, 240), float32] */;
  %448 = squeeze(%171, axis=[0]) /* ty=Tensor[(1, 240), float32] */;
  %449 = squeeze(%172, axis=[0]) /* ty=Tensor[(1, 240), float32] */;
  %450 = squeeze(%173, axis=[0]) /* ty=Tensor[(1, 240), float32] */;
  %451 = squeeze(%174, axis=[0]) /* ty=Tensor[(1, 240), float32] */;
  %452 = squeeze(%175, axis=[0]) /* ty=Tensor[(1, 240), float32] */;
  %453 = squeeze(%176, axis=[0]) /* ty=Tensor[(1, 240), float32] */;
  %454 = squeeze(%177, axis=[0]) /* ty=Tensor[(1, 240), float32] */;
  %455 = squeeze(%178, axis=[0]) /* ty=Tensor[(1, 240), float32] */;
  %456 = squeeze(%179, axis=[0]) /* ty=Tensor[(1, 240), float32] */;
  %457 = squeeze(%180, axis=[0]) /* ty=Tensor[(1, 240), float32] */;
  %458 = squeeze(%181, axis=[0]) /* ty=Tensor[(1, 240), float32] */;
  %459 = squeeze(%182, axis=[0]) /* ty=Tensor[(1, 240), float32] */;
  %460 = squeeze(%183, axis=[0]) /* ty=Tensor[(1, 240), float32] */;
  %461 = squeeze(%184, axis=[0]) /* ty=Tensor[(1, 240), float32] */;
  %462 = squeeze(%185, axis=[0]) /* ty=Tensor[(1, 240), float32] */;
  %463 = squeeze(%186, axis=[0]) /* ty=Tensor[(1, 240), float32] */;
  %464 = squeeze(%187, axis=[0]) /* ty=Tensor[(1, 240), float32] */;
  %465 = squeeze(%188, axis=[0]) /* ty=Tensor[(1, 240), float32] */;
  %466 = squeeze(%189, axis=[0]) /* ty=Tensor[(1, 240), float32] */;
  %467 = squeeze(%190, axis=[0]) /* ty=Tensor[(1, 240), float32] */;
  %468 = squeeze(%191, axis=[0]) /* ty=Tensor[(1, 240), float32] */;
  %469 = squeeze(%192, axis=[0]) /* ty=Tensor[(1, 240), float32] */;
  %470 = squeeze(%193, axis=[0]) /* ty=Tensor[(1, 240), float32] */;
  %471 = squeeze(%194, axis=[0]) /* ty=Tensor[(1, 240), float32] */;
  %472 = squeeze(%195, axis=[0]) /* ty=Tensor[(1, 240), float32] */;
  %473 = squeeze(%196, axis=[0]) /* ty=Tensor[(1, 240), float32] */;
  %474 = squeeze(%197, axis=[0]) /* ty=Tensor[(1, 240), float32] */;
  %475 = squeeze(%198, axis=[0]) /* ty=Tensor[(1, 240), float32] */;
  %476 = squeeze(%199, axis=[0]) /* ty=Tensor[(1, 240), float32] */;
  %477 = squeeze(%200, axis=[0]) /* ty=Tensor[(1, 240), float32] */;
  %478 = squeeze(%201, axis=[0]) /* ty=Tensor[(1, 240), float32] */;
  %479 = squeeze(%202, axis=[0]) /* ty=Tensor[(1, 240), float32] */;
  %480 = squeeze(%203, axis=[0]) /* ty=Tensor[(1, 240), float32] */;
  %481 = squeeze(%204, axis=[0]) /* ty=Tensor[(1, 240), float32] */;
  %482 = squeeze(%205, axis=[0]) /* ty=Tensor[(1, 240), float32] */;
  %483 = squeeze(%206, axis=[0]) /* ty=Tensor[(1, 240), float32] */;
  %484 = squeeze(%207, axis=[0]) /* ty=Tensor[(1, 240), float32] */;
  %485 = squeeze(%208, axis=[0]) /* ty=Tensor[(1, 240), float32] */;
  %486 = squeeze(%209, axis=[0]) /* ty=Tensor[(1, 240), float32] */;
  %487 = squeeze(%210, axis=[0]) /* ty=Tensor[(1, 240), float32] */;
  %488 = squeeze(%211, axis=[0]) /* ty=Tensor[(1, 240), float32] */;
  %489 = squeeze(%212, axis=[0]) /* ty=Tensor[(1, 240), float32] */;
  %490 = squeeze(%213, axis=[0]) /* ty=Tensor[(1, 240), float32] */;
  %491 = squeeze(%214, axis=[0]) /* ty=Tensor[(1, 240), float32] */;
  %492 = squeeze(%215, axis=[0]) /* ty=Tensor[(1, 240), float32] */;
  %493 = squeeze(%216, axis=[0]) /* ty=Tensor[(1, 240), float32] */;
  %494 = squeeze(%217, axis=[0]) /* ty=Tensor[(1, 240), float32] */;
  %495 = squeeze(%218, axis=[0]) /* ty=Tensor[(1, 240), float32] */;
  %496 = squeeze(%219, axis=[0]) /* ty=Tensor[(1, 240), float32] */;
  %497 = squeeze(%220, axis=[0]) /* ty=Tensor[(1, 240), float32] */;
  %498 = squeeze(%221, axis=[0]) /* ty=Tensor[(1, 240), float32] */;
  %499 = squeeze(%222, axis=[0]) /* ty=Tensor[(1, 240), float32] */;
  %500 = squeeze(%223, axis=[0]) /* ty=Tensor[(1, 240), float32] */;
  %501 = squeeze(%224, axis=[0]) /* ty=Tensor[(1, 240), float32] */;
  %502 = squeeze(%225, axis=[0]) /* ty=Tensor[(1, 240), float32] */;
  %503 = squeeze(%226, axis=[0]) /* ty=Tensor[(1, 240), float32] */;
  %504 = squeeze(%227, axis=[0]) /* ty=Tensor[(1, 240), float32] */;
  %505 = squeeze(%228, axis=[0]) /* ty=Tensor[(1, 240), float32] */;
  %506 = squeeze(%229, axis=[0]) /* ty=Tensor[(1, 240), float32] */;
  %507 = squeeze(%230, axis=[0]) /* ty=Tensor[(1, 240), float32] */;
  %508 = squeeze(%231, axis=[0]) /* ty=Tensor[(1, 240), float32] */;
  %509 = squeeze(%232, axis=[0]) /* ty=Tensor[(1, 240), float32] */;
  %510 = squeeze(%233, axis=[0]) /* ty=Tensor[(1, 240), float32] */;
  %511 = squeeze(%234, axis=[0]) /* ty=Tensor[(1, 240), float32] */;
  %512 = squeeze(%235, axis=[0]) /* ty=Tensor[(1, 240), float32] */;
  %513 = squeeze(%236, axis=[0]) /* ty=Tensor[(1, 240), float32] */;
  %514 = squeeze(%237, axis=[0]) /* ty=Tensor[(1, 240), float32] */;
  %515 = squeeze(%238, axis=[0]) /* ty=Tensor[(1, 240), float32] */;
  %516 = squeeze(%239, axis=[0]) /* ty=Tensor[(1, 240), float32] */;
  %517 = squeeze(%240, axis=[0]) /* ty=Tensor[(1, 240), float32] */;
  %518 = squeeze(%241, axis=[0]) /* ty=Tensor[(1, 240), float32] */;
  %519 = squeeze(%242, axis=[0]) /* ty=Tensor[(1, 240), float32] */;
  %520 = squeeze(%243, axis=[0]) /* ty=Tensor[(1, 240), float32] */;
  %521 = squeeze(%244, axis=[0]) /* ty=Tensor[(1, 240), float32] */;
  %522 = squeeze(%245, axis=[0]) /* ty=Tensor[(1, 240), float32] */;
  %523 = squeeze(%246, axis=[0]) /* ty=Tensor[(1, 240), float32] */;
  %524 = squeeze(%247, axis=[0]) /* ty=Tensor[(1, 240), float32] */;
  %525 = squeeze(%248, axis=[0]) /* ty=Tensor[(1, 240), float32] */;
  %526 = squeeze(%249, axis=[0]) /* ty=Tensor[(1, 240), float32] */;
  %527 = squeeze(%250, axis=[0]) /* ty=Tensor[(1, 240), float32] */;
  %528 = squeeze(%251, axis=[0]) /* ty=Tensor[(1, 240), float32] */;
  %529 = squeeze(%252, axis=[0]) /* ty=Tensor[(1, 240), float32] */;
  %530 = squeeze(%253, axis=[0]) /* ty=Tensor[(1, 240), float32] */;
  %531 = squeeze(%254, axis=[0]) /* ty=Tensor[(1, 240), float32] */;
  %532 = squeeze(%255, axis=[0]) /* ty=Tensor[(1, 240), float32] */;
  %533 = squeeze(%256, axis=[0]) /* ty=Tensor[(1, 240), float32] */;
  %534 = squeeze(%257, axis=[0]) /* ty=Tensor[(1, 240), float32] */;
  %535 = squeeze(%258, axis=[0]) /* ty=Tensor[(1, 240), float32] */;
  %536 = squeeze(%259, axis=[0]) /* ty=Tensor[(1, 240), float32] */;
  %537 = squeeze(%260, axis=[0]) /* ty=Tensor[(1, 240), float32] */;
  %538 = squeeze(%261, axis=[0]) /* ty=Tensor[(1, 240), float32] */;
  %539 = squeeze(%262, axis=[0]) /* ty=Tensor[(1, 240), float32] */;
  %540 = squeeze(%263, axis=[0]) /* ty=Tensor[(1, 240), float32] */;
  %541 = squeeze(%264, axis=[0]) /* ty=Tensor[(1, 240), float32] */;
  %542 = squeeze(%265, axis=[0]) /* ty=Tensor[(1, 240), float32] */;
  %543 = squeeze(%266, axis=[0]) /* ty=Tensor[(1, 240), float32] */;
  %544 = squeeze(%267, axis=[0]) /* ty=Tensor[(1, 240), float32] */;
  %545 = squeeze(%268, axis=[0]) /* ty=Tensor[(1, 240), float32] */;
  %546 = squeeze(%269, axis=[0]) /* ty=Tensor[(1, 240), float32] */;
  %547 = squeeze(%270, axis=[0]) /* ty=Tensor[(1, 240), float32] */;
  %548 = squeeze(%271, axis=[0]) /* ty=Tensor[(1, 240), float32] */;
  %549 = squeeze(%272, axis=[0]) /* ty=Tensor[(1, 240), float32] */;
  %550 = squeeze(%273, axis=[0]) /* ty=Tensor[(1, 240), float32] */;
  %551 = squeeze(%274, axis=[0]) /* ty=Tensor[(1, 240), float32] */;
  %552 = squeeze(%275, axis=[0]) /* ty=Tensor[(1, 240), float32] */;
  %553 = squeeze(%276, axis=[0]) /* ty=Tensor[(1, 240), float32] */;
  %554 = squeeze(%277, axis=[0]) /* ty=Tensor[(1, 240), float32] */;
  %555 = (%278, %279, %280, %281, %282, %283, %284, %285, %286, %287, %288, %289, %290, %291, %292, %293, %294, %295, %296, %297, %298, %299, %300, %301, %302, %303, %304, %305, %306, %307, %308, %309, %310, %311, %312, %313, %314, %315, %316, %317, %318, %319, %320, %321, %322, %323, %324, %325, %326, %327, %328, %329, %330, %331, %332, %333, %334, %335, %336, %337, %338, %339, %340, %341, %342, %343, %344, %345, %346, %347, %348, %349, %350, %351, %352, %353, %354, %355, %356, %357, %358, %359, %360, %361, %362, %363, %364, %365, %366, %367, %368, %369, %370, %371, %372, %373, %374, %375, %376, %377, %378, %379, %380, %381, %382, %383, %384, %385, %386, %387, %388, %389, %390, %391, %392, %393, %394, %395, %396, %397, %398, %399, %400, %401, %402, %403, %404, %405, %406, %407, %408, %409, %410, %411, %412, %413, %414, %415, %416, %417, %418, %419, %420, %421, %422, %423, %424, %425, %426, %427, %428, %429, %430, %431, %432, %433, %434, %435, %436, %437, %438, %439, %440, %441, %442, %443, %444, %445, %446, %447, %448, %449, %450, %451, %452, %453, %454, %455, %456, %457, %458, %459, %460, %461, %462, %463, %464, %465, %466, %467, %468, %469, %470, %471, %472, %473, %474, %475, %476, %477, %478, %479, %480, %481, %482, %483, %484, %485, %486, %487, %488, %489, %490, %491, %492, %493, %494, %495, %496, %497, %498, %499, %500, %501, %502, %503, %504, %505, %506, %507, %508, %509, %510, %511, %512, %513, %514, %515, %516, %517, %518, %519, %520, %521, %522, %523, %524, %525, %526, %527, %528, %529, %530, %531, %532, %533, %534, %535, %536, %537, %538, %539, %540, %541, %542, %543, %544, %545, %546, %547, %548, %549, %550, %551, %552, %553, %554) /* ty=(Tensor[(1, 240), float32], Tensor[(1, 240), float32], Tensor[(1, 240), float32], Tensor[(1, 240), float32], Tensor[(1, 240), float32], Tensor[(1, 240), float32], Tensor[(1, 240), float32], Tensor[(1, 240), float32], Tensor[(1, 240), float32], Tensor[(1, 240), float32], Tensor[(1, 240), float32], Tensor[(1, 240), float32], Tensor[(1, 240), float32], Tensor[(1, 240), float32], Tensor[(1, 240), float32], Tensor[(1, 240), float32], Tensor[(1, 240), float32], Tensor[(1, 240), float32], Tensor[(1, 240), float32], Tensor[(1, 240), float32], Tensor[(1, 240), float32], Tensor[(1, 240), float32], Tensor[(1, 240), float32], Tensor[(1, 240), float32], Tensor[(1, 240), float32], Tensor[(1, 240), float32], Tensor[(1, 240), float32], Tensor[(1, 240), float32], Tensor[(1, 240), float32], Tensor[(1, 240), float32], Tensor[(1, 240), float32], Tensor[(1, 240), float32], Tensor[(1, 240), float32], Tensor[(1, 240), float32], Tensor[(1, 240), float32], Tensor[(1, 240), float32], Tensor[(1, 240), float32], Tensor[(1, 240), float32], Tensor[(1, 240), float32], Tensor[(1, 240), float32], Tensor[(1, 240), float32], Tensor[(1, 240), float32], Tensor[(1, 240), float32], Tensor[(1, 240), float32], Tensor[(1, 240), float32], Tensor[(1, 240), float32], Tensor[(1, 240), float32], Tensor[(1, 240), float32], Tensor[(1, 240), float32], Tensor[(1, 240), float32], Tensor[(1, 240), float32], Tensor[(1, 240), float32], Tensor[(1, 240), float32], Tensor[(1, 240), float32], Tensor[(1, 240), float32], Tensor[(1, 240), float32], Tensor[(1, 240), float32], Tensor[(1, 240), float32], Tensor[(1, 240), float32], Tensor[(1, 240), float32], Tensor[(1, 240), float32], Tensor[(1, 240), float32], Tensor[(1, 240), float32], Tensor[(1, 240), float32], Tensor[(1, 240), float32], Tensor[(1, 240), float32], Tensor[(1, 240), float32], Tensor[(1, 240), float32], Tensor[(1, 240), float32], Tensor[(1, 240), float32], Tensor[(1, 240), float32], Tensor[(1, 240), float32], Tensor[(1, 240), float32], Tensor[(1, 240), float32], Tensor[(1, 240), float32], Tensor[(1, 240), float32], Tensor[(1, 240), float32], Tensor[(1, 240), float32], Tensor[(1, 240), float32], Tensor[(1, 240), float32], Tensor[(1, 240), float32], Tensor[(1, 240), float32], Tensor[(1, 240), float32], Tensor[(1, 240), float32], Tensor[(1, 240), float32], Tensor[(1, 240), float32], Tensor[(1, 240), float32], Tensor[(1, 240), float32], Tensor[(1, 240), float32], Tensor[(1, 240), float32], Tensor[(1, 240), float32], Tensor[(1, 240), float32], Tensor[(1, 240), float32], Tensor[(1, 240), float32], Tensor[(1, 240), float32], Tensor[(1, 240), float32], Tensor[(1, 240), float32], Tensor[(1, 240), float32], Tensor[(1, 240), float32], Tensor[(1, 240), float32], Tensor[(1, 240), float32], Tensor[(1, 240), float32], Tensor[(1, 240), float32], Tensor[(1, 240), float32], Tensor[(1, 240), float32], Tensor[(1, 240), float32], Tensor[(1, 240), float32], Tensor[(1, 240), float32], Tensor[(1, 240), float32], Tensor[(1, 240), float32], Tensor[(1, 240), float32], Tensor[(1, 240), float32], Tensor[(1, 240), float32], Tensor[(1, 240), float32], Tensor[(1, 240), float32], Tensor[(1, 240), float32], Tensor[(1, 240), float32], Tensor[(1, 240), float32], Tensor[(1, 240), float32], Tensor[(1, 240), float32], Tensor[(1, 240), float32], Tensor[(1, 240), float32], Tensor[(1, 240), float32], Tensor[(1, 240), float32], Tensor[(1, 240), float32], Tensor[(1, 240), float32], Tensor[(1, 240), float32], Tensor[(1, 240), float32], Tensor[(1, 240), float32], Tensor[(1, 240), float32], Tensor[(1, 240), float32], Tensor[(1, 240), float32], Tensor[(1, 240), float32], Tensor[(1, 240), float32], Tensor[(1, 240), float32], Tensor[(1, 240), float32], Tensor[(1, 240), float32], Tensor[(1, 240), float32], Tensor[(1, 240), float32], Tensor[(1, 240), float32], Tensor[(1, 240), float32], Tensor[(1, 240), float32], Tensor[(1, 240), float32], Tensor[(1, 240), float32], Tensor[(1, 240), float32], Tensor[(1, 240), float32], Tensor[(1, 240), float32], Tensor[(1, 240), float32], Tensor[(1, 240), float32], Tensor[(1, 240), float32], Tensor[(1, 240), float32], Tensor[(1, 240), float32], Tensor[(1, 240), float32], Tensor[(1, 240), float32], Tensor[(1, 240), float32], Tensor[(1, 240), float32], Tensor[(1, 240), float32], Tensor[(1, 240), float32], Tensor[(1, 240), float32], Tensor[(1, 240), float32], Tensor[(1, 240), float32], Tensor[(1, 240), float32], Tensor[(1, 240), float32], Tensor[(1, 240), float32], Tensor[(1, 240), float32], Tensor[(1, 240), float32], Tensor[(1, 240), float32], Tensor[(1, 240), float32], Tensor[(1, 240), float32], Tensor[(1, 240), float32], Tensor[(1, 240), float32], Tensor[(1, 240), float32], Tensor[(1, 240), float32], Tensor[(1, 240), float32], Tensor[(1, 240), float32], Tensor[(1, 240), float32], Tensor[(1, 240), float32], Tensor[(1, 240), float32], Tensor[(1, 240), float32], Tensor[(1, 240), float32], Tensor[(1, 240), float32], Tensor[(1, 240), float32], Tensor[(1, 240), float32], Tensor[(1, 240), float32], Tensor[(1, 240), float32], Tensor[(1, 240), float32], Tensor[(1, 240), float32], Tensor[(1, 240), float32], Tensor[(1, 240), float32], Tensor[(1, 240), float32], Tensor[(1, 240), float32], Tensor[(1, 240), float32], Tensor[(1, 240), float32], Tensor[(1, 240), float32], Tensor[(1, 240), float32], Tensor[(1, 240), float32], Tensor[(1, 240), float32], Tensor[(1, 240), float32], Tensor[(1, 240), float32], Tensor[(1, 240), float32], Tensor[(1, 240), float32], Tensor[(1, 240), float32], Tensor[(1, 240), float32], Tensor[(1, 240), float32], Tensor[(1, 240), float32], Tensor[(1, 240), float32], Tensor[(1, 240), float32], Tensor[(1, 240), float32], Tensor[(1, 240), float32], Tensor[(1, 240), float32], Tensor[(1, 240), float32], Tensor[(1, 240), float32], Tensor[(1, 240), float32], Tensor[(1, 240), float32], Tensor[(1, 240), float32], Tensor[(1, 240), float32], Tensor[(1, 240), float32], Tensor[(1, 240), float32], Tensor[(1, 240), float32], Tensor[(1, 240), float32], Tensor[(1, 240), float32], Tensor[(1, 240), float32], Tensor[(1, 240), float32], Tensor[(1, 240), float32], Tensor[(1, 240), float32], Tensor[(1, 240), float32], Tensor[(1, 240), float32], Tensor[(1, 240), float32], Tensor[(1, 240), float32], Tensor[(1, 240), float32], Tensor[(1, 240), float32], Tensor[(1, 240), float32], Tensor[(1, 240), float32], Tensor[(1, 240), float32], Tensor[(1, 240), float32], Tensor[(1, 240), float32], Tensor[(1, 240), float32], Tensor[(1, 240), float32], Tensor[(1, 240), float32], Tensor[(1, 240), float32], Tensor[(1, 240), float32], Tensor[(1, 240), float32], Tensor[(1, 240), float32], Tensor[(1, 240), float32], Tensor[(1, 240), float32], Tensor[(1, 240), float32], Tensor[(1, 240), float32], Tensor[(1, 240), float32], Tensor[(1, 240), float32], Tensor[(1, 240), float32], Tensor[(1, 240), float32], Tensor[(1, 240), float32], Tensor[(1, 240), float32], Tensor[(1, 240), float32], Tensor[(1, 240), float32], Tensor[(1, 240), float32], Tensor[(1, 240), float32], Tensor[(1, 240), float32], Tensor[(1, 240), float32], Tensor[(1, 240), float32], Tensor[(1, 240), float32], Tensor[(1, 240), float32], Tensor[(1, 240), float32], Tensor[(1, 240), float32], Tensor[(1, 240), float32], Tensor[(1, 240), float32], Tensor[(1, 240), float32], Tensor[(1, 240), float32], Tensor[(1, 240), float32], Tensor[(1, 240), float32], Tensor[(1, 240), float32], Tensor[(1, 240), float32], Tensor[(1, 240), float32], Tensor[(1, 240), float32], Tensor[(1, 240), float32], Tensor[(1, 240), float32], Tensor[(1, 240), float32]) */;
  %556 = full(0f /* ty=float32 */, shape=[2, 1, 1024], dtype="float32") /* ty=Tensor[(2, 1, 1024), float32] */;
  %557 = split(%556, indices_or_sections=2) /* ty=(Tensor[(1, 1, 1024), float32], Tensor[(1, 1, 1024), float32]) */;
  %558 = %557.0 /* ty=Tensor[(1, 1, 1024), float32] */;
  %559 = %557.1 /* ty=Tensor[(1, 1, 1024), float32] */;
  %560 = squeeze(%558, axis=[0]) /* ty=Tensor[(1, 1024), float32] */;
  %561 = squeeze(%559, axis=[0]) /* ty=Tensor[(1, 1024), float32] */;
  %562 = (%560, %561) /* ty=(Tensor[(1, 1024), float32], Tensor[(1, 1024), float32]) */;
  %563 = %555.0 /* ty=Tensor[(1, 240), float32] */;
  %564 = %562.0 /* ty=Tensor[(1, 1024), float32] */;
  %565 = (%563, %564) /* ty=(Tensor[(1, 240), float32], Tensor[(1, 1024), float32]) */;
  %566 = (%encoder.pre_rnn.lstm.weight_ih_l0, %encoder.pre_rnn.lstm.weight_hh_l0) /* ty=(Tensor[(4096, 240), float32], Tensor[(4096, 1024), float32]) */;
  %567 = concatenate(%565, axis=1) /* ty=Tensor[(1, 1264), float32] */;
  %568 = concatenate(%566, axis=1) /* ty=Tensor[(4096, 1264), float32] */;
  %569 = nn.dense(%567, %568, units=None) /* ty=Tensor[(1, 4096), float32] */;
  %570 = add(%569, %encoder.pre_rnn.lstm.bias_ih_l0) /* ty=Tensor[(1, 4096), float32] */;
  %571 = add(%570, %encoder.pre_rnn.lstm.bias_hh_l0) /* ty=Tensor[(1, 4096), float32] */;
  %572 = split(%571, indices_or_sections=4, axis=-1) /* ty=(Tensor[(1, 1024), float32], Tensor[(1, 1024), float32], Tensor[(1, 1024), float32], Tensor[(1, 1024), float32]) */;
  %573 = %572.3 /* ty=Tensor[(1, 1024), float32] */;
  %574 = %572.1 /* ty=Tensor[(1, 1024), float32] */;
  %575 = split(%556, indices_or_sections=2) /* ty=(Tensor[(1, 1, 1024), float32], Tensor[(1, 1, 1024), float32]) */;
  %576 = %575.0 /* ty=Tensor[(1, 1, 1024), float32] */;
  %577 = %575.1 /* ty=Tensor[(1, 1, 1024), float32] */;
  %578 = squeeze(%576, axis=[0]) /* ty=Tensor[(1, 1024), float32] */;
  %579 = squeeze(%577, axis=[0]) /* ty=Tensor[(1, 1024), float32] */;
  %580 = (%578, %579) /* ty=(Tensor[(1, 1024), float32], Tensor[(1, 1024), float32]) */;
  %581 = sigmoid(%574) /* ty=Tensor[(1, 1024), float32] */;
  %582 = %580.0 /* ty=Tensor[(1, 1024), float32] */;
  %583 = %572.0 /* ty=Tensor[(1, 1024), float32] */;
  %584 = %572.2 /* ty=Tensor[(1, 1024), float32] */;
  %585 = sigmoid(%583) /* ty=Tensor[(1, 1024), float32] */;
  %586 = tanh(%584) /* ty=Tensor[(1, 1024), float32] */;
  %587 = multiply(%581, %582) /* ty=Tensor[(1, 1024), float32] */;
  %588 = multiply(%585, %586) /* ty=Tensor[(1, 1024), float32] */;
  %589 = add(%587, %588) /* ty=Tensor[(1, 1024), float32] */;
  %590 = sigmoid(%573) /* ty=Tensor[(1, 1024), float32] */;
  %591 = tanh(%589) /* ty=Tensor[(1, 1024), float32] */;
  %592 = multiply(%590, %591) /* ty=Tensor[(1, 1024), float32] */;
  %593 = %562.1 /* ty=Tensor[(1, 1024), float32] */;
  %594 = (%592, %593) /* ty=(Tensor[(1, 1024), float32], Tensor[(1, 1024), float32]) */;
  %595 = (%encoder.pre_rnn.lstm.weight_ih_l1, %encoder.pre_rnn.lstm.weight_hh_l1) /* ty=(Tensor[(4096, 1024), float32], Tensor[(4096, 1024), float32]) */;
  %596 = concatenate(%594, axis=1) /* ty=Tensor[(1, 2048), float32] */;
  %597 = concatenate(%595, axis=1) /* ty=Tensor[(4096, 2048), float32] */;
  %598 = nn.dense(%596, %597, units=None) /* ty=Tensor[(1, 4096), float32] */;
  %599 = add(%598, %encoder.pre_rnn.lstm.bias_ih_l1) /* ty=Tensor[(1, 4096), float32] */;
  %600 = add(%599, %encoder.pre_rnn.lstm.bias_hh_l1) /* ty=Tensor[(1, 4096), float32] */;
  %601 = split(%600, indices_or_sections=4, axis=-1) /* ty=(Tensor[(1, 1024), float32], Tensor[(1, 1024), float32], Tensor[(1, 1024), float32], Tensor[(1, 1024), float32]) */;
  %602 = %601.3 /* ty=Tensor[(1, 1024), float32] */;
  %603 = %601.1 /* ty=Tensor[(1, 1024), float32] */;
  %604 = sigmoid(%603) /* ty=Tensor[(1, 1024), float32] */;
  %605 = %580.1 /* ty=Tensor[(1, 1024), float32] */;
  %606 = %601.0 /* ty=Tensor[(1, 1024), float32] */;
  %607 = %601.2 /* ty=Tensor[(1, 1024), float32] */;
  %608 = sigmoid(%606) /* ty=Tensor[(1, 1024), float32] */;
  %609 = tanh(%607) /* ty=Tensor[(1, 1024), float32] */;
  %610 = multiply(%604, %605) /* ty=Tensor[(1, 1024), float32] */;
  %611 = multiply(%608, %609) /* ty=Tensor[(1, 1024), float32] */;
  %612 = add(%610, %611) /* ty=Tensor[(1, 1024), float32] */;
  %613 = sigmoid(%602) /* ty=Tensor[(1, 1024), float32] */;
  %614 = tanh(%612) /* ty=Tensor[(1, 1024), float32] */;
  %615 = %555.1 /* ty=Tensor[(1, 240), float32] */;
  %616 = (%615, %592) /* ty=(Tensor[(1, 240), float32], Tensor[(1, 1024), float32]) */;
  %617 = (%encoder.pre_rnn.lstm.weight_ih_l0, %encoder.pre_rnn.lstm.weight_hh_l0) /* ty=(Tensor[(4096, 240), float32], Tensor[(4096, 1024), float32]) */;
  %618 = concatenate(%616, axis=1) /* ty=Tensor[(1, 1264), float32] */;
  %619 = concatenate(%617, axis=1) /* ty=Tensor[(4096, 1264), float32] */;
  %620 = nn.dense(%618, %619, units=None) /* ty=Tensor[(1, 4096), float32] */;
  %621 = add(%620, %encoder.pre_rnn.lstm.bias_ih_l0) /* ty=Tensor[(1, 4096), float32] */;
  %622 = add(%621, %encoder.pre_rnn.lstm.bias_hh_l0) /* ty=Tensor[(1, 4096), float32] */;
  %623 = split(%622, indices_or_sections=4, axis=-1) /* ty=(Tensor[(1, 1024), float32], Tensor[(1, 1024), float32], Tensor[(1, 1024), float32], Tensor[(1, 1024), float32]) */;
  %624 = %623.3 /* ty=Tensor[(1, 1024), float32] */;
  %625 = %623.1 /* ty=Tensor[(1, 1024), float32] */;
  %626 = sigmoid(%625) /* ty=Tensor[(1, 1024), float32] */;
  %627 = %623.0 /* ty=Tensor[(1, 1024), float32] */;
  %628 = %623.2 /* ty=Tensor[(1, 1024), float32] */;
  %629 = sigmoid(%627) /* ty=Tensor[(1, 1024), float32] */;
  %630 = tanh(%628) /* ty=Tensor[(1, 1024), float32] */;
  %631 = multiply(%626, %589) /* ty=Tensor[(1, 1024), float32] */;
  %632 = multiply(%629, %630) /* ty=Tensor[(1, 1024), float32] */;
  %633 = add(%631, %632) /* ty=Tensor[(1, 1024), float32] */;
  %634 = sigmoid(%624) /* ty=Tensor[(1, 1024), float32] */;
  %635 = tanh(%633) /* ty=Tensor[(1, 1024), float32] */;
  %636 = multiply(%634, %635) /* ty=Tensor[(1, 1024), float32] */;
  %637 = multiply(%613, %614) /* ty=Tensor[(1, 1024), float32] */;
  %638 = (%636, %637) /* ty=(Tensor[(1, 1024), float32], Tensor[(1, 1024), float32]) */;
  %639 = (%encoder.pre_rnn.lstm.weight_ih_l1, %encoder.pre_rnn.lstm.weight_hh_l1) /* ty=(Tensor[(4096, 1024), float32], Tensor[(4096, 1024), float32]) */;
  %640 = concatenate(%638, axis=1) /* ty=Tensor[(1, 2048), float32] */;
  %641 = concatenate(%639, axis=1) /* ty=Tensor[(4096, 2048), float32] */;
  %642 = nn.dense(%640, %641, units=None) /* ty=Tensor[(1, 4096), float32] */;
  %643 = add(%642, %encoder.pre_rnn.lstm.bias_ih_l1) /* ty=Tensor[(1, 4096), float32] */;
  %644 = add(%643, %encoder.pre_rnn.lstm.bias_hh_l1) /* ty=Tensor[(1, 4096), float32] */;
  %645 = split(%644, indices_or_sections=4, axis=-1) /* ty=(Tensor[(1, 1024), float32], Tensor[(1, 1024), float32], Tensor[(1, 1024), float32], Tensor[(1, 1024), float32]) */;
  %646 = %645.3 /* ty=Tensor[(1, 1024), float32] */;
  %647 = %645.1 /* ty=Tensor[(1, 1024), float32] */;
  %648 = sigmoid(%647) /* ty=Tensor[(1, 1024), float32] */;
  %649 = %645.0 /* ty=Tensor[(1, 1024), float32] */;
  %650 = %645.2 /* ty=Tensor[(1, 1024), float32] */;
  %651 = sigmoid(%649) /* ty=Tensor[(1, 1024), float32] */;
  %652 = tanh(%650) /* ty=Tensor[(1, 1024), float32] */;
  %653 = multiply(%648, %612) /* ty=Tensor[(1, 1024), float32] */;
  %654 = multiply(%651, %652) /* ty=Tensor[(1, 1024), float32] */;
  %655 = add(%653, %654) /* ty=Tensor[(1, 1024), float32] */;
  %656 = sigmoid(%646) /* ty=Tensor[(1, 1024), float32] */;
  %657 = tanh(%655) /* ty=Tensor[(1, 1024), float32] */;
  %658 = %555.2 /* ty=Tensor[(1, 240), float32] */;
  %659 = (%658, %636) /* ty=(Tensor[(1, 240), float32], Tensor[(1, 1024), float32]) */;
  %660 = (%encoder.pre_rnn.lstm.weight_ih_l0, %encoder.pre_rnn.lstm.weight_hh_l0) /* ty=(Tensor[(4096, 240), float32], Tensor[(4096, 1024), float32]) */;
  %661 = concatenate(%659, axis=1) /* ty=Tensor[(1, 1264), float32] */;
  %662 = concatenate(%660, axis=1) /* ty=Tensor[(4096, 1264), float32] */;
  %663 = nn.dense(%661, %662, units=None) /* ty=Tensor[(1, 4096), float32] */;
  %664 = add(%663, %encoder.pre_rnn.lstm.bias_ih_l0) /* ty=Tensor[(1, 4096), float32] */;
  %665 = add(%664, %encoder.pre_rnn.lstm.bias_hh_l0) /* ty=Tensor[(1, 4096), float32] */;
  %666 = split(%665, indices_or_sections=4, axis=-1) /* ty=(Tensor[(1, 1024), float32], Tensor[(1, 1024), float32], Tensor[(1, 1024), float32], Tensor[(1, 1024), float32]) */;
  %667 = %666.3 /* ty=Tensor[(1, 1024), float32] */;
  %668 = %666.1 /* ty=Tensor[(1, 1024), float32] */;
  %669 = sigmoid(%668) /* ty=Tensor[(1, 1024), float32] */;
  %670 = %666.0 /* ty=Tensor[(1, 1024), float32] */;
  %671 = %666.2 /* ty=Tensor[(1, 1024), float32] */;
  %672 = sigmoid(%670) /* ty=Tensor[(1, 1024), float32] */;
  %673 = tanh(%671) /* ty=Tensor[(1, 1024), float32] */;
  %674 = multiply(%669, %633) /* ty=Tensor[(1, 1024), float32] */;
  %675 = multiply(%672, %673) /* ty=Tensor[(1, 1024), float32] */;
  %676 = add(%674, %675) /* ty=Tensor[(1, 1024), float32] */;
  %677 = sigmoid(%667) /* ty=Tensor[(1, 1024), float32] */;
  %678 = tanh(%676) /* ty=Tensor[(1, 1024), float32] */;
  %679 = multiply(%677, %678) /* ty=Tensor[(1, 1024), float32] */;
  %680 = multiply(%656, %657) /* ty=Tensor[(1, 1024), float32] */;
  %681 = (%679, %680) /* ty=(Tensor[(1, 1024), float32], Tensor[(1, 1024), float32]) */;
  %682 = (%encoder.pre_rnn.lstm.weight_ih_l1, %encoder.pre_rnn.lstm.weight_hh_l1) /* ty=(Tensor[(4096, 1024), float32], Tensor[(4096, 1024), float32]) */;
  %683 = concatenate(%681, axis=1) /* ty=Tensor[(1, 2048), float32] */;
  %684 = concatenate(%682, axis=1) /* ty=Tensor[(4096, 2048), float32] */;
  %685 = nn.dense(%683, %684, units=None) /* ty=Tensor[(1, 4096), float32] */;
  %686 = add(%685, %encoder.pre_rnn.lstm.bias_ih_l1) /* ty=Tensor[(1, 4096), float32] */;
  %687 = add(%686, %encoder.pre_rnn.lstm.bias_hh_l1) /* ty=Tensor[(1, 4096), float32] */;
  %688 = split(%687, indices_or_sections=4, axis=-1) /* ty=(Tensor[(1, 1024), float32], Tensor[(1, 1024), float32], Tensor[(1, 1024), float32], Tensor[(1, 1024), float32]) */;
  %689 = %688.3 /* ty=Tensor[(1, 1024), float32] */;
  %690 = %688.1 /* ty=Tensor[(1, 1024), float32] */;
  %691 = sigmoid(%690) /* ty=Tensor[(1, 1024), float32] */;
  %692 = %688.0 /* ty=Tensor[(1, 1024), float32] */;
  %693 = %688.2 /* ty=Tensor[(1, 1024), float32] */;
  %694 = sigmoid(%692) /* ty=Tensor[(1, 1024), float32] */;
  %695 = tanh(%693) /* ty=Tensor[(1, 1024), float32] */;
  %696 = multiply(%691, %655) /* ty=Tensor[(1, 1024), float32] */;
  %697 = multiply(%694, %695) /* ty=Tensor[(1, 1024), float32] */;
  %698 = add(%696, %697) /* ty=Tensor[(1, 1024), float32] */;
  %699 = sigmoid(%689) /* ty=Tensor[(1, 1024), float32] */;
  %700 = tanh(%698) /* ty=Tensor[(1, 1024), float32] */;
  %701 = %555.3 /* ty=Tensor[(1, 240), float32] */;
  %702 = (%701, %679) /* ty=(Tensor[(1, 240), float32], Tensor[(1, 1024), float32]) */;
  %703 = (%encoder.pre_rnn.lstm.weight_ih_l0, %encoder.pre_rnn.lstm.weight_hh_l0) /* ty=(Tensor[(4096, 240), float32], Tensor[(4096, 1024), float32]) */;
  %704 = concatenate(%702, axis=1) /* ty=Tensor[(1, 1264), float32] */;
  %705 = concatenate(%703, axis=1) /* ty=Tensor[(4096, 1264), float32] */;
  %706 = nn.dense(%704, %705, units=None) /* ty=Tensor[(1, 4096), float32] */;
  %707 = add(%706, %encoder.pre_rnn.lstm.bias_ih_l0) /* ty=Tensor[(1, 4096), float32] */;
  %708 = add(%707, %encoder.pre_rnn.lstm.bias_hh_l0) /* ty=Tensor[(1, 4096), float32] */;
  %709 = split(%708, indices_or_sections=4, axis=-1) /* ty=(Tensor[(1, 1024), float32], Tensor[(1, 1024), float32], Tensor[(1, 1024), float32], Tensor[(1, 1024), float32]) */;
  %710 = %709.3 /* ty=Tensor[(1, 1024), float32] */;
  %711 = %709.1 /* ty=Tensor[(1, 1024), float32] */;
  %712 = sigmoid(%711) /* ty=Tensor[(1, 1024), float32] */;
  %713 = %709.0 /* ty=Tensor[(1, 1024), float32] */;
  %714 = %709.2 /* ty=Tensor[(1, 1024), float32] */;
  %715 = sigmoid(%713) /* ty=Tensor[(1, 1024), float32] */;
  %716 = tanh(%714) /* ty=Tensor[(1, 1024), float32] */;
  %717 = multiply(%712, %676) /* ty=Tensor[(1, 1024), float32] */;
  %718 = multiply(%715, %716) /* ty=Tensor[(1, 1024), float32] */;
  %719 = add(%717, %718) /* ty=Tensor[(1, 1024), float32] */;
  %720 = sigmoid(%710) /* ty=Tensor[(1, 1024), float32] */;
  %721 = tanh(%719) /* ty=Tensor[(1, 1024), float32] */;
  %722 = multiply(%720, %721) /* ty=Tensor[(1, 1024), float32] */;
  %723 = multiply(%699, %700) /* ty=Tensor[(1, 1024), float32] */;
  %724 = (%722, %723) /* ty=(Tensor[(1, 1024), float32], Tensor[(1, 1024), float32]) */;
  %725 = (%encoder.pre_rnn.lstm.weight_ih_l1, %encoder.pre_rnn.lstm.weight_hh_l1) /* ty=(Tensor[(4096, 1024), float32], Tensor[(4096, 1024), float32]) */;
  %726 = concatenate(%724, axis=1) /* ty=Tensor[(1, 2048), float32] */;
  %727 = concatenate(%725, axis=1) /* ty=Tensor[(4096, 2048), float32] */;
  %728 = nn.dense(%726, %727, units=None) /* ty=Tensor[(1, 4096), float32] */;
  %729 = add(%728, %encoder.pre_rnn.lstm.bias_ih_l1) /* ty=Tensor[(1, 4096), float32] */;
  %730 = add(%729, %encoder.pre_rnn.lstm.bias_hh_l1) /* ty=Tensor[(1, 4096), float32] */;
  %731 = split(%730, indices_or_sections=4, axis=-1) /* ty=(Tensor[(1, 1024), float32], Tensor[(1, 1024), float32], Tensor[(1, 1024), float32], Tensor[(1, 1024), float32]) */;
  %732 = %731.3 /* ty=Tensor[(1, 1024), float32] */;
  %733 = %731.1 /* ty=Tensor[(1, 1024), float32] */;
  %734 = sigmoid(%733) /* ty=Tensor[(1, 1024), float32] */;
  %735 = %731.0 /* ty=Tensor[(1, 1024), float32] */;
  %736 = %731.2 /* ty=Tensor[(1, 1024), float32] */;
  %737 = sigmoid(%735) /* ty=Tensor[(1, 1024), float32] */;
  %738 = tanh(%736) /* ty=Tensor[(1, 1024), float32] */;
  %739 = multiply(%734, %698) /* ty=Tensor[(1, 1024), float32] */;
  %740 = multiply(%737, %738) /* ty=Tensor[(1, 1024), float32] */;
  %741 = add(%739, %740) /* ty=Tensor[(1, 1024), float32] */;
  %742 = sigmoid(%732) /* ty=Tensor[(1, 1024), float32] */;
  %743 = tanh(%741) /* ty=Tensor[(1, 1024), float32] */;
  %744 = %555.4 /* ty=Tensor[(1, 240), float32] */;
  %745 = (%744, %722) /* ty=(Tensor[(1, 240), float32], Tensor[(1, 1024), float32]) */;
  %746 = (%encoder.pre_rnn.lstm.weight_ih_l0, %encoder.pre_rnn.lstm.weight_hh_l0) /* ty=(Tensor[(4096, 240), float32], Tensor[(4096, 1024), float32]) */;
  %747 = concatenate(%745, axis=1) /* ty=Tensor[(1, 1264), float32] */;
  %748 = concatenate(%746, axis=1) /* ty=Tensor[(4096, 1264), float32] */;
  %749 = nn.dense(%747, %748, units=None) /* ty=Tensor[(1, 4096), float32] */;
  %750 = add(%749, %encoder.pre_rnn.lstm.bias_ih_l0) /* ty=Tensor[(1, 4096), float32] */;
  %751 = add(%750, %encoder.pre_rnn.lstm.bias_hh_l0) /* ty=Tensor[(1, 4096), float32] */;
  %752 = split(%751, indices_or_sections=4, axis=-1) /* ty=(Tensor[(1, 1024), float32], Tensor[(1, 1024), float32], Tensor[(1, 1024), float32], Tensor[(1, 1024), float32]) */;
  %753 = %752.3 /* ty=Tensor[(1, 1024), float32] */;
  %754 = %752.1 /* ty=Tensor[(1, 1024), float32] */;
  %755 = sigmoid(%754) /* ty=Tensor[(1, 1024), float32] */;
  %756 = %752.0 /* ty=Tensor[(1, 1024), float32] */;
  %757 = %752.2 /* ty=Tensor[(1, 1024), float32] */;
  %758 = sigmoid(%756) /* ty=Tensor[(1, 1024), float32] */;
  %759 = tanh(%757) /* ty=Tensor[(1, 1024), float32] */;
  %760 = multiply(%755, %719) /* ty=Tensor[(1, 1024), float32] */;
  %761 = multiply(%758, %759) /* ty=Tensor[(1, 1024), float32] */;
  %762 = add(%760, %761) /* ty=Tensor[(1, 1024), float32] */;
  %763 = sigmoid(%753) /* ty=Tensor[(1, 1024), float32] */;
  %764 = tanh(%762) /* ty=Tensor[(1, 1024), float32] */;
  %765 = multiply(%763, %764) /* ty=Tensor[(1, 1024), float32] */;
  %766 = multiply(%742, %743) /* ty=Tensor[(1, 1024), float32] */;
  %767 = (%765, %766) /* ty=(Tensor[(1, 1024), float32], Tensor[(1, 1024), float32]) */;
  %768 = (%encoder.pre_rnn.lstm.weight_ih_l1, %encoder.pre_rnn.lstm.weight_hh_l1) /* ty=(Tensor[(4096, 1024), float32], Tensor[(4096, 1024), float32]) */;
  %769 = concatenate(%767, axis=1) /* ty=Tensor[(1, 2048), float32] */;
  %770 = concatenate(%768, axis=1) /* ty=Tensor[(4096, 2048), float32] */;
  %771 = nn.dense(%769, %770, units=None) /* ty=Tensor[(1, 4096), float32] */;
  %772 = add(%771, %encoder.pre_rnn.lstm.bias_ih_l1) /* ty=Tensor[(1, 4096), float32] */;
  %773 = add(%772, %encoder.pre_rnn.lstm.bias_hh_l1) /* ty=Tensor[(1, 4096), float32] */;
  %774 = split(%773, indices_or_sections=4, axis=-1) /* ty=(Tensor[(1, 1024), float32], Tensor[(1, 1024), float32], Tensor[(1, 1024), float32], Tensor[(1, 1024), float32]) */;
  %775 = %774.3 /* ty=Tensor[(1, 1024), float32] */;
  %776 = %774.1 /* ty=Tensor[(1, 1024), float32] */;
  %777 = sigmoid(%776) /* ty=Tensor[(1, 1024), float32] */;
  %778 = %774.0 /* ty=Tensor[(1, 1024), float32] */;
  %779 = %774.2 /* ty=Tensor[(1, 1024), float32] */;
  %780 = sigmoid(%778) /* ty=Tensor[(1, 1024), float32] */;
  %781 = tanh(%779) /* ty=Tensor[(1, 1024), float32] */;
  %782 = multiply(%777, %741) /* ty=Tensor[(1, 1024), float32] */;
  %783 = multiply(%780, %781) /* ty=Tensor[(1, 1024), float32] */;
  %784 = add(%782, %783) /* ty=Tensor[(1, 1024), float32] */;
  %785 = sigmoid(%775) /* ty=Tensor[(1, 1024), float32] */;
  %786 = tanh(%784) /* ty=Tensor[(1, 1024), float32] */;
  %787 = %555.5 /* ty=Tensor[(1, 240), float32] */;
  %788 = (%787, %765) /* ty=(Tensor[(1, 240), float32], Tensor[(1, 1024), float32]) */;
  %789 = (%encoder.pre_rnn.lstm.weight_ih_l0, %encoder.pre_rnn.lstm.weight_hh_l0) /* ty=(Tensor[(4096, 240), float32], Tensor[(4096, 1024), float32]) */;
  %790 = concatenate(%788, axis=1) /* ty=Tensor[(1, 1264), float32] */;
  %791 = concatenate(%789, axis=1) /* ty=Tensor[(4096, 1264), float32] */;
  %792 = nn.dense(%790, %791, units=None) /* ty=Tensor[(1, 4096), float32] */;
  %793 = add(%792, %encoder.pre_rnn.lstm.bias_ih_l0) /* ty=Tensor[(1, 4096), float32] */;
  %794 = add(%793, %encoder.pre_rnn.lstm.bias_hh_l0) /* ty=Tensor[(1, 4096), float32] */;
  %795 = split(%794, indices_or_sections=4, axis=-1) /* ty=(Tensor[(1, 1024), float32], Tensor[(1, 1024), float32], Tensor[(1, 1024), float32], Tensor[(1, 1024), float32]) */;
  %796 = %795.3 /* ty=Tensor[(1, 1024), float32] */;
  %797 = %795.1 /* ty=Tensor[(1, 1024), float32] */;
  %798 = sigmoid(%797) /* ty=Tensor[(1, 1024), float32] */;
  %799 = %795.0 /* ty=Tensor[(1, 1024), float32] */;
  %800 = %795.2 /* ty=Tensor[(1, 1024), float32] */;
  %801 = sigmoid(%799) /* ty=Tensor[(1, 1024), float32] */;
  %802 = tanh(%800) /* ty=Tensor[(1, 1024), float32] */;
  %803 = multiply(%798, %762) /* ty=Tensor[(1, 1024), float32] */;
  %804 = multiply(%801, %802) /* ty=Tensor[(1, 1024), float32] */;
  %805 = add(%803, %804) /* ty=Tensor[(1, 1024), float32] */;
  %806 = sigmoid(%796) /* ty=Tensor[(1, 1024), float32] */;
  %807 = tanh(%805) /* ty=Tensor[(1, 1024), float32] */;
  %808 = multiply(%806, %807) /* ty=Tensor[(1, 1024), float32] */;
  %809 = multiply(%785, %786) /* ty=Tensor[(1, 1024), float32] */;
  %810 = (%808, %809) /* ty=(Tensor[(1, 1024), float32], Tensor[(1, 1024), float32]) */;
  %811 = (%encoder.pre_rnn.lstm.weight_ih_l1, %encoder.pre_rnn.lstm.weight_hh_l1) /* ty=(Tensor[(4096, 1024), float32], Tensor[(4096, 1024), float32]) */;
  %812 = concatenate(%810, axis=1) /* ty=Tensor[(1, 2048), float32] */;
  %813 = concatenate(%811, axis=1) /* ty=Tensor[(4096, 2048), float32] */;
  %814 = nn.dense(%812, %813, units=None) /* ty=Tensor[(1, 4096), float32] */;
  %815 = add(%814, %encoder.pre_rnn.lstm.bias_ih_l1) /* ty=Tensor[(1, 4096), float32] */;
  %816 = add(%815, %encoder.pre_rnn.lstm.bias_hh_l1) /* ty=Tensor[(1, 4096), float32] */;
  %817 = split(%816, indices_or_sections=4, axis=-1) /* ty=(Tensor[(1, 1024), float32], Tensor[(1, 1024), float32], Tensor[(1, 1024), float32], Tensor[(1, 1024), float32]) */;
  %818 = %817.3 /* ty=Tensor[(1, 1024), float32] */;
  %819 = %817.1 /* ty=Tensor[(1, 1024), float32] */;
  %820 = sigmoid(%819) /* ty=Tensor[(1, 1024), float32] */;
  %821 = %817.0 /* ty=Tensor[(1, 1024), float32] */;
  %822 = %817.2 /* ty=Tensor[(1, 1024), float32] */;
  %823 = sigmoid(%821) /* ty=Tensor[(1, 1024), float32] */;
  %824 = tanh(%822) /* ty=Tensor[(1, 1024), float32] */;
  %825 = multiply(%820, %784) /* ty=Tensor[(1, 1024), float32] */;
  %826 = multiply(%823, %824) /* ty=Tensor[(1, 1024), float32] */;
  %827 = add(%825, %826) /* ty=Tensor[(1, 1024), float32] */;
  %828 = sigmoid(%818) /* ty=Tensor[(1, 1024), float32] */;
  %829 = tanh(%827) /* ty=Tensor[(1, 1024), float32] */;
  %830 = %555.6 /* ty=Tensor[(1, 240), float32] */;
  %831 = (%830, %808) /* ty=(Tensor[(1, 240), float32], Tensor[(1, 1024), float32]) */;
  %832 = (%encoder.pre_rnn.lstm.weight_ih_l0, %encoder.pre_rnn.lstm.weight_hh_l0) /* ty=(Tensor[(4096, 240), float32], Tensor[(4096, 1024), float32]) */;
  %833 = concatenate(%831, axis=1) /* ty=Tensor[(1, 1264), float32] */;
  %834 = concatenate(%832, axis=1) /* ty=Tensor[(4096, 1264), float32] */;
  %835 = nn.dense(%833, %834, units=None) /* ty=Tensor[(1, 4096), float32] */;
  %836 = add(%835, %encoder.pre_rnn.lstm.bias_ih_l0) /* ty=Tensor[(1, 4096), float32] */;
  %837 = add(%836, %encoder.pre_rnn.lstm.bias_hh_l0) /* ty=Tensor[(1, 4096), float32] */;
  %838 = split(%837, indices_or_sections=4, axis=-1) /* ty=(Tensor[(1, 1024), float32], Tensor[(1, 1024), float32], Tensor[(1, 1024), float32], Tensor[(1, 1024), float32]) */;
  %839 = %838.3 /* ty=Tensor[(1, 1024), float32] */;
  %840 = %838.1 /* ty=Tensor[(1, 1024), float32] */;
  %841 = sigmoid(%840) /* ty=Tensor[(1, 1024), float32] */;
  %842 = %838.0 /* ty=Tensor[(1, 1024), float32] */;
  %843 = %838.2 /* ty=Tensor[(1, 1024), float32] */;
  %844 = sigmoid(%842) /* ty=Tensor[(1, 1024), float32] */;
  %845 = tanh(%843) /* ty=Tensor[(1, 1024), float32] */;
  %846 = multiply(%841, %805) /* ty=Tensor[(1, 1024), float32] */;
  %847 = multiply(%844, %845) /* ty=Tensor[(1, 1024), float32] */;
  %848 = add(%846, %847) /* ty=Tensor[(1, 1024), float32] */;
  %849 = sigmoid(%839) /* ty=Tensor[(1, 1024), float32] */;
  %850 = tanh(%848) /* ty=Tensor[(1, 1024), float32] */;
  %851 = multiply(%849, %850) /* ty=Tensor[(1, 1024), float32] */;
  %852 = multiply(%828, %829) /* ty=Tensor[(1, 1024), float32] */;
  %853 = (%851, %852) /* ty=(Tensor[(1, 1024), float32], Tensor[(1, 1024), float32]) */;
  %854 = (%encoder.pre_rnn.lstm.weight_ih_l1, %encoder.pre_rnn.lstm.weight_hh_l1) /* ty=(Tensor[(4096, 1024), float32], Tensor[(4096, 1024), float32]) */;
  %855 = concatenate(%853, axis=1) /* ty=Tensor[(1, 2048), float32] */;
  %856 = concatenate(%854, axis=1) /* ty=Tensor[(4096, 2048), float32] */;
  %857 = nn.dense(%855, %856, units=None) /* ty=Tensor[(1, 4096), float32] */;
  %858 = add(%857, %encoder.pre_rnn.lstm.bias_ih_l1) /* ty=Tensor[(1, 4096), float32] */;
  %859 = add(%858, %encoder.pre_rnn.lstm.bias_hh_l1) /* ty=Tensor[(1, 4096), float32] */;
  %860 = split(%859, indices_or_sections=4, axis=-1) /* ty=(Tensor[(1, 1024), float32], Tensor[(1, 1024), float32], Tensor[(1, 1024), float32], Tensor[(1, 1024), float32]) */;
  %861 = %860.3 /* ty=Tensor[(1, 1024), float32] */;
  %862 = %860.1 /* ty=Tensor[(1, 1024), float32] */;
  %863 = sigmoid(%862) /* ty=Tensor[(1, 1024), float32] */;
  %864 = %860.0 /* ty=Tensor[(1, 1024), float32] */;
  %865 = %860.2 /* ty=Tensor[(1, 1024), float32] */;
  %866 = sigmoid(%864) /* ty=Tensor[(1, 1024), float32] */;
  %867 = tanh(%865) /* ty=Tensor[(1, 1024), float32] */;
  %868 = multiply(%863, %827) /* ty=Tensor[(1, 1024), float32] */;
  %869 = multiply(%866, %867) /* ty=Tensor[(1, 1024), float32] */;
  %870 = add(%868, %869) /* ty=Tensor[(1, 1024), float32] */;
  %871 = sigmoid(%861) /* ty=Tensor[(1, 1024), float32] */;
  %872 = tanh(%870) /* ty=Tensor[(1, 1024), float32] */;
  %873 = %555.7 /* ty=Tensor[(1, 240), float32] */;
  %874 = (%873, %851) /* ty=(Tensor[(1, 240), float32], Tensor[(1, 1024), float32]) */;
  %875 = (%encoder.pre_rnn.lstm.weight_ih_l0, %encoder.pre_rnn.lstm.weight_hh_l0) /* ty=(Tensor[(4096, 240), float32], Tensor[(4096, 1024), float32]) */;
  %876 = concatenate(%874, axis=1) /* ty=Tensor[(1, 1264), float32] */;
  %877 = concatenate(%875, axis=1) /* ty=Tensor[(4096, 1264), float32] */;
  %878 = nn.dense(%876, %877, units=None) /* ty=Tensor[(1, 4096), float32] */;
  %879 = add(%878, %encoder.pre_rnn.lstm.bias_ih_l0) /* ty=Tensor[(1, 4096), float32] */;
  %880 = add(%879, %encoder.pre_rnn.lstm.bias_hh_l0) /* ty=Tensor[(1, 4096), float32] */;
  %881 = split(%880, indices_or_sections=4, axis=-1) /* ty=(Tensor[(1, 1024), float32], Tensor[(1, 1024), float32], Tensor[(1, 1024), float32], Tensor[(1, 1024), float32]) */;
  %882 = %881.3 /* ty=Tensor[(1, 1024), float32] */;
  %883 = %881.1 /* ty=Tensor[(1, 1024), float32] */;
  %884 = sigmoid(%883) /* ty=Tensor[(1, 1024), float32] */;
  %885 = %881.0 /* ty=Tensor[(1, 1024), float32] */;
  %886 = %881.2 /* ty=Tensor[(1, 1024), float32] */;
  %887 = sigmoid(%885) /* ty=Tensor[(1, 1024), float32] */;
  %888 = tanh(%886) /* ty=Tensor[(1, 1024), float32] */;
  %889 = multiply(%884, %848) /* ty=Tensor[(1, 1024), float32] */;
  %890 = multiply(%887, %888) /* ty=Tensor[(1, 1024), float32] */;
  %891 = add(%889, %890) /* ty=Tensor[(1, 1024), float32] */;
  %892 = sigmoid(%882) /* ty=Tensor[(1, 1024), float32] */;
  %893 = tanh(%891) /* ty=Tensor[(1, 1024), float32] */;
  %894 = multiply(%892, %893) /* ty=Tensor[(1, 1024), float32] */;
  %895 = multiply(%871, %872) /* ty=Tensor[(1, 1024), float32] */;
  %896 = (%894, %895) /* ty=(Tensor[(1, 1024), float32], Tensor[(1, 1024), float32]) */;
  %897 = (%encoder.pre_rnn.lstm.weight_ih_l1, %encoder.pre_rnn.lstm.weight_hh_l1) /* ty=(Tensor[(4096, 1024), float32], Tensor[(4096, 1024), float32]) */;
  %898 = concatenate(%896, axis=1) /* ty=Tensor[(1, 2048), float32] */;
  %899 = concatenate(%897, axis=1) /* ty=Tensor[(4096, 2048), float32] */;
  %900 = nn.dense(%898, %899, units=None) /* ty=Tensor[(1, 4096), float32] */;
  %901 = add(%900, %encoder.pre_rnn.lstm.bias_ih_l1) /* ty=Tensor[(1, 4096), float32] */;
  %902 = add(%901, %encoder.pre_rnn.lstm.bias_hh_l1) /* ty=Tensor[(1, 4096), float32] */;
  %903 = split(%902, indices_or_sections=4, axis=-1) /* ty=(Tensor[(1, 1024), float32], Tensor[(1, 1024), float32], Tensor[(1, 1024), float32], Tensor[(1, 1024), float32]) */;
  %904 = %903.3 /* ty=Tensor[(1, 1024), float32] */;
  %905 = %903.1 /* ty=Tensor[(1, 1024), float32] */;
  %906 = sigmoid(%905) /* ty=Tensor[(1, 1024), float32] */;
  %907 = %903.0 /* ty=Tensor[(1, 1024), float32] */;
  %908 = %903.2 /* ty=Tensor[(1, 1024), float32] */;
  %909 = sigmoid(%907) /* ty=Tensor[(1, 1024), float32] */;
  %910 = tanh(%908) /* ty=Tensor[(1, 1024), float32] */;
  %911 = multiply(%906, %870) /* ty=Tensor[(1, 1024), float32] */;
  %912 = multiply(%909, %910) /* ty=Tensor[(1, 1024), float32] */;
  %913 = add(%911, %912) /* ty=Tensor[(1, 1024), float32] */;
  %914 = sigmoid(%904) /* ty=Tensor[(1, 1024), float32] */;
  %915 = tanh(%913) /* ty=Tensor[(1, 1024), float32] */;
  %916 = %555.8 /* ty=Tensor[(1, 240), float32] */;
  %917 = (%916, %894) /* ty=(Tensor[(1, 240), float32], Tensor[(1, 1024), float32]) */;
  %918 = (%encoder.pre_rnn.lstm.weight_ih_l0, %encoder.pre_rnn.lstm.weight_hh_l0) /* ty=(Tensor[(4096, 240), float32], Tensor[(4096, 1024), float32]) */;
  %919 = concatenate(%917, axis=1) /* ty=Tensor[(1, 1264), float32] */;
  %920 = concatenate(%918, axis=1) /* ty=Tensor[(4096, 1264), float32] */;
  %921 = nn.dense(%919, %920, units=None) /* ty=Tensor[(1, 4096), float32] */;
  %922 = add(%921, %encoder.pre_rnn.lstm.bias_ih_l0) /* ty=Tensor[(1, 4096), float32] */;
  %923 = add(%922, %encoder.pre_rnn.lstm.bias_hh_l0) /* ty=Tensor[(1, 4096), float32] */;
  %924 = split(%923, indices_or_sections=4, axis=-1) /* ty=(Tensor[(1, 1024), float32], Tensor[(1, 1024), float32], Tensor[(1, 1024), float32], Tensor[(1, 1024), float32]) */;
  %925 = %924.3 /* ty=Tensor[(1, 1024), float32] */;
  %926 = %924.1 /* ty=Tensor[(1, 1024), float32] */;
  %927 = sigmoid(%926) /* ty=Tensor[(1, 1024), float32] */;
  %928 = %924.0 /* ty=Tensor[(1, 1024), float32] */;
  %929 = %924.2 /* ty=Tensor[(1, 1024), float32] */;
  %930 = sigmoid(%928) /* ty=Tensor[(1, 1024), float32] */;
  %931 = tanh(%929) /* ty=Tensor[(1, 1024), float32] */;
  %932 = multiply(%927, %891) /* ty=Tensor[(1, 1024), float32] */;
  %933 = multiply(%930, %931) /* ty=Tensor[(1, 1024), float32] */;
  %934 = add(%932, %933) /* ty=Tensor[(1, 1024), float32] */;
  %935 = sigmoid(%925) /* ty=Tensor[(1, 1024), float32] */;
  %936 = tanh(%934) /* ty=Tensor[(1, 1024), float32] */;
  %937 = multiply(%935, %936) /* ty=Tensor[(1, 1024), float32] */;
  %938 = multiply(%914, %915) /* ty=Tensor[(1, 1024), float32] */;
  %939 = (%937, %938) /* ty=(Tensor[(1, 1024), float32], Tensor[(1, 1024), float32]) */;
  %940 = (%encoder.pre_rnn.lstm.weight_ih_l1, %encoder.pre_rnn.lstm.weight_hh_l1) /* ty=(Tensor[(4096, 1024), float32], Tensor[(4096, 1024), float32]) */;
  %941 = concatenate(%939, axis=1) /* ty=Tensor[(1, 2048), float32] */;
  %942 = concatenate(%940, axis=1) /* ty=Tensor[(4096, 2048), float32] */;
  %943 = nn.dense(%941, %942, units=None) /* ty=Tensor[(1, 4096), float32] */;
  %944 = add(%943, %encoder.pre_rnn.lstm.bias_ih_l1) /* ty=Tensor[(1, 4096), float32] */;
  %945 = add(%944, %encoder.pre_rnn.lstm.bias_hh_l1) /* ty=Tensor[(1, 4096), float32] */;
  %946 = split(%945, indices_or_sections=4, axis=-1) /* ty=(Tensor[(1, 1024), float32], Tensor[(1, 1024), float32], Tensor[(1, 1024), float32], Tensor[(1, 1024), float32]) */;
  %947 = %946.3 /* ty=Tensor[(1, 1024), float32] */;
  %948 = %946.1 /* ty=Tensor[(1, 1024), float32] */;
  %949 = sigmoid(%948) /* ty=Tensor[(1, 1024), float32] */;
  %950 = %946.0 /* ty=Tensor[(1, 1024), float32] */;
  %951 = %946.2 /* ty=Tensor[(1, 1024), float32] */;
  %952 = sigmoid(%950) /* ty=Tensor[(1, 1024), float32] */;
  %953 = tanh(%951) /* ty=Tensor[(1, 1024), float32] */;
  %954 = multiply(%949, %913) /* ty=Tensor[(1, 1024), float32] */;
  %955 = multiply(%952, %953) /* ty=Tensor[(1, 1024), float32] */;
  %956 = add(%954, %955) /* ty=Tensor[(1, 1024), float32] */;
  %957 = sigmoid(%947) /* ty=Tensor[(1, 1024), float32] */;
  %958 = tanh(%956) /* ty=Tensor[(1, 1024), float32] */;
  %959 = %555.9 /* ty=Tensor[(1, 240), float32] */;
  %960 = (%959, %937) /* ty=(Tensor[(1, 240), float32], Tensor[(1, 1024), float32]) */;
  %961 = (%encoder.pre_rnn.lstm.weight_ih_l0, %encoder.pre_rnn.lstm.weight_hh_l0) /* ty=(Tensor[(4096, 240), float32], Tensor[(4096, 1024), float32]) */;
  %962 = concatenate(%960, axis=1) /* ty=Tensor[(1, 1264), float32] */;
  %963 = concatenate(%961, axis=1) /* ty=Tensor[(4096, 1264), float32] */;
  %964 = nn.dense(%962, %963, units=None) /* ty=Tensor[(1, 4096), float32] */;
  %965 = add(%964, %encoder.pre_rnn.lstm.bias_ih_l0) /* ty=Tensor[(1, 4096), float32] */;
  %966 = add(%965, %encoder.pre_rnn.lstm.bias_hh_l0) /* ty=Tensor[(1, 4096), float32] */;
  %967 = split(%966, indices_or_sections=4, axis=-1) /* ty=(Tensor[(1, 1024), float32], Tensor[(1, 1024), float32], Tensor[(1, 1024), float32], Tensor[(1, 1024), float32]) */;
  %968 = %967.3 /* ty=Tensor[(1, 1024), float32] */;
  %969 = %967.1 /* ty=Tensor[(1, 1024), float32] */;
  %970 = sigmoid(%969) /* ty=Tensor[(1, 1024), float32] */;
  %971 = %967.0 /* ty=Tensor[(1, 1024), float32] */;
  %972 = %967.2 /* ty=Tensor[(1, 1024), float32] */;
  %973 = sigmoid(%971) /* ty=Tensor[(1, 1024), float32] */;
  %974 = tanh(%972) /* ty=Tensor[(1, 1024), float32] */;
  %975 = multiply(%970, %934) /* ty=Tensor[(1, 1024), float32] */;
  %976 = multiply(%973, %974) /* ty=Tensor[(1, 1024), float32] */;
  %977 = add(%975, %976) /* ty=Tensor[(1, 1024), float32] */;
  %978 = sigmoid(%968) /* ty=Tensor[(1, 1024), float32] */;
  %979 = tanh(%977) /* ty=Tensor[(1, 1024), float32] */;
  %980 = multiply(%978, %979) /* ty=Tensor[(1, 1024), float32] */;
  %981 = multiply(%957, %958) /* ty=Tensor[(1, 1024), float32] */;
  %982 = (%980, %981) /* ty=(Tensor[(1, 1024), float32], Tensor[(1, 1024), float32]) */;
  %983 = (%encoder.pre_rnn.lstm.weight_ih_l1, %encoder.pre_rnn.lstm.weight_hh_l1) /* ty=(Tensor[(4096, 1024), float32], Tensor[(4096, 1024), float32]) */;
  %984 = concatenate(%982, axis=1) /* ty=Tensor[(1, 2048), float32] */;
  %985 = concatenate(%983, axis=1) /* ty=Tensor[(4096, 2048), float32] */;
  %986 = nn.dense(%984, %985, units=None) /* ty=Tensor[(1, 4096), float32] */;
  %987 = add(%986, %encoder.pre_rnn.lstm.bias_ih_l1) /* ty=Tensor[(1, 4096), float32] */;
  %988 = add(%987, %encoder.pre_rnn.lstm.bias_hh_l1) /* ty=Tensor[(1, 4096), float32] */;
  %989 = split(%988, indices_or_sections=4, axis=-1) /* ty=(Tensor[(1, 1024), float32], Tensor[(1, 1024), float32], Tensor[(1, 1024), float32], Tensor[(1, 1024), float32]) */;
  %990 = %989.3 /* ty=Tensor[(1, 1024), float32] */;
  %991 = %989.1 /* ty=Tensor[(1, 1024), float32] */;
  %992 = sigmoid(%991) /* ty=Tensor[(1, 1024), float32] */;
  %993 = %989.0 /* ty=Tensor[(1, 1024), float32] */;
  %994 = %989.2 /* ty=Tensor[(1, 1024), float32] */;
  %995 = sigmoid(%993) /* ty=Tensor[(1, 1024), float32] */;
  %996 = tanh(%994) /* ty=Tensor[(1, 1024), float32] */;
  %997 = multiply(%992, %956) /* ty=Tensor[(1, 1024), float32] */;
  %998 = multiply(%995, %996) /* ty=Tensor[(1, 1024), float32] */;
  %999 = add(%997, %998) /* ty=Tensor[(1, 1024), float32] */;
  %1000 = sigmoid(%990) /* ty=Tensor[(1, 1024), float32] */;
  %1001 = tanh(%999) /* ty=Tensor[(1, 1024), float32] */;
  %1002 = %555.10 /* ty=Tensor[(1, 240), float32] */;
  %1003 = (%1002, %980) /* ty=(Tensor[(1, 240), float32], Tensor[(1, 1024), float32]) */;
  %1004 = (%encoder.pre_rnn.lstm.weight_ih_l0, %encoder.pre_rnn.lstm.weight_hh_l0) /* ty=(Tensor[(4096, 240), float32], Tensor[(4096, 1024), float32]) */;
  %1005 = concatenate(%1003, axis=1) /* ty=Tensor[(1, 1264), float32] */;
  %1006 = concatenate(%1004, axis=1) /* ty=Tensor[(4096, 1264), float32] */;
  %1007 = nn.dense(%1005, %1006, units=None) /* ty=Tensor[(1, 4096), float32] */;
  %1008 = add(%1007, %encoder.pre_rnn.lstm.bias_ih_l0) /* ty=Tensor[(1, 4096), float32] */;
  %1009 = add(%1008, %encoder.pre_rnn.lstm.bias_hh_l0) /* ty=Tensor[(1, 4096), float32] */;
  %1010 = split(%1009, indices_or_sections=4, axis=-1) /* ty=(Tensor[(1, 1024), float32], Tensor[(1, 1024), float32], Tensor[(1, 1024), float32], Tensor[(1, 1024), float32]) */;
  %1011 = %1010.3 /* ty=Tensor[(1, 1024), float32] */;
  %1012 = %1010.1 /* ty=Tensor[(1, 1024), float32] */;
  %1013 = sigmoid(%1012) /* ty=Tensor[(1, 1024), float32] */;
  %1014 = %1010.0 /* ty=Tensor[(1, 1024), float32] */;
  %1015 = %1010.2 /* ty=Tensor[(1, 1024), float32] */;
  %1016 = sigmoid(%1014) /* ty=Tensor[(1, 1024), float32] */;
  %1017 = tanh(%1015) /* ty=Tensor[(1, 1024), float32] */;
  %1018 = multiply(%1013, %977) /* ty=Tensor[(1, 1024), float32] */;
  %1019 = multiply(%1016, %1017) /* ty=Tensor[(1, 1024), float32] */;
  %1020 = add(%1018, %1019) /* ty=Tensor[(1, 1024), float32] */;
  %1021 = sigmoid(%1011) /* ty=Tensor[(1, 1024), float32] */;
  %1022 = tanh(%1020) /* ty=Tensor[(1, 1024), float32] */;
  %1023 = multiply(%1021, %1022) /* ty=Tensor[(1, 1024), float32] */;
  %1024 = multiply(%1000, %1001) /* ty=Tensor[(1, 1024), float32] */;
  %1025 = (%1023, %1024) /* ty=(Tensor[(1, 1024), float32], Tensor[(1, 1024), float32]) */;
  %1026 = (%encoder.pre_rnn.lstm.weight_ih_l1, %encoder.pre_rnn.lstm.weight_hh_l1) /* ty=(Tensor[(4096, 1024), float32], Tensor[(4096, 1024), float32]) */;
  %1027 = concatenate(%1025, axis=1) /* ty=Tensor[(1, 2048), float32] */;
  %1028 = concatenate(%1026, axis=1) /* ty=Tensor[(4096, 2048), float32] */;
  %1029 = nn.dense(%1027, %1028, units=None) /* ty=Tensor[(1, 4096), float32] */;
  %1030 = add(%1029, %encoder.pre_rnn.lstm.bias_ih_l1) /* ty=Tensor[(1, 4096), float32] */;
  %1031 = add(%1030, %encoder.pre_rnn.lstm.bias_hh_l1) /* ty=Tensor[(1, 4096), float32] */;
  %1032 = split(%1031, indices_or_sections=4, axis=-1) /* ty=(Tensor[(1, 1024), float32], Tensor[(1, 1024), float32], Tensor[(1, 1024), float32], Tensor[(1, 1024), float32]) */;
  %1033 = %1032.3 /* ty=Tensor[(1, 1024), float32] */;
  %1034 = %1032.1 /* ty=Tensor[(1, 1024), float32] */;
  %1035 = sigmoid(%1034) /* ty=Tensor[(1, 1024), float32] */;
  %1036 = %1032.0 /* ty=Tensor[(1, 1024), float32] */;
  %1037 = %1032.2 /* ty=Tensor[(1, 1024), float32] */;
  %1038 = sigmoid(%1036) /* ty=Tensor[(1, 1024), float32] */;
  %1039 = tanh(%1037) /* ty=Tensor[(1, 1024), float32] */;
  %1040 = multiply(%1035, %999) /* ty=Tensor[(1, 1024), float32] */;
  %1041 = multiply(%1038, %1039) /* ty=Tensor[(1, 1024), float32] */;
  %1042 = add(%1040, %1041) /* ty=Tensor[(1, 1024), float32] */;
  %1043 = sigmoid(%1033) /* ty=Tensor[(1, 1024), float32] */;
  %1044 = tanh(%1042) /* ty=Tensor[(1, 1024), float32] */;
  %1045 = %555.11 /* ty=Tensor[(1, 240), float32] */;
  %1046 = (%1045, %1023) /* ty=(Tensor[(1, 240), float32], Tensor[(1, 1024), float32]) */;
  %1047 = (%encoder.pre_rnn.lstm.weight_ih_l0, %encoder.pre_rnn.lstm.weight_hh_l0) /* ty=(Tensor[(4096, 240), float32], Tensor[(4096, 1024), float32]) */;
  %1048 = concatenate(%1046, axis=1) /* ty=Tensor[(1, 1264), float32] */;
  %1049 = concatenate(%1047, axis=1) /* ty=Tensor[(4096, 1264), float32] */;
  %1050 = nn.dense(%1048, %1049, units=None) /* ty=Tensor[(1, 4096), float32] */;
  %1051 = add(%1050, %encoder.pre_rnn.lstm.bias_ih_l0) /* ty=Tensor[(1, 4096), float32] */;
  %1052 = add(%1051, %encoder.pre_rnn.lstm.bias_hh_l0) /* ty=Tensor[(1, 4096), float32] */;
  %1053 = split(%1052, indices_or_sections=4, axis=-1) /* ty=(Tensor[(1, 1024), float32], Tensor[(1, 1024), float32], Tensor[(1, 1024), float32], Tensor[(1, 1024), float32]) */;
  %1054 = %1053.3 /* ty=Tensor[(1, 1024), float32] */;
  %1055 = %1053.1 /* ty=Tensor[(1, 1024), float32] */;
  %1056 = sigmoid(%1055) /* ty=Tensor[(1, 1024), float32] */;
  %1057 = %1053.0 /* ty=Tensor[(1, 1024), float32] */;
  %1058 = %1053.2 /* ty=Tensor[(1, 1024), float32] */;
  %1059 = sigmoid(%1057) /* ty=Tensor[(1, 1024), float32] */;
  %1060 = tanh(%1058) /* ty=Tensor[(1, 1024), float32] */;
  %1061 = multiply(%1056, %1020) /* ty=Tensor[(1, 1024), float32] */;
  %1062 = multiply(%1059, %1060) /* ty=Tensor[(1, 1024), float32] */;
  %1063 = add(%1061, %1062) /* ty=Tensor[(1, 1024), float32] */;
  %1064 = sigmoid(%1054) /* ty=Tensor[(1, 1024), float32] */;
  %1065 = tanh(%1063) /* ty=Tensor[(1, 1024), float32] */;
  %1066 = multiply(%1064, %1065) /* ty=Tensor[(1, 1024), float32] */;
  %1067 = multiply(%1043, %1044) /* ty=Tensor[(1, 1024), float32] */;
  %1068 = (%1066, %1067) /* ty=(Tensor[(1, 1024), float32], Tensor[(1, 1024), float32]) */;
  %1069 = (%encoder.pre_rnn.lstm.weight_ih_l1, %encoder.pre_rnn.lstm.weight_hh_l1) /* ty=(Tensor[(4096, 1024), float32], Tensor[(4096, 1024), float32]) */;
  %1070 = concatenate(%1068, axis=1) /* ty=Tensor[(1, 2048), float32] */;
  %1071 = concatenate(%1069, axis=1) /* ty=Tensor[(4096, 2048), float32] */;
  %1072 = nn.dense(%1070, %1071, units=None) /* ty=Tensor[(1, 4096), float32] */;
  %1073 = add(%1072, %encoder.pre_rnn.lstm.bias_ih_l1) /* ty=Tensor[(1, 4096), float32] */;
  %1074 = add(%1073, %encoder.pre_rnn.lstm.bias_hh_l1) /* ty=Tensor[(1, 4096), float32] */;
  %1075 = split(%1074, indices_or_sections=4, axis=-1) /* ty=(Tensor[(1, 1024), float32], Tensor[(1, 1024), float32], Tensor[(1, 1024), float32], Tensor[(1, 1024), float32]) */;
  %1076 = %1075.3 /* ty=Tensor[(1, 1024), float32] */;
  %1077 = %1075.1 /* ty=Tensor[(1, 1024), float32] */;
  %1078 = sigmoid(%1077) /* ty=Tensor[(1, 1024), float32] */;
  %1079 = %1075.0 /* ty=Tensor[(1, 1024), float32] */;
  %1080 = %1075.2 /* ty=Tensor[(1, 1024), float32] */;
  %1081 = sigmoid(%1079) /* ty=Tensor[(1, 1024), float32] */;
  %1082 = tanh(%1080) /* ty=Tensor[(1, 1024), float32] */;
  %1083 = multiply(%1078, %1042) /* ty=Tensor[(1, 1024), float32] */;
  %1084 = multiply(%1081, %1082) /* ty=Tensor[(1, 1024), float32] */;
  %1085 = add(%1083, %1084) /* ty=Tensor[(1, 1024), float32] */;
  %1086 = sigmoid(%1076) /* ty=Tensor[(1, 1024), float32] */;
  %1087 = tanh(%1085) /* ty=Tensor[(1, 1024), float32] */;
  %1088 = %555.12 /* ty=Tensor[(1, 240), float32] */;
  %1089 = (%1088, %1066) /* ty=(Tensor[(1, 240), float32], Tensor[(1, 1024), float32]) */;
  %1090 = (%encoder.pre_rnn.lstm.weight_ih_l0, %encoder.pre_rnn.lstm.weight_hh_l0) /* ty=(Tensor[(4096, 240), float32], Tensor[(4096, 1024), float32]) */;
  %1091 = concatenate(%1089, axis=1) /* ty=Tensor[(1, 1264), float32] */;
  %1092 = concatenate(%1090, axis=1) /* ty=Tensor[(4096, 1264), float32] */;
  %1093 = nn.dense(%1091, %1092, units=None) /* ty=Tensor[(1, 4096), float32] */;
  %1094 = add(%1093, %encoder.pre_rnn.lstm.bias_ih_l0) /* ty=Tensor[(1, 4096), float32] */;
  %1095 = add(%1094, %encoder.pre_rnn.lstm.bias_hh_l0) /* ty=Tensor[(1, 4096), float32] */;
  %1096 = split(%1095, indices_or_sections=4, axis=-1) /* ty=(Tensor[(1, 1024), float32], Tensor[(1, 1024), float32], Tensor[(1, 1024), float32], Tensor[(1, 1024), float32]) */;
  %1097 = %1096.3 /* ty=Tensor[(1, 1024), float32] */;
  %1098 = %1096.1 /* ty=Tensor[(1, 1024), float32] */;
  %1099 = sigmoid(%1098) /* ty=Tensor[(1, 1024), float32] */;
  %1100 = %1096.0 /* ty=Tensor[(1, 1024), float32] */;
  %1101 = %1096.2 /* ty=Tensor[(1, 1024), float32] */;
  %1102 = sigmoid(%1100) /* ty=Tensor[(1, 1024), float32] */;
  %1103 = tanh(%1101) /* ty=Tensor[(1, 1024), float32] */;
  %1104 = multiply(%1099, %1063) /* ty=Tensor[(1, 1024), float32] */;
  %1105 = multiply(%1102, %1103) /* ty=Tensor[(1, 1024), float32] */;
  %1106 = add(%1104, %1105) /* ty=Tensor[(1, 1024), float32] */;
  %1107 = sigmoid(%1097) /* ty=Tensor[(1, 1024), float32] */;
  %1108 = tanh(%1106) /* ty=Tensor[(1, 1024), float32] */;
  %1109 = multiply(%1107, %1108) /* ty=Tensor[(1, 1024), float32] */;
  %1110 = multiply(%1086, %1087) /* ty=Tensor[(1, 1024), float32] */;
  %1111 = (%1109, %1110) /* ty=(Tensor[(1, 1024), float32], Tensor[(1, 1024), float32]) */;
  %1112 = (%encoder.pre_rnn.lstm.weight_ih_l1, %encoder.pre_rnn.lstm.weight_hh_l1) /* ty=(Tensor[(4096, 1024), float32], Tensor[(4096, 1024), float32]) */;
  %1113 = concatenate(%1111, axis=1) /* ty=Tensor[(1, 2048), float32] */;
  %1114 = concatenate(%1112, axis=1) /* ty=Tensor[(4096, 2048), float32] */;
  %1115 = nn.dense(%1113, %1114, units=None) /* ty=Tensor[(1, 4096), float32] */;
  %1116 = add(%1115, %encoder.pre_rnn.lstm.bias_ih_l1) /* ty=Tensor[(1, 4096), float32] */;
  %1117 = add(%1116, %encoder.pre_rnn.lstm.bias_hh_l1) /* ty=Tensor[(1, 4096), float32] */;
  %1118 = split(%1117, indices_or_sections=4, axis=-1) /* ty=(Tensor[(1, 1024), float32], Tensor[(1, 1024), float32], Tensor[(1, 1024), float32], Tensor[(1, 1024), float32]) */;
  %1119 = %1118.3 /* ty=Tensor[(1, 1024), float32] */;
  %1120 = %1118.1 /* ty=Tensor[(1, 1024), float32] */;
  %1121 = sigmoid(%1120) /* ty=Tensor[(1, 1024), float32] */;
  %1122 = %1118.0 /* ty=Tensor[(1, 1024), float32] */;
  %1123 = %1118.2 /* ty=Tensor[(1, 1024), float32] */;
  %1124 = sigmoid(%1122) /* ty=Tensor[(1, 1024), float32] */;
  %1125 = tanh(%1123) /* ty=Tensor[(1, 1024), float32] */;
  %1126 = multiply(%1121, %1085) /* ty=Tensor[(1, 1024), float32] */;
  %1127 = multiply(%1124, %1125) /* ty=Tensor[(1, 1024), float32] */;
  %1128 = add(%1126, %1127) /* ty=Tensor[(1, 1024), float32] */;
  %1129 = sigmoid(%1119) /* ty=Tensor[(1, 1024), float32] */;
  %1130 = tanh(%1128) /* ty=Tensor[(1, 1024), float32] */;
  %1131 = %555.13 /* ty=Tensor[(1, 240), float32] */;
  %1132 = (%1131, %1109) /* ty=(Tensor[(1, 240), float32], Tensor[(1, 1024), float32]) */;
  %1133 = (%encoder.pre_rnn.lstm.weight_ih_l0, %encoder.pre_rnn.lstm.weight_hh_l0) /* ty=(Tensor[(4096, 240), float32], Tensor[(4096, 1024), float32]) */;
  %1134 = concatenate(%1132, axis=1) /* ty=Tensor[(1, 1264), float32] */;
  %1135 = concatenate(%1133, axis=1) /* ty=Tensor[(4096, 1264), float32] */;
  %1136 = nn.dense(%1134, %1135, units=None) /* ty=Tensor[(1, 4096), float32] */;
  %1137 = add(%1136, %encoder.pre_rnn.lstm.bias_ih_l0) /* ty=Tensor[(1, 4096), float32] */;
  %1138 = add(%1137, %encoder.pre_rnn.lstm.bias_hh_l0) /* ty=Tensor[(1, 4096), float32] */;
  %1139 = split(%1138, indices_or_sections=4, axis=-1) /* ty=(Tensor[(1, 1024), float32], Tensor[(1, 1024), float32], Tensor[(1, 1024), float32], Tensor[(1, 1024), float32]) */;
  %1140 = %1139.3 /* ty=Tensor[(1, 1024), float32] */;
  %1141 = %1139.1 /* ty=Tensor[(1, 1024), float32] */;
  %1142 = sigmoid(%1141) /* ty=Tensor[(1, 1024), float32] */;
  %1143 = %1139.0 /* ty=Tensor[(1, 1024), float32] */;
  %1144 = %1139.2 /* ty=Tensor[(1, 1024), float32] */;
  %1145 = sigmoid(%1143) /* ty=Tensor[(1, 1024), float32] */;
  %1146 = tanh(%1144) /* ty=Tensor[(1, 1024), float32] */;
  %1147 = multiply(%1142, %1106) /* ty=Tensor[(1, 1024), float32] */;
  %1148 = multiply(%1145, %1146) /* ty=Tensor[(1, 1024), float32] */;
  %1149 = add(%1147, %1148) /* ty=Tensor[(1, 1024), float32] */;
  %1150 = sigmoid(%1140) /* ty=Tensor[(1, 1024), float32] */;
  %1151 = tanh(%1149) /* ty=Tensor[(1, 1024), float32] */;
  %1152 = multiply(%1150, %1151) /* ty=Tensor[(1, 1024), float32] */;
  %1153 = multiply(%1129, %1130) /* ty=Tensor[(1, 1024), float32] */;
  %1154 = (%1152, %1153) /* ty=(Tensor[(1, 1024), float32], Tensor[(1, 1024), float32]) */;
  %1155 = (%encoder.pre_rnn.lstm.weight_ih_l1, %encoder.pre_rnn.lstm.weight_hh_l1) /* ty=(Tensor[(4096, 1024), float32], Tensor[(4096, 1024), float32]) */;
  %1156 = concatenate(%1154, axis=1) /* ty=Tensor[(1, 2048), float32] */;
  %1157 = concatenate(%1155, axis=1) /* ty=Tensor[(4096, 2048), float32] */;
  %1158 = nn.dense(%1156, %1157, units=None) /* ty=Tensor[(1, 4096), float32] */;
  %1159 = add(%1158, %encoder.pre_rnn.lstm.bias_ih_l1) /* ty=Tensor[(1, 4096), float32] */;
  %1160 = add(%1159, %encoder.pre_rnn.lstm.bias_hh_l1) /* ty=Tensor[(1, 4096), float32] */;
  %1161 = split(%1160, indices_or_sections=4, axis=-1) /* ty=(Tensor[(1, 1024), float32], Tensor[(1, 1024), float32], Tensor[(1, 1024), float32], Tensor[(1, 1024), float32]) */;
  %1162 = %1161.3 /* ty=Tensor[(1, 1024), float32] */;
  %1163 = %1161.1 /* ty=Tensor[(1, 1024), float32] */;
  %1164 = sigmoid(%1163) /* ty=Tensor[(1, 1024), float32] */;
  %1165 = %1161.0 /* ty=Tensor[(1, 1024), float32] */;
  %1166 = %1161.2 /* ty=Tensor[(1, 1024), float32] */;
  %1167 = sigmoid(%1165) /* ty=Tensor[(1, 1024), float32] */;
  %1168 = tanh(%1166) /* ty=Tensor[(1, 1024), float32] */;
  %1169 = multiply(%1164, %1128) /* ty=Tensor[(1, 1024), float32] */;
  %1170 = multiply(%1167, %1168) /* ty=Tensor[(1, 1024), float32] */;
  %1171 = add(%1169, %1170) /* ty=Tensor[(1, 1024), float32] */;
  %1172 = sigmoid(%1162) /* ty=Tensor[(1, 1024), float32] */;
  %1173 = tanh(%1171) /* ty=Tensor[(1, 1024), float32] */;
  %1174 = %555.14 /* ty=Tensor[(1, 240), float32] */;
  %1175 = (%1174, %1152) /* ty=(Tensor[(1, 240), float32], Tensor[(1, 1024), float32]) */;
  %1176 = (%encoder.pre_rnn.lstm.weight_ih_l0, %encoder.pre_rnn.lstm.weight_hh_l0) /* ty=(Tensor[(4096, 240), float32], Tensor[(4096, 1024), float32]) */;
  %1177 = concatenate(%1175, axis=1) /* ty=Tensor[(1, 1264), float32] */;
  %1178 = concatenate(%1176, axis=1) /* ty=Tensor[(4096, 1264), float32] */;
  %1179 = nn.dense(%1177, %1178, units=None) /* ty=Tensor[(1, 4096), float32] */;
  %1180 = add(%1179, %encoder.pre_rnn.lstm.bias_ih_l0) /* ty=Tensor[(1, 4096), float32] */;
  %1181 = add(%1180, %encoder.pre_rnn.lstm.bias_hh_l0) /* ty=Tensor[(1, 4096), float32] */;
  %1182 = split(%1181, indices_or_sections=4, axis=-1) /* ty=(Tensor[(1, 1024), float32], Tensor[(1, 1024), float32], Tensor[(1, 1024), float32], Tensor[(1, 1024), float32]) */;
  %1183 = %1182.3 /* ty=Tensor[(1, 1024), float32] */;
  %1184 = %1182.1 /* ty=Tensor[(1, 1024), float32] */;
  %1185 = sigmoid(%1184) /* ty=Tensor[(1, 1024), float32] */;
  %1186 = %1182.0 /* ty=Tensor[(1, 1024), float32] */;
  %1187 = %1182.2 /* ty=Tensor[(1, 1024), float32] */;
  %1188 = sigmoid(%1186) /* ty=Tensor[(1, 1024), float32] */;
  %1189 = tanh(%1187) /* ty=Tensor[(1, 1024), float32] */;
  %1190 = multiply(%1185, %1149) /* ty=Tensor[(1, 1024), float32] */;
  %1191 = multiply(%1188, %1189) /* ty=Tensor[(1, 1024), float32] */;
  %1192 = add(%1190, %1191) /* ty=Tensor[(1, 1024), float32] */;
  %1193 = sigmoid(%1183) /* ty=Tensor[(1, 1024), float32] */;
  %1194 = tanh(%1192) /* ty=Tensor[(1, 1024), float32] */;
  %1195 = multiply(%1193, %1194) /* ty=Tensor[(1, 1024), float32] */;
  %1196 = multiply(%1172, %1173) /* ty=Tensor[(1, 1024), float32] */;
  %1197 = (%1195, %1196) /* ty=(Tensor[(1, 1024), float32], Tensor[(1, 1024), float32]) */;
  %1198 = (%encoder.pre_rnn.lstm.weight_ih_l1, %encoder.pre_rnn.lstm.weight_hh_l1) /* ty=(Tensor[(4096, 1024), float32], Tensor[(4096, 1024), float32]) */;
  %1199 = concatenate(%1197, axis=1) /* ty=Tensor[(1, 2048), float32] */;
  %1200 = concatenate(%1198, axis=1) /* ty=Tensor[(4096, 2048), float32] */;
  %1201 = nn.dense(%1199, %1200, units=None) /* ty=Tensor[(1, 4096), float32] */;
  %1202 = add(%1201, %encoder.pre_rnn.lstm.bias_ih_l1) /* ty=Tensor[(1, 4096), float32] */;
  %1203 = add(%1202, %encoder.pre_rnn.lstm.bias_hh_l1) /* ty=Tensor[(1, 4096), float32] */;
  %1204 = split(%1203, indices_or_sections=4, axis=-1) /* ty=(Tensor[(1, 1024), float32], Tensor[(1, 1024), float32], Tensor[(1, 1024), float32], Tensor[(1, 1024), float32]) */;
  %1205 = %1204.3 /* ty=Tensor[(1, 1024), float32] */;
  %1206 = %1204.1 /* ty=Tensor[(1, 1024), float32] */;
  %1207 = sigmoid(%1206) /* ty=Tensor[(1, 1024), float32] */;
  %1208 = %1204.0 /* ty=Tensor[(1, 1024), float32] */;
  %1209 = %1204.2 /* ty=Tensor[(1, 1024), float32] */;
  %1210 = sigmoid(%1208) /* ty=Tensor[(1, 1024), float32] */;
  %1211 = tanh(%1209) /* ty=Tensor[(1, 1024), float32] */;
  %1212 = multiply(%1207, %1171) /* ty=Tensor[(1, 1024), float32] */;
  %1213 = multiply(%1210, %1211) /* ty=Tensor[(1, 1024), float32] */;
  %1214 = add(%1212, %1213) /* ty=Tensor[(1, 1024), float32] */;
  %1215 = sigmoid(%1205) /* ty=Tensor[(1, 1024), float32] */;
  %1216 = tanh(%1214) /* ty=Tensor[(1, 1024), float32] */;
  %1217 = %555.15 /* ty=Tensor[(1, 240), float32] */;
  %1218 = (%1217, %1195) /* ty=(Tensor[(1, 240), float32], Tensor[(1, 1024), float32]) */;
  %1219 = (%encoder.pre_rnn.lstm.weight_ih_l0, %encoder.pre_rnn.lstm.weight_hh_l0) /* ty=(Tensor[(4096, 240), float32], Tensor[(4096, 1024), float32]) */;
  %1220 = concatenate(%1218, axis=1) /* ty=Tensor[(1, 1264), float32] */;
  %1221 = concatenate(%1219, axis=1) /* ty=Tensor[(4096, 1264), float32] */;
  %1222 = nn.dense(%1220, %1221, units=None) /* ty=Tensor[(1, 4096), float32] */;
  %1223 = add(%1222, %encoder.pre_rnn.lstm.bias_ih_l0) /* ty=Tensor[(1, 4096), float32] */;
  %1224 = add(%1223, %encoder.pre_rnn.lstm.bias_hh_l0) /* ty=Tensor[(1, 4096), float32] */;
  %1225 = split(%1224, indices_or_sections=4, axis=-1) /* ty=(Tensor[(1, 1024), float32], Tensor[(1, 1024), float32], Tensor[(1, 1024), float32], Tensor[(1, 1024), float32]) */;
  %1226 = %1225.3 /* ty=Tensor[(1, 1024), float32] */;
  %1227 = %1225.1 /* ty=Tensor[(1, 1024), float32] */;
  %1228 = sigmoid(%1227) /* ty=Tensor[(1, 1024), float32] */;
  %1229 = %1225.0 /* ty=Tensor[(1, 1024), float32] */;
  %1230 = %1225.2 /* ty=Tensor[(1, 1024), float32] */;
  %1231 = sigmoid(%1229) /* ty=Tensor[(1, 1024), float32] */;
  %1232 = tanh(%1230) /* ty=Tensor[(1, 1024), float32] */;
  %1233 = multiply(%1228, %1192) /* ty=Tensor[(1, 1024), float32] */;
  %1234 = multiply(%1231, %1232) /* ty=Tensor[(1, 1024), float32] */;
  %1235 = add(%1233, %1234) /* ty=Tensor[(1, 1024), float32] */;
  %1236 = sigmoid(%1226) /* ty=Tensor[(1, 1024), float32] */;
  %1237 = tanh(%1235) /* ty=Tensor[(1, 1024), float32] */;
  %1238 = multiply(%1236, %1237) /* ty=Tensor[(1, 1024), float32] */;
  %1239 = multiply(%1215, %1216) /* ty=Tensor[(1, 1024), float32] */;
  %1240 = (%1238, %1239) /* ty=(Tensor[(1, 1024), float32], Tensor[(1, 1024), float32]) */;
  %1241 = (%encoder.pre_rnn.lstm.weight_ih_l1, %encoder.pre_rnn.lstm.weight_hh_l1) /* ty=(Tensor[(4096, 1024), float32], Tensor[(4096, 1024), float32]) */;
  %1242 = concatenate(%1240, axis=1) /* ty=Tensor[(1, 2048), float32] */;
  %1243 = concatenate(%1241, axis=1) /* ty=Tensor[(4096, 2048), float32] */;
  %1244 = nn.dense(%1242, %1243, units=None) /* ty=Tensor[(1, 4096), float32] */;
  %1245 = add(%1244, %encoder.pre_rnn.lstm.bias_ih_l1) /* ty=Tensor[(1, 4096), float32] */;
  %1246 = add(%1245, %encoder.pre_rnn.lstm.bias_hh_l1) /* ty=Tensor[(1, 4096), float32] */;
  %1247 = split(%1246, indices_or_sections=4, axis=-1) /* ty=(Tensor[(1, 1024), float32], Tensor[(1, 1024), float32], Tensor[(1, 1024), float32], Tensor[(1, 1024), float32]) */;
  %1248 = %1247.3 /* ty=Tensor[(1, 1024), float32] */;
  %1249 = %1247.1 /* ty=Tensor[(1, 1024), float32] */;
  %1250 = sigmoid(%1249) /* ty=Tensor[(1, 1024), float32] */;
  %1251 = %1247.0 /* ty=Tensor[(1, 1024), float32] */;
  %1252 = %1247.2 /* ty=Tensor[(1, 1024), float32] */;
  %1253 = sigmoid(%1251) /* ty=Tensor[(1, 1024), float32] */;
  %1254 = tanh(%1252) /* ty=Tensor[(1, 1024), float32] */;
  %1255 = multiply(%1250, %1214) /* ty=Tensor[(1, 1024), float32] */;
  %1256 = multiply(%1253, %1254) /* ty=Tensor[(1, 1024), float32] */;
  %1257 = add(%1255, %1256) /* ty=Tensor[(1, 1024), float32] */;
  %1258 = sigmoid(%1248) /* ty=Tensor[(1, 1024), float32] */;
  %1259 = tanh(%1257) /* ty=Tensor[(1, 1024), float32] */;
  %1260 = %555.16 /* ty=Tensor[(1, 240), float32] */;
  %1261 = (%1260, %1238) /* ty=(Tensor[(1, 240), float32], Tensor[(1, 1024), float32]) */;
  %1262 = (%encoder.pre_rnn.lstm.weight_ih_l0, %encoder.pre_rnn.lstm.weight_hh_l0) /* ty=(Tensor[(4096, 240), float32], Tensor[(4096, 1024), float32]) */;
  %1263 = concatenate(%1261, axis=1) /* ty=Tensor[(1, 1264), float32] */;
  %1264 = concatenate(%1262, axis=1) /* ty=Tensor[(4096, 1264), float32] */;
  %1265 = nn.dense(%1263, %1264, units=None) /* ty=Tensor[(1, 4096), float32] */;
  %1266 = add(%1265, %encoder.pre_rnn.lstm.bias_ih_l0) /* ty=Tensor[(1, 4096), float32] */;
  %1267 = add(%1266, %encoder.pre_rnn.lstm.bias_hh_l0) /* ty=Tensor[(1, 4096), float32] */;
  %1268 = split(%1267, indices_or_sections=4, axis=-1) /* ty=(Tensor[(1, 1024), float32], Tensor[(1, 1024), float32], Tensor[(1, 1024), float32], Tensor[(1, 1024), float32]) */;
  %1269 = %1268.3 /* ty=Tensor[(1, 1024), float32] */;
  %1270 = %1268.1 /* ty=Tensor[(1, 1024), float32] */;
  %1271 = sigmoid(%1270) /* ty=Tensor[(1, 1024), float32] */;
  %1272 = %1268.0 /* ty=Tensor[(1, 1024), float32] */;
  %1273 = %1268.2 /* ty=Tensor[(1, 1024), float32] */;
  %1274 = sigmoid(%1272) /* ty=Tensor[(1, 1024), float32] */;
  %1275 = tanh(%1273) /* ty=Tensor[(1, 1024), float32] */;
  %1276 = multiply(%1271, %1235) /* ty=Tensor[(1, 1024), float32] */;
  %1277 = multiply(%1274, %1275) /* ty=Tensor[(1, 1024), float32] */;
  %1278 = add(%1276, %1277) /* ty=Tensor[(1, 1024), float32] */;
  %1279 = sigmoid(%1269) /* ty=Tensor[(1, 1024), float32] */;
  %1280 = tanh(%1278) /* ty=Tensor[(1, 1024), float32] */;
  %1281 = multiply(%1279, %1280) /* ty=Tensor[(1, 1024), float32] */;
  %1282 = multiply(%1258, %1259) /* ty=Tensor[(1, 1024), float32] */;
  %1283 = (%1281, %1282) /* ty=(Tensor[(1, 1024), float32], Tensor[(1, 1024), float32]) */;
  %1284 = (%encoder.pre_rnn.lstm.weight_ih_l1, %encoder.pre_rnn.lstm.weight_hh_l1) /* ty=(Tensor[(4096, 1024), float32], Tensor[(4096, 1024), float32]) */;
  %1285 = concatenate(%1283, axis=1) /* ty=Tensor[(1, 2048), float32] */;
  %1286 = concatenate(%1284, axis=1) /* ty=Tensor[(4096, 2048), float32] */;
  %1287 = nn.dense(%1285, %1286, units=None) /* ty=Tensor[(1, 4096), float32] */;
  %1288 = add(%1287, %encoder.pre_rnn.lstm.bias_ih_l1) /* ty=Tensor[(1, 4096), float32] */;
  %1289 = add(%1288, %encoder.pre_rnn.lstm.bias_hh_l1) /* ty=Tensor[(1, 4096), float32] */;
  %1290 = split(%1289, indices_or_sections=4, axis=-1) /* ty=(Tensor[(1, 1024), float32], Tensor[(1, 1024), float32], Tensor[(1, 1024), float32], Tensor[(1, 1024), float32]) */;
  %1291 = %1290.3 /* ty=Tensor[(1, 1024), float32] */;
  %1292 = %1290.1 /* ty=Tensor[(1, 1024), float32] */;
  %1293 = sigmoid(%1292) /* ty=Tensor[(1, 1024), float32] */;
  %1294 = %1290.0 /* ty=Tensor[(1, 1024), float32] */;
  %1295 = %1290.2 /* ty=Tensor[(1, 1024), float32] */;
  %1296 = sigmoid(%1294) /* ty=Tensor[(1, 1024), float32] */;
  %1297 = tanh(%1295) /* ty=Tensor[(1, 1024), float32] */;
  %1298 = multiply(%1293, %1257) /* ty=Tensor[(1, 1024), float32] */;
  %1299 = multiply(%1296, %1297) /* ty=Tensor[(1, 1024), float32] */;
  %1300 = add(%1298, %1299) /* ty=Tensor[(1, 1024), float32] */;
  %1301 = sigmoid(%1291) /* ty=Tensor[(1, 1024), float32] */;
  %1302 = tanh(%1300) /* ty=Tensor[(1, 1024), float32] */;
  %1303 = %555.17 /* ty=Tensor[(1, 240), float32] */;
  %1304 = (%1303, %1281) /* ty=(Tensor[(1, 240), float32], Tensor[(1, 1024), float32]) */;
  %1305 = (%encoder.pre_rnn.lstm.weight_ih_l0, %encoder.pre_rnn.lstm.weight_hh_l0) /* ty=(Tensor[(4096, 240), float32], Tensor[(4096, 1024), float32]) */;
  %1306 = concatenate(%1304, axis=1) /* ty=Tensor[(1, 1264), float32] */;
  %1307 = concatenate(%1305, axis=1) /* ty=Tensor[(4096, 1264), float32] */;
  %1308 = nn.dense(%1306, %1307, units=None) /* ty=Tensor[(1, 4096), float32] */;
  %1309 = add(%1308, %encoder.pre_rnn.lstm.bias_ih_l0) /* ty=Tensor[(1, 4096), float32] */;
  %1310 = add(%1309, %encoder.pre_rnn.lstm.bias_hh_l0) /* ty=Tensor[(1, 4096), float32] */;
  %1311 = split(%1310, indices_or_sections=4, axis=-1) /* ty=(Tensor[(1, 1024), float32], Tensor[(1, 1024), float32], Tensor[(1, 1024), float32], Tensor[(1, 1024), float32]) */;
  %1312 = %1311.3 /* ty=Tensor[(1, 1024), float32] */;
  %1313 = %1311.1 /* ty=Tensor[(1, 1024), float32] */;
  %1314 = sigmoid(%1313) /* ty=Tensor[(1, 1024), float32] */;
  %1315 = %1311.0 /* ty=Tensor[(1, 1024), float32] */;
  %1316 = %1311.2 /* ty=Tensor[(1, 1024), float32] */;
  %1317 = sigmoid(%1315) /* ty=Tensor[(1, 1024), float32] */;
  %1318 = tanh(%1316) /* ty=Tensor[(1, 1024), float32] */;
  %1319 = multiply(%1314, %1278) /* ty=Tensor[(1, 1024), float32] */;
  %1320 = multiply(%1317, %1318) /* ty=Tensor[(1, 1024), float32] */;
  %1321 = add(%1319, %1320) /* ty=Tensor[(1, 1024), float32] */;
  %1322 = sigmoid(%1312) /* ty=Tensor[(1, 1024), float32] */;
  %1323 = tanh(%1321) /* ty=Tensor[(1, 1024), float32] */;
  %1324 = multiply(%1322, %1323) /* ty=Tensor[(1, 1024), float32] */;
  %1325 = multiply(%1301, %1302) /* ty=Tensor[(1, 1024), float32] */;
  %1326 = (%1324, %1325) /* ty=(Tensor[(1, 1024), float32], Tensor[(1, 1024), float32]) */;
  %1327 = (%encoder.pre_rnn.lstm.weight_ih_l1, %encoder.pre_rnn.lstm.weight_hh_l1) /* ty=(Tensor[(4096, 1024), float32], Tensor[(4096, 1024), float32]) */;
  %1328 = concatenate(%1326, axis=1) /* ty=Tensor[(1, 2048), float32] */;
  %1329 = concatenate(%1327, axis=1) /* ty=Tensor[(4096, 2048), float32] */;
  %1330 = nn.dense(%1328, %1329, units=None) /* ty=Tensor[(1, 4096), float32] */;
  %1331 = add(%1330, %encoder.pre_rnn.lstm.bias_ih_l1) /* ty=Tensor[(1, 4096), float32] */;
  %1332 = add(%1331, %encoder.pre_rnn.lstm.bias_hh_l1) /* ty=Tensor[(1, 4096), float32] */;
  %1333 = split(%1332, indices_or_sections=4, axis=-1) /* ty=(Tensor[(1, 1024), float32], Tensor[(1, 1024), float32], Tensor[(1, 1024), float32], Tensor[(1, 1024), float32]) */;
  %1334 = %1333.3 /* ty=Tensor[(1, 1024), float32] */;
  %1335 = %1333.1 /* ty=Tensor[(1, 1024), float32] */;
  %1336 = sigmoid(%1335) /* ty=Tensor[(1, 1024), float32] */;
  %1337 = %1333.0 /* ty=Tensor[(1, 1024), float32] */;
  %1338 = %1333.2 /* ty=Tensor[(1, 1024), float32] */;
  %1339 = sigmoid(%1337) /* ty=Tensor[(1, 1024), float32] */;
  %1340 = tanh(%1338) /* ty=Tensor[(1, 1024), float32] */;
  %1341 = multiply(%1336, %1300) /* ty=Tensor[(1, 1024), float32] */;
  %1342 = multiply(%1339, %1340) /* ty=Tensor[(1, 1024), float32] */;
  %1343 = add(%1341, %1342) /* ty=Tensor[(1, 1024), float32] */;
  %1344 = sigmoid(%1334) /* ty=Tensor[(1, 1024), float32] */;
  %1345 = tanh(%1343) /* ty=Tensor[(1, 1024), float32] */;
  %1346 = %555.18 /* ty=Tensor[(1, 240), float32] */;
  %1347 = (%1346, %1324) /* ty=(Tensor[(1, 240), float32], Tensor[(1, 1024), float32]) */;
  %1348 = (%encoder.pre_rnn.lstm.weight_ih_l0, %encoder.pre_rnn.lstm.weight_hh_l0) /* ty=(Tensor[(4096, 240), float32], Tensor[(4096, 1024), float32]) */;
  %1349 = concatenate(%1347, axis=1) /* ty=Tensor[(1, 1264), float32] */;
  %1350 = concatenate(%1348, axis=1) /* ty=Tensor[(4096, 1264), float32] */;
  %1351 = nn.dense(%1349, %1350, units=None) /* ty=Tensor[(1, 4096), float32] */;
  %1352 = add(%1351, %encoder.pre_rnn.lstm.bias_ih_l0) /* ty=Tensor[(1, 4096), float32] */;
  %1353 = add(%1352, %encoder.pre_rnn.lstm.bias_hh_l0) /* ty=Tensor[(1, 4096), float32] */;
  %1354 = split(%1353, indices_or_sections=4, axis=-1) /* ty=(Tensor[(1, 1024), float32], Tensor[(1, 1024), float32], Tensor[(1, 1024), float32], Tensor[(1, 1024), float32]) */;
  %1355 = %1354.3 /* ty=Tensor[(1, 1024), float32] */;
  %1356 = %1354.1 /* ty=Tensor[(1, 1024), float32] */;
  %1357 = sigmoid(%1356) /* ty=Tensor[(1, 1024), float32] */;
  %1358 = %1354.0 /* ty=Tensor[(1, 1024), float32] */;
  %1359 = %1354.2 /* ty=Tensor[(1, 1024), float32] */;
  %1360 = sigmoid(%1358) /* ty=Tensor[(1, 1024), float32] */;
  %1361 = tanh(%1359) /* ty=Tensor[(1, 1024), float32] */;
  %1362 = multiply(%1357, %1321) /* ty=Tensor[(1, 1024), float32] */;
  %1363 = multiply(%1360, %1361) /* ty=Tensor[(1, 1024), float32] */;
  %1364 = add(%1362, %1363) /* ty=Tensor[(1, 1024), float32] */;
  %1365 = sigmoid(%1355) /* ty=Tensor[(1, 1024), float32] */;
  %1366 = tanh(%1364) /* ty=Tensor[(1, 1024), float32] */;
  %1367 = multiply(%1365, %1366) /* ty=Tensor[(1, 1024), float32] */;
  %1368 = multiply(%1344, %1345) /* ty=Tensor[(1, 1024), float32] */;
  %1369 = (%1367, %1368) /* ty=(Tensor[(1, 1024), float32], Tensor[(1, 1024), float32]) */;
  %1370 = (%encoder.pre_rnn.lstm.weight_ih_l1, %encoder.pre_rnn.lstm.weight_hh_l1) /* ty=(Tensor[(4096, 1024), float32], Tensor[(4096, 1024), float32]) */;
  %1371 = concatenate(%1369, axis=1) /* ty=Tensor[(1, 2048), float32] */;
  %1372 = concatenate(%1370, axis=1) /* ty=Tensor[(4096, 2048), float32] */;
  %1373 = nn.dense(%1371, %1372, units=None) /* ty=Tensor[(1, 4096), float32] */;
  %1374 = add(%1373, %encoder.pre_rnn.lstm.bias_ih_l1) /* ty=Tensor[(1, 4096), float32] */;
  %1375 = add(%1374, %encoder.pre_rnn.lstm.bias_hh_l1) /* ty=Tensor[(1, 4096), float32] */;
  %1376 = split(%1375, indices_or_sections=4, axis=-1) /* ty=(Tensor[(1, 1024), float32], Tensor[(1, 1024), float32], Tensor[(1, 1024), float32], Tensor[(1, 1024), float32]) */;
  %1377 = %1376.3 /* ty=Tensor[(1, 1024), float32] */;
  %1378 = %1376.1 /* ty=Tensor[(1, 1024), float32] */;
  %1379 = sigmoid(%1378) /* ty=Tensor[(1, 1024), float32] */;
  %1380 = %1376.0 /* ty=Tensor[(1, 1024), float32] */;
  %1381 = %1376.2 /* ty=Tensor[(1, 1024), float32] */;
  %1382 = sigmoid(%1380) /* ty=Tensor[(1, 1024), float32] */;
  %1383 = tanh(%1381) /* ty=Tensor[(1, 1024), float32] */;
  %1384 = multiply(%1379, %1343) /* ty=Tensor[(1, 1024), float32] */;
  %1385 = multiply(%1382, %1383) /* ty=Tensor[(1, 1024), float32] */;
  %1386 = add(%1384, %1385) /* ty=Tensor[(1, 1024), float32] */;
  %1387 = sigmoid(%1377) /* ty=Tensor[(1, 1024), float32] */;
  %1388 = tanh(%1386) /* ty=Tensor[(1, 1024), float32] */;
  %1389 = %555.19 /* ty=Tensor[(1, 240), float32] */;
  %1390 = (%1389, %1367) /* ty=(Tensor[(1, 240), float32], Tensor[(1, 1024), float32]) */;
  %1391 = (%encoder.pre_rnn.lstm.weight_ih_l0, %encoder.pre_rnn.lstm.weight_hh_l0) /* ty=(Tensor[(4096, 240), float32], Tensor[(4096, 1024), float32]) */;
  %1392 = concatenate(%1390, axis=1) /* ty=Tensor[(1, 1264), float32] */;
  %1393 = concatenate(%1391, axis=1) /* ty=Tensor[(4096, 1264), float32] */;
  %1394 = nn.dense(%1392, %1393, units=None) /* ty=Tensor[(1, 4096), float32] */;
  %1395 = add(%1394, %encoder.pre_rnn.lstm.bias_ih_l0) /* ty=Tensor[(1, 4096), float32] */;
  %1396 = add(%1395, %encoder.pre_rnn.lstm.bias_hh_l0) /* ty=Tensor[(1, 4096), float32] */;
  %1397 = split(%1396, indices_or_sections=4, axis=-1) /* ty=(Tensor[(1, 1024), float32], Tensor[(1, 1024), float32], Tensor[(1, 1024), float32], Tensor[(1, 1024), float32]) */;
  %1398 = %1397.3 /* ty=Tensor[(1, 1024), float32] */;
  %1399 = %1397.1 /* ty=Tensor[(1, 1024), float32] */;
  %1400 = sigmoid(%1399) /* ty=Tensor[(1, 1024), float32] */;
  %1401 = %1397.0 /* ty=Tensor[(1, 1024), float32] */;
  %1402 = %1397.2 /* ty=Tensor[(1, 1024), float32] */;
  %1403 = sigmoid(%1401) /* ty=Tensor[(1, 1024), float32] */;
  %1404 = tanh(%1402) /* ty=Tensor[(1, 1024), float32] */;
  %1405 = multiply(%1400, %1364) /* ty=Tensor[(1, 1024), float32] */;
  %1406 = multiply(%1403, %1404) /* ty=Tensor[(1, 1024), float32] */;
  %1407 = add(%1405, %1406) /* ty=Tensor[(1, 1024), float32] */;
  %1408 = sigmoid(%1398) /* ty=Tensor[(1, 1024), float32] */;
  %1409 = tanh(%1407) /* ty=Tensor[(1, 1024), float32] */;
  %1410 = multiply(%1408, %1409) /* ty=Tensor[(1, 1024), float32] */;
  %1411 = multiply(%1387, %1388) /* ty=Tensor[(1, 1024), float32] */;
  %1412 = (%1410, %1411) /* ty=(Tensor[(1, 1024), float32], Tensor[(1, 1024), float32]) */;
  %1413 = (%encoder.pre_rnn.lstm.weight_ih_l1, %encoder.pre_rnn.lstm.weight_hh_l1) /* ty=(Tensor[(4096, 1024), float32], Tensor[(4096, 1024), float32]) */;
  %1414 = concatenate(%1412, axis=1) /* ty=Tensor[(1, 2048), float32] */;
  %1415 = concatenate(%1413, axis=1) /* ty=Tensor[(4096, 2048), float32] */;
  %1416 = nn.dense(%1414, %1415, units=None) /* ty=Tensor[(1, 4096), float32] */;
  %1417 = add(%1416, %encoder.pre_rnn.lstm.bias_ih_l1) /* ty=Tensor[(1, 4096), float32] */;
  %1418 = add(%1417, %encoder.pre_rnn.lstm.bias_hh_l1) /* ty=Tensor[(1, 4096), float32] */;
  %1419 = split(%1418, indices_or_sections=4, axis=-1) /* ty=(Tensor[(1, 1024), float32], Tensor[(1, 1024), float32], Tensor[(1, 1024), float32], Tensor[(1, 1024), float32]) */;
  %1420 = %1419.3 /* ty=Tensor[(1, 1024), float32] */;
  %1421 = %1419.1 /* ty=Tensor[(1, 1024), float32] */;
  %1422 = sigmoid(%1421) /* ty=Tensor[(1, 1024), float32] */;
  %1423 = %1419.0 /* ty=Tensor[(1, 1024), float32] */;
  %1424 = %1419.2 /* ty=Tensor[(1, 1024), float32] */;
  %1425 = sigmoid(%1423) /* ty=Tensor[(1, 1024), float32] */;
  %1426 = tanh(%1424) /* ty=Tensor[(1, 1024), float32] */;
  %1427 = multiply(%1422, %1386) /* ty=Tensor[(1, 1024), float32] */;
  %1428 = multiply(%1425, %1426) /* ty=Tensor[(1, 1024), float32] */;
  %1429 = add(%1427, %1428) /* ty=Tensor[(1, 1024), float32] */;
  %1430 = sigmoid(%1420) /* ty=Tensor[(1, 1024), float32] */;
  %1431 = tanh(%1429) /* ty=Tensor[(1, 1024), float32] */;
  %1432 = %555.20 /* ty=Tensor[(1, 240), float32] */;
  %1433 = (%1432, %1410) /* ty=(Tensor[(1, 240), float32], Tensor[(1, 1024), float32]) */;
  %1434 = (%encoder.pre_rnn.lstm.weight_ih_l0, %encoder.pre_rnn.lstm.weight_hh_l0) /* ty=(Tensor[(4096, 240), float32], Tensor[(4096, 1024), float32]) */;
  %1435 = concatenate(%1433, axis=1) /* ty=Tensor[(1, 1264), float32] */;
  %1436 = concatenate(%1434, axis=1) /* ty=Tensor[(4096, 1264), float32] */;
  %1437 = nn.dense(%1435, %1436, units=None) /* ty=Tensor[(1, 4096), float32] */;
  %1438 = add(%1437, %encoder.pre_rnn.lstm.bias_ih_l0) /* ty=Tensor[(1, 4096), float32] */;
  %1439 = add(%1438, %encoder.pre_rnn.lstm.bias_hh_l0) /* ty=Tensor[(1, 4096), float32] */;
  %1440 = split(%1439, indices_or_sections=4, axis=-1) /* ty=(Tensor[(1, 1024), float32], Tensor[(1, 1024), float32], Tensor[(1, 1024), float32], Tensor[(1, 1024), float32]) */;
  %1441 = %1440.3 /* ty=Tensor[(1, 1024), float32] */;
  %1442 = %1440.1 /* ty=Tensor[(1, 1024), float32] */;
  %1443 = sigmoid(%1442) /* ty=Tensor[(1, 1024), float32] */;
  %1444 = %1440.0 /* ty=Tensor[(1, 1024), float32] */;
  %1445 = %1440.2 /* ty=Tensor[(1, 1024), float32] */;
  %1446 = sigmoid(%1444) /* ty=Tensor[(1, 1024), float32] */;
  %1447 = tanh(%1445) /* ty=Tensor[(1, 1024), float32] */;
  %1448 = multiply(%1443, %1407) /* ty=Tensor[(1, 1024), float32] */;
  %1449 = multiply(%1446, %1447) /* ty=Tensor[(1, 1024), float32] */;
  %1450 = add(%1448, %1449) /* ty=Tensor[(1, 1024), float32] */;
  %1451 = sigmoid(%1441) /* ty=Tensor[(1, 1024), float32] */;
  %1452 = tanh(%1450) /* ty=Tensor[(1, 1024), float32] */;
  %1453 = multiply(%1451, %1452) /* ty=Tensor[(1, 1024), float32] */;
  %1454 = multiply(%1430, %1431) /* ty=Tensor[(1, 1024), float32] */;
  %1455 = (%1453, %1454) /* ty=(Tensor[(1, 1024), float32], Tensor[(1, 1024), float32]) */;
  %1456 = (%encoder.pre_rnn.lstm.weight_ih_l1, %encoder.pre_rnn.lstm.weight_hh_l1) /* ty=(Tensor[(4096, 1024), float32], Tensor[(4096, 1024), float32]) */;
  %1457 = concatenate(%1455, axis=1) /* ty=Tensor[(1, 2048), float32] */;
  %1458 = concatenate(%1456, axis=1) /* ty=Tensor[(4096, 2048), float32] */;
  %1459 = nn.dense(%1457, %1458, units=None) /* ty=Tensor[(1, 4096), float32] */;
  %1460 = add(%1459, %encoder.pre_rnn.lstm.bias_ih_l1) /* ty=Tensor[(1, 4096), float32] */;
  %1461 = add(%1460, %encoder.pre_rnn.lstm.bias_hh_l1) /* ty=Tensor[(1, 4096), float32] */;
  %1462 = split(%1461, indices_or_sections=4, axis=-1) /* ty=(Tensor[(1, 1024), float32], Tensor[(1, 1024), float32], Tensor[(1, 1024), float32], Tensor[(1, 1024), float32]) */;
  %1463 = %1462.3 /* ty=Tensor[(1, 1024), float32] */;
  %1464 = %1462.1 /* ty=Tensor[(1, 1024), float32] */;
  %1465 = sigmoid(%1464) /* ty=Tensor[(1, 1024), float32] */;
  %1466 = %1462.0 /* ty=Tensor[(1, 1024), float32] */;
  %1467 = %1462.2 /* ty=Tensor[(1, 1024), float32] */;
  %1468 = sigmoid(%1466) /* ty=Tensor[(1, 1024), float32] */;
  %1469 = tanh(%1467) /* ty=Tensor[(1, 1024), float32] */;
  %1470 = multiply(%1465, %1429) /* ty=Tensor[(1, 1024), float32] */;
  %1471 = multiply(%1468, %1469) /* ty=Tensor[(1, 1024), float32] */;
  %1472 = add(%1470, %1471) /* ty=Tensor[(1, 1024), float32] */;
  %1473 = sigmoid(%1463) /* ty=Tensor[(1, 1024), float32] */;
  %1474 = tanh(%1472) /* ty=Tensor[(1, 1024), float32] */;
  %1475 = %555.21 /* ty=Tensor[(1, 240), float32] */;
  %1476 = (%1475, %1453) /* ty=(Tensor[(1, 240), float32], Tensor[(1, 1024), float32]) */;
  %1477 = (%encoder.pre_rnn.lstm.weight_ih_l0, %encoder.pre_rnn.lstm.weight_hh_l0) /* ty=(Tensor[(4096, 240), float32], Tensor[(4096, 1024), float32]) */;
  %1478 = concatenate(%1476, axis=1) /* ty=Tensor[(1, 1264), float32] */;
  %1479 = concatenate(%1477, axis=1) /* ty=Tensor[(4096, 1264), float32] */;
  %1480 = nn.dense(%1478, %1479, units=None) /* ty=Tensor[(1, 4096), float32] */;
  %1481 = add(%1480, %encoder.pre_rnn.lstm.bias_ih_l0) /* ty=Tensor[(1, 4096), float32] */;
  %1482 = add(%1481, %encoder.pre_rnn.lstm.bias_hh_l0) /* ty=Tensor[(1, 4096), float32] */;
  %1483 = split(%1482, indices_or_sections=4, axis=-1) /* ty=(Tensor[(1, 1024), float32], Tensor[(1, 1024), float32], Tensor[(1, 1024), float32], Tensor[(1, 1024), float32]) */;
  %1484 = %1483.3 /* ty=Tensor[(1, 1024), float32] */;
  %1485 = %1483.1 /* ty=Tensor[(1, 1024), float32] */;
  %1486 = sigmoid(%1485) /* ty=Tensor[(1, 1024), float32] */;
  %1487 = %1483.0 /* ty=Tensor[(1, 1024), float32] */;
  %1488 = %1483.2 /* ty=Tensor[(1, 1024), float32] */;
  %1489 = sigmoid(%1487) /* ty=Tensor[(1, 1024), float32] */;
  %1490 = tanh(%1488) /* ty=Tensor[(1, 1024), float32] */;
  %1491 = multiply(%1486, %1450) /* ty=Tensor[(1, 1024), float32] */;
  %1492 = multiply(%1489, %1490) /* ty=Tensor[(1, 1024), float32] */;
  %1493 = add(%1491, %1492) /* ty=Tensor[(1, 1024), float32] */;
  %1494 = sigmoid(%1484) /* ty=Tensor[(1, 1024), float32] */;
  %1495 = tanh(%1493) /* ty=Tensor[(1, 1024), float32] */;
  %1496 = multiply(%1494, %1495) /* ty=Tensor[(1, 1024), float32] */;
  %1497 = multiply(%1473, %1474) /* ty=Tensor[(1, 1024), float32] */;
  %1498 = (%1496, %1497) /* ty=(Tensor[(1, 1024), float32], Tensor[(1, 1024), float32]) */;
  %1499 = (%encoder.pre_rnn.lstm.weight_ih_l1, %encoder.pre_rnn.lstm.weight_hh_l1) /* ty=(Tensor[(4096, 1024), float32], Tensor[(4096, 1024), float32]) */;
  %1500 = concatenate(%1498, axis=1) /* ty=Tensor[(1, 2048), float32] */;
  %1501 = concatenate(%1499, axis=1) /* ty=Tensor[(4096, 2048), float32] */;
  %1502 = nn.dense(%1500, %1501, units=None) /* ty=Tensor[(1, 4096), float32] */;
  %1503 = add(%1502, %encoder.pre_rnn.lstm.bias_ih_l1) /* ty=Tensor[(1, 4096), float32] */;
  %1504 = add(%1503, %encoder.pre_rnn.lstm.bias_hh_l1) /* ty=Tensor[(1, 4096), float32] */;
  %1505 = split(%1504, indices_or_sections=4, axis=-1) /* ty=(Tensor[(1, 1024), float32], Tensor[(1, 1024), float32], Tensor[(1, 1024), float32], Tensor[(1, 1024), float32]) */;
  %1506 = %1505.3 /* ty=Tensor[(1, 1024), float32] */;
  %1507 = %1505.1 /* ty=Tensor[(1, 1024), float32] */;
  %1508 = sigmoid(%1507) /* ty=Tensor[(1, 1024), float32] */;
  %1509 = %1505.0 /* ty=Tensor[(1, 1024), float32] */;
  %1510 = %1505.2 /* ty=Tensor[(1, 1024), float32] */;
  %1511 = sigmoid(%1509) /* ty=Tensor[(1, 1024), float32] */;
  %1512 = tanh(%1510) /* ty=Tensor[(1, 1024), float32] */;
  %1513 = multiply(%1508, %1472) /* ty=Tensor[(1, 1024), float32] */;
  %1514 = multiply(%1511, %1512) /* ty=Tensor[(1, 1024), float32] */;
  %1515 = add(%1513, %1514) /* ty=Tensor[(1, 1024), float32] */;
  %1516 = sigmoid(%1506) /* ty=Tensor[(1, 1024), float32] */;
  %1517 = tanh(%1515) /* ty=Tensor[(1, 1024), float32] */;
  %1518 = %555.22 /* ty=Tensor[(1, 240), float32] */;
  %1519 = (%1518, %1496) /* ty=(Tensor[(1, 240), float32], Tensor[(1, 1024), float32]) */;
  %1520 = (%encoder.pre_rnn.lstm.weight_ih_l0, %encoder.pre_rnn.lstm.weight_hh_l0) /* ty=(Tensor[(4096, 240), float32], Tensor[(4096, 1024), float32]) */;
  %1521 = concatenate(%1519, axis=1) /* ty=Tensor[(1, 1264), float32] */;
  %1522 = concatenate(%1520, axis=1) /* ty=Tensor[(4096, 1264), float32] */;
  %1523 = nn.dense(%1521, %1522, units=None) /* ty=Tensor[(1, 4096), float32] */;
  %1524 = add(%1523, %encoder.pre_rnn.lstm.bias_ih_l0) /* ty=Tensor[(1, 4096), float32] */;
  %1525 = add(%1524, %encoder.pre_rnn.lstm.bias_hh_l0) /* ty=Tensor[(1, 4096), float32] */;
  %1526 = split(%1525, indices_or_sections=4, axis=-1) /* ty=(Tensor[(1, 1024), float32], Tensor[(1, 1024), float32], Tensor[(1, 1024), float32], Tensor[(1, 1024), float32]) */;
  %1527 = %1526.3 /* ty=Tensor[(1, 1024), float32] */;
  %1528 = %1526.1 /* ty=Tensor[(1, 1024), float32] */;
  %1529 = sigmoid(%1528) /* ty=Tensor[(1, 1024), float32] */;
  %1530 = %1526.0 /* ty=Tensor[(1, 1024), float32] */;
  %1531 = %1526.2 /* ty=Tensor[(1, 1024), float32] */;
  %1532 = sigmoid(%1530) /* ty=Tensor[(1, 1024), float32] */;
  %1533 = tanh(%1531) /* ty=Tensor[(1, 1024), float32] */;
  %1534 = multiply(%1529, %1493) /* ty=Tensor[(1, 1024), float32] */;
  %1535 = multiply(%1532, %1533) /* ty=Tensor[(1, 1024), float32] */;
  %1536 = add(%1534, %1535) /* ty=Tensor[(1, 1024), float32] */;
  %1537 = sigmoid(%1527) /* ty=Tensor[(1, 1024), float32] */;
  %1538 = tanh(%1536) /* ty=Tensor[(1, 1024), float32] */;
  %1539 = multiply(%1537, %1538) /* ty=Tensor[(1, 1024), float32] */;
  %1540 = multiply(%1516, %1517) /* ty=Tensor[(1, 1024), float32] */;
  %1541 = (%1539, %1540) /* ty=(Tensor[(1, 1024), float32], Tensor[(1, 1024), float32]) */;
  %1542 = (%encoder.pre_rnn.lstm.weight_ih_l1, %encoder.pre_rnn.lstm.weight_hh_l1) /* ty=(Tensor[(4096, 1024), float32], Tensor[(4096, 1024), float32]) */;
  %1543 = concatenate(%1541, axis=1) /* ty=Tensor[(1, 2048), float32] */;
  %1544 = concatenate(%1542, axis=1) /* ty=Tensor[(4096, 2048), float32] */;
  %1545 = nn.dense(%1543, %1544, units=None) /* ty=Tensor[(1, 4096), float32] */;
  %1546 = add(%1545, %encoder.pre_rnn.lstm.bias_ih_l1) /* ty=Tensor[(1, 4096), float32] */;
  %1547 = add(%1546, %encoder.pre_rnn.lstm.bias_hh_l1) /* ty=Tensor[(1, 4096), float32] */;
  %1548 = split(%1547, indices_or_sections=4, axis=-1) /* ty=(Tensor[(1, 1024), float32], Tensor[(1, 1024), float32], Tensor[(1, 1024), float32], Tensor[(1, 1024), float32]) */;
  %1549 = %1548.3 /* ty=Tensor[(1, 1024), float32] */;
  %1550 = %1548.1 /* ty=Tensor[(1, 1024), float32] */;
  %1551 = sigmoid(%1550) /* ty=Tensor[(1, 1024), float32] */;
  %1552 = %1548.0 /* ty=Tensor[(1, 1024), float32] */;
  %1553 = %1548.2 /* ty=Tensor[(1, 1024), float32] */;
  %1554 = sigmoid(%1552) /* ty=Tensor[(1, 1024), float32] */;
  %1555 = tanh(%1553) /* ty=Tensor[(1, 1024), float32] */;
  %1556 = multiply(%1551, %1515) /* ty=Tensor[(1, 1024), float32] */;
  %1557 = multiply(%1554, %1555) /* ty=Tensor[(1, 1024), float32] */;
  %1558 = add(%1556, %1557) /* ty=Tensor[(1, 1024), float32] */;
  %1559 = sigmoid(%1549) /* ty=Tensor[(1, 1024), float32] */;
  %1560 = tanh(%1558) /* ty=Tensor[(1, 1024), float32] */;
  %1561 = %555.23 /* ty=Tensor[(1, 240), float32] */;
  %1562 = (%1561, %1539) /* ty=(Tensor[(1, 240), float32], Tensor[(1, 1024), float32]) */;
  %1563 = (%encoder.pre_rnn.lstm.weight_ih_l0, %encoder.pre_rnn.lstm.weight_hh_l0) /* ty=(Tensor[(4096, 240), float32], Tensor[(4096, 1024), float32]) */;
  %1564 = concatenate(%1562, axis=1) /* ty=Tensor[(1, 1264), float32] */;
  %1565 = concatenate(%1563, axis=1) /* ty=Tensor[(4096, 1264), float32] */;
  %1566 = nn.dense(%1564, %1565, units=None) /* ty=Tensor[(1, 4096), float32] */;
  %1567 = add(%1566, %encoder.pre_rnn.lstm.bias_ih_l0) /* ty=Tensor[(1, 4096), float32] */;
  %1568 = add(%1567, %encoder.pre_rnn.lstm.bias_hh_l0) /* ty=Tensor[(1, 4096), float32] */;
  %1569 = split(%1568, indices_or_sections=4, axis=-1) /* ty=(Tensor[(1, 1024), float32], Tensor[(1, 1024), float32], Tensor[(1, 1024), float32], Tensor[(1, 1024), float32]) */;
  %1570 = %1569.3 /* ty=Tensor[(1, 1024), float32] */;
  %1571 = %1569.1 /* ty=Tensor[(1, 1024), float32] */;
  %1572 = sigmoid(%1571) /* ty=Tensor[(1, 1024), float32] */;
  %1573 = %1569.0 /* ty=Tensor[(1, 1024), float32] */;
  %1574 = %1569.2 /* ty=Tensor[(1, 1024), float32] */;
  %1575 = sigmoid(%1573) /* ty=Tensor[(1, 1024), float32] */;
  %1576 = tanh(%1574) /* ty=Tensor[(1, 1024), float32] */;
  %1577 = multiply(%1572, %1536) /* ty=Tensor[(1, 1024), float32] */;
  %1578 = multiply(%1575, %1576) /* ty=Tensor[(1, 1024), float32] */;
  %1579 = add(%1577, %1578) /* ty=Tensor[(1, 1024), float32] */;
  %1580 = sigmoid(%1570) /* ty=Tensor[(1, 1024), float32] */;
  %1581 = tanh(%1579) /* ty=Tensor[(1, 1024), float32] */;
  %1582 = multiply(%1580, %1581) /* ty=Tensor[(1, 1024), float32] */;
  %1583 = multiply(%1559, %1560) /* ty=Tensor[(1, 1024), float32] */;
  %1584 = (%1582, %1583) /* ty=(Tensor[(1, 1024), float32], Tensor[(1, 1024), float32]) */;
  %1585 = (%encoder.pre_rnn.lstm.weight_ih_l1, %encoder.pre_rnn.lstm.weight_hh_l1) /* ty=(Tensor[(4096, 1024), float32], Tensor[(4096, 1024), float32]) */;
  %1586 = concatenate(%1584, axis=1) /* ty=Tensor[(1, 2048), float32] */;
  %1587 = concatenate(%1585, axis=1) /* ty=Tensor[(4096, 2048), float32] */;
  %1588 = nn.dense(%1586, %1587, units=None) /* ty=Tensor[(1, 4096), float32] */;
  %1589 = add(%1588, %encoder.pre_rnn.lstm.bias_ih_l1) /* ty=Tensor[(1, 4096), float32] */;
  %1590 = add(%1589, %encoder.pre_rnn.lstm.bias_hh_l1) /* ty=Tensor[(1, 4096), float32] */;
  %1591 = split(%1590, indices_or_sections=4, axis=-1) /* ty=(Tensor[(1, 1024), float32], Tensor[(1, 1024), float32], Tensor[(1, 1024), float32], Tensor[(1, 1024), float32]) */;
  %1592 = %1591.3 /* ty=Tensor[(1, 1024), float32] */;
  %1593 = %1591.1 /* ty=Tensor[(1, 1024), float32] */;
  %1594 = sigmoid(%1593) /* ty=Tensor[(1, 1024), float32] */;
  %1595 = %1591.0 /* ty=Tensor[(1, 1024), float32] */;
  %1596 = %1591.2 /* ty=Tensor[(1, 1024), float32] */;
  %1597 = sigmoid(%1595) /* ty=Tensor[(1, 1024), float32] */;
  %1598 = tanh(%1596) /* ty=Tensor[(1, 1024), float32] */;
  %1599 = multiply(%1594, %1558) /* ty=Tensor[(1, 1024), float32] */;
  %1600 = multiply(%1597, %1598) /* ty=Tensor[(1, 1024), float32] */;
  %1601 = add(%1599, %1600) /* ty=Tensor[(1, 1024), float32] */;
  %1602 = sigmoid(%1592) /* ty=Tensor[(1, 1024), float32] */;
  %1603 = tanh(%1601) /* ty=Tensor[(1, 1024), float32] */;
  %1604 = %555.24 /* ty=Tensor[(1, 240), float32] */;
  %1605 = (%1604, %1582) /* ty=(Tensor[(1, 240), float32], Tensor[(1, 1024), float32]) */;
  %1606 = (%encoder.pre_rnn.lstm.weight_ih_l0, %encoder.pre_rnn.lstm.weight_hh_l0) /* ty=(Tensor[(4096, 240), float32], Tensor[(4096, 1024), float32]) */;
  %1607 = concatenate(%1605, axis=1) /* ty=Tensor[(1, 1264), float32] */;
  %1608 = concatenate(%1606, axis=1) /* ty=Tensor[(4096, 1264), float32] */;
  %1609 = nn.dense(%1607, %1608, units=None) /* ty=Tensor[(1, 4096), float32] */;
  %1610 = add(%1609, %encoder.pre_rnn.lstm.bias_ih_l0) /* ty=Tensor[(1, 4096), float32] */;
  %1611 = add(%1610, %encoder.pre_rnn.lstm.bias_hh_l0) /* ty=Tensor[(1, 4096), float32] */;
  %1612 = split(%1611, indices_or_sections=4, axis=-1) /* ty=(Tensor[(1, 1024), float32], Tensor[(1, 1024), float32], Tensor[(1, 1024), float32], Tensor[(1, 1024), float32]) */;
  %1613 = %1612.3 /* ty=Tensor[(1, 1024), float32] */;
  %1614 = %1612.1 /* ty=Tensor[(1, 1024), float32] */;
  %1615 = sigmoid(%1614) /* ty=Tensor[(1, 1024), float32] */;
  %1616 = %1612.0 /* ty=Tensor[(1, 1024), float32] */;
  %1617 = %1612.2 /* ty=Tensor[(1, 1024), float32] */;
  %1618 = sigmoid(%1616) /* ty=Tensor[(1, 1024), float32] */;
  %1619 = tanh(%1617) /* ty=Tensor[(1, 1024), float32] */;
  %1620 = multiply(%1615, %1579) /* ty=Tensor[(1, 1024), float32] */;
  %1621 = multiply(%1618, %1619) /* ty=Tensor[(1, 1024), float32] */;
  %1622 = add(%1620, %1621) /* ty=Tensor[(1, 1024), float32] */;
  %1623 = sigmoid(%1613) /* ty=Tensor[(1, 1024), float32] */;
  %1624 = tanh(%1622) /* ty=Tensor[(1, 1024), float32] */;
  %1625 = multiply(%1623, %1624) /* ty=Tensor[(1, 1024), float32] */;
  %1626 = multiply(%1602, %1603) /* ty=Tensor[(1, 1024), float32] */;
  %1627 = (%1625, %1626) /* ty=(Tensor[(1, 1024), float32], Tensor[(1, 1024), float32]) */;
  %1628 = (%encoder.pre_rnn.lstm.weight_ih_l1, %encoder.pre_rnn.lstm.weight_hh_l1) /* ty=(Tensor[(4096, 1024), float32], Tensor[(4096, 1024), float32]) */;
  %1629 = concatenate(%1627, axis=1) /* ty=Tensor[(1, 2048), float32] */;
  %1630 = concatenate(%1628, axis=1) /* ty=Tensor[(4096, 2048), float32] */;
  %1631 = nn.dense(%1629, %1630, units=None) /* ty=Tensor[(1, 4096), float32] */;
  %1632 = add(%1631, %encoder.pre_rnn.lstm.bias_ih_l1) /* ty=Tensor[(1, 4096), float32] */;
  %1633 = add(%1632, %encoder.pre_rnn.lstm.bias_hh_l1) /* ty=Tensor[(1, 4096), float32] */;
  %1634 = split(%1633, indices_or_sections=4, axis=-1) /* ty=(Tensor[(1, 1024), float32], Tensor[(1, 1024), float32], Tensor[(1, 1024), float32], Tensor[(1, 1024), float32]) */;
  %1635 = %1634.3 /* ty=Tensor[(1, 1024), float32] */;
  %1636 = %1634.1 /* ty=Tensor[(1, 1024), float32] */;
  %1637 = sigmoid(%1636) /* ty=Tensor[(1, 1024), float32] */;
  %1638 = %1634.0 /* ty=Tensor[(1, 1024), float32] */;
  %1639 = %1634.2 /* ty=Tensor[(1, 1024), float32] */;
  %1640 = sigmoid(%1638) /* ty=Tensor[(1, 1024), float32] */;
  %1641 = tanh(%1639) /* ty=Tensor[(1, 1024), float32] */;
  %1642 = multiply(%1637, %1601) /* ty=Tensor[(1, 1024), float32] */;
  %1643 = multiply(%1640, %1641) /* ty=Tensor[(1, 1024), float32] */;
  %1644 = add(%1642, %1643) /* ty=Tensor[(1, 1024), float32] */;
  %1645 = sigmoid(%1635) /* ty=Tensor[(1, 1024), float32] */;
  %1646 = tanh(%1644) /* ty=Tensor[(1, 1024), float32] */;
  %1647 = %555.25 /* ty=Tensor[(1, 240), float32] */;
  %1648 = (%1647, %1625) /* ty=(Tensor[(1, 240), float32], Tensor[(1, 1024), float32]) */;
  %1649 = (%encoder.pre_rnn.lstm.weight_ih_l0, %encoder.pre_rnn.lstm.weight_hh_l0) /* ty=(Tensor[(4096, 240), float32], Tensor[(4096, 1024), float32]) */;
  %1650 = concatenate(%1648, axis=1) /* ty=Tensor[(1, 1264), float32] */;
  %1651 = concatenate(%1649, axis=1) /* ty=Tensor[(4096, 1264), float32] */;
  %1652 = nn.dense(%1650, %1651, units=None) /* ty=Tensor[(1, 4096), float32] */;
  %1653 = add(%1652, %encoder.pre_rnn.lstm.bias_ih_l0) /* ty=Tensor[(1, 4096), float32] */;
  %1654 = add(%1653, %encoder.pre_rnn.lstm.bias_hh_l0) /* ty=Tensor[(1, 4096), float32] */;
  %1655 = split(%1654, indices_or_sections=4, axis=-1) /* ty=(Tensor[(1, 1024), float32], Tensor[(1, 1024), float32], Tensor[(1, 1024), float32], Tensor[(1, 1024), float32]) */;
  %1656 = %1655.3 /* ty=Tensor[(1, 1024), float32] */;
  %1657 = %1655.1 /* ty=Tensor[(1, 1024), float32] */;
  %1658 = sigmoid(%1657) /* ty=Tensor[(1, 1024), float32] */;
  %1659 = %1655.0 /* ty=Tensor[(1, 1024), float32] */;
  %1660 = %1655.2 /* ty=Tensor[(1, 1024), float32] */;
  %1661 = sigmoid(%1659) /* ty=Tensor[(1, 1024), float32] */;
  %1662 = tanh(%1660) /* ty=Tensor[(1, 1024), float32] */;
  %1663 = multiply(%1658, %1622) /* ty=Tensor[(1, 1024), float32] */;
  %1664 = multiply(%1661, %1662) /* ty=Tensor[(1, 1024), float32] */;
  %1665 = add(%1663, %1664) /* ty=Tensor[(1, 1024), float32] */;
  %1666 = sigmoid(%1656) /* ty=Tensor[(1, 1024), float32] */;
  %1667 = tanh(%1665) /* ty=Tensor[(1, 1024), float32] */;
  %1668 = multiply(%1666, %1667) /* ty=Tensor[(1, 1024), float32] */;
  %1669 = multiply(%1645, %1646) /* ty=Tensor[(1, 1024), float32] */;
  %1670 = (%1668, %1669) /* ty=(Tensor[(1, 1024), float32], Tensor[(1, 1024), float32]) */;
  %1671 = (%encoder.pre_rnn.lstm.weight_ih_l1, %encoder.pre_rnn.lstm.weight_hh_l1) /* ty=(Tensor[(4096, 1024), float32], Tensor[(4096, 1024), float32]) */;
  %1672 = concatenate(%1670, axis=1) /* ty=Tensor[(1, 2048), float32] */;
  %1673 = concatenate(%1671, axis=1) /* ty=Tensor[(4096, 2048), float32] */;
  %1674 = nn.dense(%1672, %1673, units=None) /* ty=Tensor[(1, 4096), float32] */;
  %1675 = add(%1674, %encoder.pre_rnn.lstm.bias_ih_l1) /* ty=Tensor[(1, 4096), float32] */;
  %1676 = add(%1675, %encoder.pre_rnn.lstm.bias_hh_l1) /* ty=Tensor[(1, 4096), float32] */;
  %1677 = split(%1676, indices_or_sections=4, axis=-1) /* ty=(Tensor[(1, 1024), float32], Tensor[(1, 1024), float32], Tensor[(1, 1024), float32], Tensor[(1, 1024), float32]) */;
  %1678 = %1677.3 /* ty=Tensor[(1, 1024), float32] */;
  %1679 = %1677.1 /* ty=Tensor[(1, 1024), float32] */;
  %1680 = sigmoid(%1679) /* ty=Tensor[(1, 1024), float32] */;
  %1681 = %1677.0 /* ty=Tensor[(1, 1024), float32] */;
  %1682 = %1677.2 /* ty=Tensor[(1, 1024), float32] */;
  %1683 = sigmoid(%1681) /* ty=Tensor[(1, 1024), float32] */;
  %1684 = tanh(%1682) /* ty=Tensor[(1, 1024), float32] */;
  %1685 = multiply(%1680, %1644) /* ty=Tensor[(1, 1024), float32] */;
  %1686 = multiply(%1683, %1684) /* ty=Tensor[(1, 1024), float32] */;
  %1687 = add(%1685, %1686) /* ty=Tensor[(1, 1024), float32] */;
  %1688 = sigmoid(%1678) /* ty=Tensor[(1, 1024), float32] */;
  %1689 = tanh(%1687) /* ty=Tensor[(1, 1024), float32] */;
  %1690 = %555.26 /* ty=Tensor[(1, 240), float32] */;
  %1691 = (%1690, %1668) /* ty=(Tensor[(1, 240), float32], Tensor[(1, 1024), float32]) */;
  %1692 = (%encoder.pre_rnn.lstm.weight_ih_l0, %encoder.pre_rnn.lstm.weight_hh_l0) /* ty=(Tensor[(4096, 240), float32], Tensor[(4096, 1024), float32]) */;
  %1693 = concatenate(%1691, axis=1) /* ty=Tensor[(1, 1264), float32] */;
  %1694 = concatenate(%1692, axis=1) /* ty=Tensor[(4096, 1264), float32] */;
  %1695 = nn.dense(%1693, %1694, units=None) /* ty=Tensor[(1, 4096), float32] */;
  %1696 = add(%1695, %encoder.pre_rnn.lstm.bias_ih_l0) /* ty=Tensor[(1, 4096), float32] */;
  %1697 = add(%1696, %encoder.pre_rnn.lstm.bias_hh_l0) /* ty=Tensor[(1, 4096), float32] */;
  %1698 = split(%1697, indices_or_sections=4, axis=-1) /* ty=(Tensor[(1, 1024), float32], Tensor[(1, 1024), float32], Tensor[(1, 1024), float32], Tensor[(1, 1024), float32]) */;
  %1699 = %1698.3 /* ty=Tensor[(1, 1024), float32] */;
  %1700 = %1698.1 /* ty=Tensor[(1, 1024), float32] */;
  %1701 = sigmoid(%1700) /* ty=Tensor[(1, 1024), float32] */;
  %1702 = %1698.0 /* ty=Tensor[(1, 1024), float32] */;
  %1703 = %1698.2 /* ty=Tensor[(1, 1024), float32] */;
  %1704 = sigmoid(%1702) /* ty=Tensor[(1, 1024), float32] */;
  %1705 = tanh(%1703) /* ty=Tensor[(1, 1024), float32] */;
  %1706 = multiply(%1701, %1665) /* ty=Tensor[(1, 1024), float32] */;
  %1707 = multiply(%1704, %1705) /* ty=Tensor[(1, 1024), float32] */;
  %1708 = add(%1706, %1707) /* ty=Tensor[(1, 1024), float32] */;
  %1709 = sigmoid(%1699) /* ty=Tensor[(1, 1024), float32] */;
  %1710 = tanh(%1708) /* ty=Tensor[(1, 1024), float32] */;
  %1711 = multiply(%1709, %1710) /* ty=Tensor[(1, 1024), float32] */;
  %1712 = multiply(%1688, %1689) /* ty=Tensor[(1, 1024), float32] */;
  %1713 = (%1711, %1712) /* ty=(Tensor[(1, 1024), float32], Tensor[(1, 1024), float32]) */;
  %1714 = (%encoder.pre_rnn.lstm.weight_ih_l1, %encoder.pre_rnn.lstm.weight_hh_l1) /* ty=(Tensor[(4096, 1024), float32], Tensor[(4096, 1024), float32]) */;
  %1715 = concatenate(%1713, axis=1) /* ty=Tensor[(1, 2048), float32] */;
  %1716 = concatenate(%1714, axis=1) /* ty=Tensor[(4096, 2048), float32] */;
  %1717 = nn.dense(%1715, %1716, units=None) /* ty=Tensor[(1, 4096), float32] */;
  %1718 = add(%1717, %encoder.pre_rnn.lstm.bias_ih_l1) /* ty=Tensor[(1, 4096), float32] */;
  %1719 = add(%1718, %encoder.pre_rnn.lstm.bias_hh_l1) /* ty=Tensor[(1, 4096), float32] */;
  %1720 = split(%1719, indices_or_sections=4, axis=-1) /* ty=(Tensor[(1, 1024), float32], Tensor[(1, 1024), float32], Tensor[(1, 1024), float32], Tensor[(1, 1024), float32]) */;
  %1721 = %1720.3 /* ty=Tensor[(1, 1024), float32] */;
  %1722 = %1720.1 /* ty=Tensor[(1, 1024), float32] */;
  %1723 = sigmoid(%1722) /* ty=Tensor[(1, 1024), float32] */;
  %1724 = %1720.0 /* ty=Tensor[(1, 1024), float32] */;
  %1725 = %1720.2 /* ty=Tensor[(1, 1024), float32] */;
  %1726 = sigmoid(%1724) /* ty=Tensor[(1, 1024), float32] */;
  %1727 = tanh(%1725) /* ty=Tensor[(1, 1024), float32] */;
  %1728 = multiply(%1723, %1687) /* ty=Tensor[(1, 1024), float32] */;
  %1729 = multiply(%1726, %1727) /* ty=Tensor[(1, 1024), float32] */;
  %1730 = add(%1728, %1729) /* ty=Tensor[(1, 1024), float32] */;
  %1731 = sigmoid(%1721) /* ty=Tensor[(1, 1024), float32] */;
  %1732 = tanh(%1730) /* ty=Tensor[(1, 1024), float32] */;
  %1733 = %555.27 /* ty=Tensor[(1, 240), float32] */;
  %1734 = (%1733, %1711) /* ty=(Tensor[(1, 240), float32], Tensor[(1, 1024), float32]) */;
  %1735 = (%encoder.pre_rnn.lstm.weight_ih_l0, %encoder.pre_rnn.lstm.weight_hh_l0) /* ty=(Tensor[(4096, 240), float32], Tensor[(4096, 1024), float32]) */;
  %1736 = concatenate(%1734, axis=1) /* ty=Tensor[(1, 1264), float32] */;
  %1737 = concatenate(%1735, axis=1) /* ty=Tensor[(4096, 1264), float32] */;
  %1738 = nn.dense(%1736, %1737, units=None) /* ty=Tensor[(1, 4096), float32] */;
  %1739 = add(%1738, %encoder.pre_rnn.lstm.bias_ih_l0) /* ty=Tensor[(1, 4096), float32] */;
  %1740 = add(%1739, %encoder.pre_rnn.lstm.bias_hh_l0) /* ty=Tensor[(1, 4096), float32] */;
  %1741 = split(%1740, indices_or_sections=4, axis=-1) /* ty=(Tensor[(1, 1024), float32], Tensor[(1, 1024), float32], Tensor[(1, 1024), float32], Tensor[(1, 1024), float32]) */;
  %1742 = %1741.3 /* ty=Tensor[(1, 1024), float32] */;
  %1743 = %1741.1 /* ty=Tensor[(1, 1024), float32] */;
  %1744 = sigmoid(%1743) /* ty=Tensor[(1, 1024), float32] */;
  %1745 = %1741.0 /* ty=Tensor[(1, 1024), float32] */;
  %1746 = %1741.2 /* ty=Tensor[(1, 1024), float32] */;
  %1747 = sigmoid(%1745) /* ty=Tensor[(1, 1024), float32] */;
…
  %23324 = (%23322, %23323) /* ty=(Tensor[(1, 512), float32], Tensor[(1, 512), float32]) */;
  %23325 = (%prediction.dec_rnn.lstm.weight_ih_l1, %prediction.dec_rnn.lstm.weight_hh_l1) /* ty=(Tensor[(2048, 512), float32], Tensor[(2048, 512), float32]) */;
  %23326 = concatenate(%23324, axis=1) /* ty=Tensor[(1, 1024), float32] */;
  %23327 = concatenate(%23325, axis=1) /* ty=Tensor[(2048, 1024), float32] */;
  %23328 = nn.dense(%23326, %23327, units=None) /* ty=Tensor[(1, 2048), float32] */;
  %23329 = add(%23328, %prediction.dec_rnn.lstm.bias_ih_l1) /* ty=Tensor[(1, 2048), float32] */;
  %23330 = add(%23329, %prediction.dec_rnn.lstm.bias_hh_l1) /* ty=Tensor[(1, 2048), float32] */;
  %23331 = split(%23330, indices_or_sections=4, axis=-1) /* ty=(Tensor[(1, 512), float32], Tensor[(1, 512), float32], Tensor[(1, 512), float32], Tensor[(1, 512), float32]) */;
  %23332 = %23331.3 /* ty=Tensor[(1, 512), float32] */;
  %23333 = %23331.1 /* ty=Tensor[(1, 512), float32] */;
  %23334 = sigmoid(%23333) /* ty=Tensor[(1, 512), float32] */;
  %23335 = %23331.0 /* ty=Tensor[(1, 512), float32] */;
  %23336 = %23331.2 /* ty=Tensor[(1, 512), float32] */;
  %23337 = sigmoid(%23335) /* ty=Tensor[(1, 512), float32] */;
  %23338 = tanh(%23336) /* ty=Tensor[(1, 512), float32] */;
  %23339 = multiply(%23334, %23298) /* ty=Tensor[(1, 512), float32] */;
  %23340 = multiply(%23337, %23338) /* ty=Tensor[(1, 512), float32] */;
  %23341 = add(%23339, %23340) /* ty=Tensor[(1, 512), float32] */;
  %23342 = sigmoid(%23332) /* ty=Tensor[(1, 512), float32] */;
  %23343 = tanh(%23341) /* ty=Tensor[(1, 512), float32] */;
  %23344 = %21822.35 /* ty=Tensor[(1, 512), float32] */;
  %23345 = (%23344, %23322) /* ty=(Tensor[(1, 512), float32], Tensor[(1, 512), float32]) */;
  %23346 = (%prediction.dec_rnn.lstm.weight_ih_l0, %prediction.dec_rnn.lstm.weight_hh_l0) /* ty=(Tensor[(2048, 512), float32], Tensor[(2048, 512), float32]) */;
  %23347 = concatenate(%23345, axis=1) /* ty=Tensor[(1, 1024), float32] */;
  %23348 = concatenate(%23346, axis=1) /* ty=Tensor[(2048, 1024), float32] */;
  %23349 = nn.dense(%23347, %23348, units=None) /* ty=Tensor[(1, 2048), float32] */;
  %23350 = add(%23349, %prediction.dec_rnn.lstm.bias_ih_l0) /* ty=Tensor[(1, 2048), float32] */;
  %23351 = add(%23350, %prediction.dec_rnn.lstm.bias_hh_l0) /* ty=Tensor[(1, 2048), float32] */;
  %23352 = split(%23351, indices_or_sections=4, axis=-1) /* ty=(Tensor[(1, 512), float32], Tensor[(1, 512), float32], Tensor[(1, 512), float32], Tensor[(1, 512), float32]) */;
  %23353 = %23352.3 /* ty=Tensor[(1, 512), float32] */;
  %23354 = %23352.1 /* ty=Tensor[(1, 512), float32] */;
  %23355 = sigmoid(%23354) /* ty=Tensor[(1, 512), float32] */;
  %23356 = %23352.0 /* ty=Tensor[(1, 512), float32] */;
  %23357 = %23352.2 /* ty=Tensor[(1, 512), float32] */;
  %23358 = sigmoid(%23356) /* ty=Tensor[(1, 512), float32] */;
  %23359 = tanh(%23357) /* ty=Tensor[(1, 512), float32] */;
  %23360 = multiply(%23355, %23319) /* ty=Tensor[(1, 512), float32] */;
  %23361 = multiply(%23358, %23359) /* ty=Tensor[(1, 512), float32] */;
  %23362 = add(%23360, %23361) /* ty=Tensor[(1, 512), float32] */;
  %23363 = sigmoid(%23353) /* ty=Tensor[(1, 512), float32] */;
  %23364 = tanh(%23362) /* ty=Tensor[(1, 512), float32] */;
  %23365 = multiply(%23363, %23364) /* ty=Tensor[(1, 512), float32] */;
  %23366 = multiply(%23342, %23343) /* ty=Tensor[(1, 512), float32] */;
  %23367 = (%23365, %23366) /* ty=(Tensor[(1, 512), float32], Tensor[(1, 512), float32]) */;
  %23368 = (%prediction.dec_rnn.lstm.weight_ih_l1, %prediction.dec_rnn.lstm.weight_hh_l1) /* ty=(Tensor[(2048, 512), float32], Tensor[(2048, 512), float32]) */;
  %23369 = concatenate(%23367, axis=1) /* ty=Tensor[(1, 1024), float32] */;
  %23370 = concatenate(%23368, axis=1) /* ty=Tensor[(2048, 1024), float32] */;
  %23371 = nn.dense(%23369, %23370, units=None) /* ty=Tensor[(1, 2048), float32] */;
  %23372 = add(%23371, %prediction.dec_rnn.lstm.bias_ih_l1) /* ty=Tensor[(1, 2048), float32] */;
  %23373 = add(%23372, %prediction.dec_rnn.lstm.bias_hh_l1) /* ty=Tensor[(1, 2048), float32] */;
  %23374 = split(%23373, indices_or_sections=4, axis=-1) /* ty=(Tensor[(1, 512), float32], Tensor[(1, 512), float32], Tensor[(1, 512), float32], Tensor[(1, 512), float32]) */;
  %23375 = %23374.3 /* ty=Tensor[(1, 512), float32] */;
  %23376 = %23374.1 /* ty=Tensor[(1, 512), float32] */;
  %23377 = sigmoid(%23376) /* ty=Tensor[(1, 512), float32] */;
  %23378 = %23374.0 /* ty=Tensor[(1, 512), float32] */;
  %23379 = %23374.2 /* ty=Tensor[(1, 512), float32] */;
  %23380 = sigmoid(%23378) /* ty=Tensor[(1, 512), float32] */;
  %23381 = tanh(%23379) /* ty=Tensor[(1, 512), float32] */;
  %23382 = multiply(%23377, %23341) /* ty=Tensor[(1, 512), float32] */;
  %23383 = multiply(%23380, %23381) /* ty=Tensor[(1, 512), float32] */;
  %23384 = add(%23382, %23383) /* ty=Tensor[(1, 512), float32] */;
  %23385 = sigmoid(%23375) /* ty=Tensor[(1, 512), float32] */;
  %23386 = tanh(%23384) /* ty=Tensor[(1, 512), float32] */;
  %23387 = %21822.36 /* ty=Tensor[(1, 512), float32] */;
  %23388 = (%23387, %23365) /* ty=(Tensor[(1, 512), float32], Tensor[(1, 512), float32]) */;
  %23389 = (%prediction.dec_rnn.lstm.weight_ih_l0, %prediction.dec_rnn.lstm.weight_hh_l0) /* ty=(Tensor[(2048, 512), float32], Tensor[(2048, 512), float32]) */;
  %23390 = concatenate(%23388, axis=1) /* ty=Tensor[(1, 1024), float32] */;
  %23391 = concatenate(%23389, axis=1) /* ty=Tensor[(2048, 1024), float32] */;
  %23392 = nn.dense(%23390, %23391, units=None) /* ty=Tensor[(1, 2048), float32] */;
  %23393 = add(%23392, %prediction.dec_rnn.lstm.bias_ih_l0) /* ty=Tensor[(1, 2048), float32] */;
  %23394 = add(%23393, %prediction.dec_rnn.lstm.bias_hh_l0) /* ty=Tensor[(1, 2048), float32] */;
  %23395 = split(%23394, indices_or_sections=4, axis=-1) /* ty=(Tensor[(1, 512), float32], Tensor[(1, 512), float32], Tensor[(1, 512), float32], Tensor[(1, 512), float32]) */;
  %23396 = %23395.3 /* ty=Tensor[(1, 512), float32] */;
  %23397 = %23395.1 /* ty=Tensor[(1, 512), float32] */;
  %23398 = sigmoid(%23397) /* ty=Tensor[(1, 512), float32] */;
  %23399 = %23395.0 /* ty=Tensor[(1, 512), float32] */;
  %23400 = %23395.2 /* ty=Tensor[(1, 512), float32] */;
  %23401 = sigmoid(%23399) /* ty=Tensor[(1, 512), float32] */;
  %23402 = tanh(%23400) /* ty=Tensor[(1, 512), float32] */;
  %23403 = multiply(%23398, %23362) /* ty=Tensor[(1, 512), float32] */;
  %23404 = multiply(%23401, %23402) /* ty=Tensor[(1, 512), float32] */;
  %23405 = add(%23403, %23404) /* ty=Tensor[(1, 512), float32] */;
  %23406 = sigmoid(%23396) /* ty=Tensor[(1, 512), float32] */;
  %23407 = tanh(%23405) /* ty=Tensor[(1, 512), float32] */;
  %23408 = multiply(%23406, %23407) /* ty=Tensor[(1, 512), float32] */;
  %23409 = multiply(%23385, %23386) /* ty=Tensor[(1, 512), float32] */;
  %23410 = (%23408, %23409) /* ty=(Tensor[(1, 512), float32], Tensor[(1, 512), float32]) */;
  %23411 = (%prediction.dec_rnn.lstm.weight_ih_l1, %prediction.dec_rnn.lstm.weight_hh_l1) /* ty=(Tensor[(2048, 512), float32], Tensor[(2048, 512), float32]) */;
  %23412 = concatenate(%23410, axis=1) /* ty=Tensor[(1, 1024), float32] */;
  %23413 = concatenate(%23411, axis=1) /* ty=Tensor[(2048, 1024), float32] */;
  %23414 = nn.dense(%23412, %23413, units=None) /* ty=Tensor[(1, 2048), float32] */;
  %23415 = add(%23414, %prediction.dec_rnn.lstm.bias_ih_l1) /* ty=Tensor[(1, 2048), float32] */;
  %23416 = add(%23415, %prediction.dec_rnn.lstm.bias_hh_l1) /* ty=Tensor[(1, 2048), float32] */;
  %23417 = split(%23416, indices_or_sections=4, axis=-1) /* ty=(Tensor[(1, 512), float32], Tensor[(1, 512), float32], Tensor[(1, 512), float32], Tensor[(1, 512), float32]) */;
  %23418 = %23417.3 /* ty=Tensor[(1, 512), float32] */;
  %23419 = %23417.1 /* ty=Tensor[(1, 512), float32] */;
  %23420 = sigmoid(%23419) /* ty=Tensor[(1, 512), float32] */;
  %23421 = %23417.0 /* ty=Tensor[(1, 512), float32] */;
  %23422 = %23417.2 /* ty=Tensor[(1, 512), float32] */;
  %23423 = sigmoid(%23421) /* ty=Tensor[(1, 512), float32] */;
  %23424 = tanh(%23422) /* ty=Tensor[(1, 512), float32] */;
  %23425 = multiply(%23420, %23384) /* ty=Tensor[(1, 512), float32] */;
  %23426 = multiply(%23423, %23424) /* ty=Tensor[(1, 512), float32] */;
  %23427 = add(%23425, %23426) /* ty=Tensor[(1, 512), float32] */;
  %23428 = sigmoid(%23418) /* ty=Tensor[(1, 512), float32] */;
  %23429 = tanh(%23427) /* ty=Tensor[(1, 512), float32] */;
  %23430 = %21822.37 /* ty=Tensor[(1, 512), float32] */;
  %23431 = (%23430, %23408) /* ty=(Tensor[(1, 512), float32], Tensor[(1, 512), float32]) */;
  %23432 = (%prediction.dec_rnn.lstm.weight_ih_l0, %prediction.dec_rnn.lstm.weight_hh_l0) /* ty=(Tensor[(2048, 512), float32], Tensor[(2048, 512), float32]) */;
  %23433 = concatenate(%23431, axis=1) /* ty=Tensor[(1, 1024), float32] */;
  %23434 = concatenate(%23432, axis=1) /* ty=Tensor[(2048, 1024), float32] */;
  %23435 = nn.dense(%23433, %23434, units=None) /* ty=Tensor[(1, 2048), float32] */;
  %23436 = add(%23435, %prediction.dec_rnn.lstm.bias_ih_l0) /* ty=Tensor[(1, 2048), float32] */;
  %23437 = add(%23436, %prediction.dec_rnn.lstm.bias_hh_l0) /* ty=Tensor[(1, 2048), float32] */;
  %23438 = split(%23437, indices_or_sections=4, axis=-1) /* ty=(Tensor[(1, 512), float32], Tensor[(1, 512), float32], Tensor[(1, 512), float32], Tensor[(1, 512), float32]) */;
  %23439 = %23438.3 /* ty=Tensor[(1, 512), float32] */;
  %23440 = %23438.1 /* ty=Tensor[(1, 512), float32] */;
  %23441 = sigmoid(%23440) /* ty=Tensor[(1, 512), float32] */;
  %23442 = %23438.0 /* ty=Tensor[(1, 512), float32] */;
  %23443 = %23438.2 /* ty=Tensor[(1, 512), float32] */;
  %23444 = sigmoid(%23442) /* ty=Tensor[(1, 512), float32] */;
  %23445 = tanh(%23443) /* ty=Tensor[(1, 512), float32] */;
  %23446 = multiply(%23441, %23405) /* ty=Tensor[(1, 512), float32] */;
  %23447 = multiply(%23444, %23445) /* ty=Tensor[(1, 512), float32] */;
  %23448 = add(%23446, %23447) /* ty=Tensor[(1, 512), float32] */;
  %23449 = sigmoid(%23439) /* ty=Tensor[(1, 512), float32] */;
  %23450 = tanh(%23448) /* ty=Tensor[(1, 512), float32] */;
  %23451 = multiply(%23449, %23450) /* ty=Tensor[(1, 512), float32] */;
  %23452 = multiply(%23428, %23429) /* ty=Tensor[(1, 512), float32] */;
  %23453 = (%23451, %23452) /* ty=(Tensor[(1, 512), float32], Tensor[(1, 512), float32]) */;
  %23454 = (%prediction.dec_rnn.lstm.weight_ih_l1, %prediction.dec_rnn.lstm.weight_hh_l1) /* ty=(Tensor[(2048, 512), float32], Tensor[(2048, 512), float32]) */;
  %23455 = concatenate(%23453, axis=1) /* ty=Tensor[(1, 1024), float32] */;
  %23456 = concatenate(%23454, axis=1) /* ty=Tensor[(2048, 1024), float32] */;
  %23457 = nn.dense(%23455, %23456, units=None) /* ty=Tensor[(1, 2048), float32] */;
  %23458 = add(%23457, %prediction.dec_rnn.lstm.bias_ih_l1) /* ty=Tensor[(1, 2048), float32] */;
  %23459 = add(%23458, %prediction.dec_rnn.lstm.bias_hh_l1) /* ty=Tensor[(1, 2048), float32] */;
  %23460 = split(%23459, indices_or_sections=4, axis=-1) /* ty=(Tensor[(1, 512), float32], Tensor[(1, 512), float32], Tensor[(1, 512), float32], Tensor[(1, 512), float32]) */;
  %23461 = %23460.3 /* ty=Tensor[(1, 512), float32] */;
  %23462 = %23460.1 /* ty=Tensor[(1, 512), float32] */;
  %23463 = sigmoid(%23462) /* ty=Tensor[(1, 512), float32] */;
  %23464 = %23460.0 /* ty=Tensor[(1, 512), float32] */;
  %23465 = %23460.2 /* ty=Tensor[(1, 512), float32] */;
  %23466 = sigmoid(%23464) /* ty=Tensor[(1, 512), float32] */;
  %23467 = tanh(%23465) /* ty=Tensor[(1, 512), float32] */;
  %23468 = multiply(%23463, %23427) /* ty=Tensor[(1, 512), float32] */;
  %23469 = multiply(%23466, %23467) /* ty=Tensor[(1, 512), float32] */;
  %23470 = add(%23468, %23469) /* ty=Tensor[(1, 512), float32] */;
  %23471 = sigmoid(%23461) /* ty=Tensor[(1, 512), float32] */;
  %23472 = tanh(%23470) /* ty=Tensor[(1, 512), float32] */;
  %23473 = %21822.38 /* ty=Tensor[(1, 512), float32] */;
  %23474 = (%23473, %23451) /* ty=(Tensor[(1, 512), float32], Tensor[(1, 512), float32]) */;
  %23475 = (%prediction.dec_rnn.lstm.weight_ih_l0, %prediction.dec_rnn.lstm.weight_hh_l0) /* ty=(Tensor[(2048, 512), float32], Tensor[(2048, 512), float32]) */;
  %23476 = concatenate(%23474, axis=1) /* ty=Tensor[(1, 1024), float32] */;
  %23477 = concatenate(%23475, axis=1) /* ty=Tensor[(2048, 1024), float32] */;
  %23478 = nn.dense(%23476, %23477, units=None) /* ty=Tensor[(1, 2048), float32] */;
  %23479 = add(%23478, %prediction.dec_rnn.lstm.bias_ih_l0) /* ty=Tensor[(1, 2048), float32] */;
  %23480 = add(%23479, %prediction.dec_rnn.lstm.bias_hh_l0) /* ty=Tensor[(1, 2048), float32] */;
  %23481 = split(%23480, indices_or_sections=4, axis=-1) /* ty=(Tensor[(1, 512), float32], Tensor[(1, 512), float32], Tensor[(1, 512), float32], Tensor[(1, 512), float32]) */;
  %23482 = %23481.3 /* ty=Tensor[(1, 512), float32] */;
  %23483 = %23481.1 /* ty=Tensor[(1, 512), float32] */;
  %23484 = sigmoid(%23483) /* ty=Tensor[(1, 512), float32] */;
  %23485 = %23481.0 /* ty=Tensor[(1, 512), float32] */;
  %23486 = %23481.2 /* ty=Tensor[(1, 512), float32] */;
  %23487 = sigmoid(%23485) /* ty=Tensor[(1, 512), float32] */;
  %23488 = tanh(%23486) /* ty=Tensor[(1, 512), float32] */;
  %23489 = multiply(%23484, %23448) /* ty=Tensor[(1, 512), float32] */;
  %23490 = multiply(%23487, %23488) /* ty=Tensor[(1, 512), float32] */;
  %23491 = add(%23489, %23490) /* ty=Tensor[(1, 512), float32] */;
  %23492 = sigmoid(%23482) /* ty=Tensor[(1, 512), float32] */;
  %23493 = tanh(%23491) /* ty=Tensor[(1, 512), float32] */;
  %23494 = multiply(%23492, %23493) /* ty=Tensor[(1, 512), float32] */;
  %23495 = multiply(%23471, %23472) /* ty=Tensor[(1, 512), float32] */;
  %23496 = (%23494, %23495) /* ty=(Tensor[(1, 512), float32], Tensor[(1, 512), float32]) */;
  %23497 = (%prediction.dec_rnn.lstm.weight_ih_l1, %prediction.dec_rnn.lstm.weight_hh_l1) /* ty=(Tensor[(2048, 512), float32], Tensor[(2048, 512), float32]) */;
  %23498 = concatenate(%23496, axis=1) /* ty=Tensor[(1, 1024), float32] */;
  %23499 = concatenate(%23497, axis=1) /* ty=Tensor[(2048, 1024), float32] */;
  %23500 = nn.dense(%23498, %23499, units=None) /* ty=Tensor[(1, 2048), float32] */;
  %23501 = add(%23500, %prediction.dec_rnn.lstm.bias_ih_l1) /* ty=Tensor[(1, 2048), float32] */;
  %23502 = add(%23501, %prediction.dec_rnn.lstm.bias_hh_l1) /* ty=Tensor[(1, 2048), float32] */;
  %23503 = split(%23502, indices_or_sections=4, axis=-1) /* ty=(Tensor[(1, 512), float32], Tensor[(1, 512), float32], Tensor[(1, 512), float32], Tensor[(1, 512), float32]) */;
  %23504 = %23503.3 /* ty=Tensor[(1, 512), float32] */;
  %23505 = %23503.1 /* ty=Tensor[(1, 512), float32] */;
  %23506 = sigmoid(%23505) /* ty=Tensor[(1, 512), float32] */;
  %23507 = %23503.0 /* ty=Tensor[(1, 512), float32] */;
  %23508 = %23503.2 /* ty=Tensor[(1, 512), float32] */;
  %23509 = sigmoid(%23507) /* ty=Tensor[(1, 512), float32] */;
  %23510 = tanh(%23508) /* ty=Tensor[(1, 512), float32] */;
  %23511 = multiply(%23506, %23470) /* ty=Tensor[(1, 512), float32] */;
  %23512 = multiply(%23509, %23510) /* ty=Tensor[(1, 512), float32] */;
  %23513 = add(%23511, %23512) /* ty=Tensor[(1, 512), float32] */;
  %23514 = sigmoid(%23504) /* ty=Tensor[(1, 512), float32] */;
  %23515 = tanh(%23513) /* ty=Tensor[(1, 512), float32] */;
  %23516 = %21822.39 /* ty=Tensor[(1, 512), float32] */;
  %23517 = (%23516, %23494) /* ty=(Tensor[(1, 512), float32], Tensor[(1, 512), float32]) */;
  %23518 = (%prediction.dec_rnn.lstm.weight_ih_l0, %prediction.dec_rnn.lstm.weight_hh_l0) /* ty=(Tensor[(2048, 512), float32], Tensor[(2048, 512), float32]) */;
  %23519 = concatenate(%23517, axis=1) /* ty=Tensor[(1, 1024), float32] */;
  %23520 = concatenate(%23518, axis=1) /* ty=Tensor[(2048, 1024), float32] */;
  %23521 = nn.dense(%23519, %23520, units=None) /* ty=Tensor[(1, 2048), float32] */;
  %23522 = add(%23521, %prediction.dec_rnn.lstm.bias_ih_l0) /* ty=Tensor[(1, 2048), float32] */;
  %23523 = add(%23522, %prediction.dec_rnn.lstm.bias_hh_l0) /* ty=Tensor[(1, 2048), float32] */;
  %23524 = split(%23523, indices_or_sections=4, axis=-1) /* ty=(Tensor[(1, 512), float32], Tensor[(1, 512), float32], Tensor[(1, 512), float32], Tensor[(1, 512), float32]) */;
  %23525 = %23524.3 /* ty=Tensor[(1, 512), float32] */;
  %23526 = %23524.1 /* ty=Tensor[(1, 512), float32] */;
  %23527 = sigmoid(%23526) /* ty=Tensor[(1, 512), float32] */;
  %23528 = %23524.0 /* ty=Tensor[(1, 512), float32] */;
  %23529 = %23524.2 /* ty=Tensor[(1, 512), float32] */;
  %23530 = sigmoid(%23528) /* ty=Tensor[(1, 512), float32] */;
  %23531 = tanh(%23529) /* ty=Tensor[(1, 512), float32] */;
  %23532 = multiply(%23527, %23491) /* ty=Tensor[(1, 512), float32] */;
  %23533 = multiply(%23530, %23531) /* ty=Tensor[(1, 512), float32] */;
  %23534 = add(%23532, %23533) /* ty=Tensor[(1, 512), float32] */;
  %23535 = sigmoid(%23525) /* ty=Tensor[(1, 512), float32] */;
  %23536 = tanh(%23534) /* ty=Tensor[(1, 512), float32] */;
  %23537 = multiply(%23535, %23536) /* ty=Tensor[(1, 512), float32] */;
  %23538 = multiply(%23514, %23515) /* ty=Tensor[(1, 512), float32] */;
  %23539 = (%23537, %23538) /* ty=(Tensor[(1, 512), float32], Tensor[(1, 512), float32]) */;
  %23540 = (%prediction.dec_rnn.lstm.weight_ih_l1, %prediction.dec_rnn.lstm.weight_hh_l1) /* ty=(Tensor[(2048, 512), float32], Tensor[(2048, 512), float32]) */;
  %23541 = concatenate(%23539, axis=1) /* ty=Tensor[(1, 1024), float32] */;
  %23542 = concatenate(%23540, axis=1) /* ty=Tensor[(2048, 1024), float32] */;
  %23543 = nn.dense(%23541, %23542, units=None) /* ty=Tensor[(1, 2048), float32] */;
  %23544 = add(%23543, %prediction.dec_rnn.lstm.bias_ih_l1) /* ty=Tensor[(1, 2048), float32] */;
  %23545 = add(%23544, %prediction.dec_rnn.lstm.bias_hh_l1) /* ty=Tensor[(1, 2048), float32] */;
  %23546 = split(%23545, indices_or_sections=4, axis=-1) /* ty=(Tensor[(1, 512), float32], Tensor[(1, 512), float32], Tensor[(1, 512), float32], Tensor[(1, 512), float32]) */;
  %23547 = %23546.3 /* ty=Tensor[(1, 512), float32] */;
  %23548 = %23546.1 /* ty=Tensor[(1, 512), float32] */;
  %23549 = sigmoid(%23548) /* ty=Tensor[(1, 512), float32] */;
  %23550 = %23546.0 /* ty=Tensor[(1, 512), float32] */;
  %23551 = %23546.2 /* ty=Tensor[(1, 512), float32] */;
  %23552 = sigmoid(%23550) /* ty=Tensor[(1, 512), float32] */;
  %23553 = tanh(%23551) /* ty=Tensor[(1, 512), float32] */;
  %23554 = multiply(%23549, %23513) /* ty=Tensor[(1, 512), float32] */;
  %23555 = multiply(%23552, %23553) /* ty=Tensor[(1, 512), float32] */;
  %23556 = add(%23554, %23555) /* ty=Tensor[(1, 512), float32] */;
  %23557 = sigmoid(%23547) /* ty=Tensor[(1, 512), float32] */;
  %23558 = tanh(%23556) /* ty=Tensor[(1, 512), float32] */;
  %23559 = %21822.40 /* ty=Tensor[(1, 512), float32] */;
  %23560 = (%23559, %23537) /* ty=(Tensor[(1, 512), float32], Tensor[(1, 512), float32]) */;
  %23561 = (%prediction.dec_rnn.lstm.weight_ih_l0, %prediction.dec_rnn.lstm.weight_hh_l0) /* ty=(Tensor[(2048, 512), float32], Tensor[(2048, 512), float32]) */;
  %23562 = concatenate(%23560, axis=1) /* ty=Tensor[(1, 1024), float32] */;
  %23563 = concatenate(%23561, axis=1) /* ty=Tensor[(2048, 1024), float32] */;
  %23564 = nn.dense(%23562, %23563, units=None) /* ty=Tensor[(1, 2048), float32] */;
  %23565 = add(%23564, %prediction.dec_rnn.lstm.bias_ih_l0) /* ty=Tensor[(1, 2048), float32] */;
  %23566 = add(%23565, %prediction.dec_rnn.lstm.bias_hh_l0) /* ty=Tensor[(1, 2048), float32] */;
  %23567 = split(%23566, indices_or_sections=4, axis=-1) /* ty=(Tensor[(1, 512), float32], Tensor[(1, 512), float32], Tensor[(1, 512), float32], Tensor[(1, 512), float32]) */;
  %23568 = %23567.3 /* ty=Tensor[(1, 512), float32] */;
  %23569 = %23567.1 /* ty=Tensor[(1, 512), float32] */;
  %23570 = sigmoid(%23569) /* ty=Tensor[(1, 512), float32] */;
  %23571 = %23567.0 /* ty=Tensor[(1, 512), float32] */;
  %23572 = %23567.2 /* ty=Tensor[(1, 512), float32] */;
  %23573 = sigmoid(%23571) /* ty=Tensor[(1, 512), float32] */;
  %23574 = tanh(%23572) /* ty=Tensor[(1, 512), float32] */;
  %23575 = multiply(%23570, %23534) /* ty=Tensor[(1, 512), float32] */;
  %23576 = multiply(%23573, %23574) /* ty=Tensor[(1, 512), float32] */;
  %23577 = add(%23575, %23576) /* ty=Tensor[(1, 512), float32] */;
  %23578 = sigmoid(%23568) /* ty=Tensor[(1, 512), float32] */;
  %23579 = tanh(%23577) /* ty=Tensor[(1, 512), float32] */;
  %23580 = multiply(%23578, %23579) /* ty=Tensor[(1, 512), float32] */;
  %23581 = multiply(%23557, %23558) /* ty=Tensor[(1, 512), float32] */;
  %23582 = (%23580, %23581) /* ty=(Tensor[(1, 512), float32], Tensor[(1, 512), float32]) */;
  %23583 = (%prediction.dec_rnn.lstm.weight_ih_l1, %prediction.dec_rnn.lstm.weight_hh_l1) /* ty=(Tensor[(2048, 512), float32], Tensor[(2048, 512), float32]) */;
  %23584 = concatenate(%23582, axis=1) /* ty=Tensor[(1, 1024), float32] */;
  %23585 = concatenate(%23583, axis=1) /* ty=Tensor[(2048, 1024), float32] */;
  %23586 = nn.dense(%23584, %23585, units=None) /* ty=Tensor[(1, 2048), float32] */;
  %23587 = add(%23586, %prediction.dec_rnn.lstm.bias_ih_l1) /* ty=Tensor[(1, 2048), float32] */;
  %23588 = add(%23587, %prediction.dec_rnn.lstm.bias_hh_l1) /* ty=Tensor[(1, 2048), float32] */;
  %23589 = split(%23588, indices_or_sections=4, axis=-1) /* ty=(Tensor[(1, 512), float32], Tensor[(1, 512), float32], Tensor[(1, 512), float32], Tensor[(1, 512), float32]) */;
  %23590 = %23589.3 /* ty=Tensor[(1, 512), float32] */;
  %23591 = %23589.1 /* ty=Tensor[(1, 512), float32] */;
  %23592 = sigmoid(%23591) /* ty=Tensor[(1, 512), float32] */;
  %23593 = %23589.0 /* ty=Tensor[(1, 512), float32] */;
  %23594 = %23589.2 /* ty=Tensor[(1, 512), float32] */;
  %23595 = sigmoid(%23593) /* ty=Tensor[(1, 512), float32] */;
  %23596 = tanh(%23594) /* ty=Tensor[(1, 512), float32] */;
  %23597 = multiply(%23592, %23556) /* ty=Tensor[(1, 512), float32] */;
  %23598 = multiply(%23595, %23596) /* ty=Tensor[(1, 512), float32] */;
  %23599 = add(%23597, %23598) /* ty=Tensor[(1, 512), float32] */;
  %23600 = sigmoid(%23590) /* ty=Tensor[(1, 512), float32] */;
  %23601 = tanh(%23599) /* ty=Tensor[(1, 512), float32] */;
  %23602 = %21822.41 /* ty=Tensor[(1, 512), float32] */;
  %23603 = (%23602, %23580) /* ty=(Tensor[(1, 512), float32], Tensor[(1, 512), float32]) */;
  %23604 = (%prediction.dec_rnn.lstm.weight_ih_l0, %prediction.dec_rnn.lstm.weight_hh_l0) /* ty=(Tensor[(2048, 512), float32], Tensor[(2048, 512), float32]) */;
  %23605 = concatenate(%23603, axis=1) /* ty=Tensor[(1, 1024), float32] */;
  %23606 = concatenate(%23604, axis=1) /* ty=Tensor[(2048, 1024), float32] */;
  %23607 = nn.dense(%23605, %23606, units=None) /* ty=Tensor[(1, 2048), float32] */;
  %23608 = add(%23607, %prediction.dec_rnn.lstm.bias_ih_l0) /* ty=Tensor[(1, 2048), float32] */;
  %23609 = add(%23608, %prediction.dec_rnn.lstm.bias_hh_l0) /* ty=Tensor[(1, 2048), float32] */;
  %23610 = split(%23609, indices_or_sections=4, axis=-1) /* ty=(Tensor[(1, 512), float32], Tensor[(1, 512), float32], Tensor[(1, 512), float32], Tensor[(1, 512), float32]) */;
  %23611 = %23610.3 /* ty=Tensor[(1, 512), float32] */;
  %23612 = %23610.1 /* ty=Tensor[(1, 512), float32] */;
  %23613 = sigmoid(%23612) /* ty=Tensor[(1, 512), float32] */;
  %23614 = %23610.0 /* ty=Tensor[(1, 512), float32] */;
  %23615 = %23610.2 /* ty=Tensor[(1, 512), float32] */;
  %23616 = sigmoid(%23614) /* ty=Tensor[(1, 512), float32] */;
  %23617 = tanh(%23615) /* ty=Tensor[(1, 512), float32] */;
  %23618 = multiply(%23613, %23577) /* ty=Tensor[(1, 512), float32] */;
  %23619 = multiply(%23616, %23617) /* ty=Tensor[(1, 512), float32] */;
  %23620 = add(%23618, %23619) /* ty=Tensor[(1, 512), float32] */;
  %23621 = sigmoid(%23611) /* ty=Tensor[(1, 512), float32] */;
  %23622 = tanh(%23620) /* ty=Tensor[(1, 512), float32] */;
  %23623 = multiply(%23621, %23622) /* ty=Tensor[(1, 512), float32] */;
  %23624 = multiply(%23600, %23601) /* ty=Tensor[(1, 512), float32] */;
  %23625 = (%23623, %23624) /* ty=(Tensor[(1, 512), float32], Tensor[(1, 512), float32]) */;
  %23626 = (%prediction.dec_rnn.lstm.weight_ih_l1, %prediction.dec_rnn.lstm.weight_hh_l1) /* ty=(Tensor[(2048, 512), float32], Tensor[(2048, 512), float32]) */;
  %23627 = concatenate(%23625, axis=1) /* ty=Tensor[(1, 1024), float32] */;
  %23628 = concatenate(%23626, axis=1) /* ty=Tensor[(2048, 1024), float32] */;
  %23629 = nn.dense(%23627, %23628, units=None) /* ty=Tensor[(1, 2048), float32] */;
  %23630 = add(%23629, %prediction.dec_rnn.lstm.bias_ih_l1) /* ty=Tensor[(1, 2048), float32] */;
  %23631 = add(%23630, %prediction.dec_rnn.lstm.bias_hh_l1) /* ty=Tensor[(1, 2048), float32] */;
  %23632 = split(%23631, indices_or_sections=4, axis=-1) /* ty=(Tensor[(1, 512), float32], Tensor[(1, 512), float32], Tensor[(1, 512), float32], Tensor[(1, 512), float32]) */;
  %23633 = %23632.3 /* ty=Tensor[(1, 512), float32] */;
  %23634 = %23632.1 /* ty=Tensor[(1, 512), float32] */;
  %23635 = sigmoid(%23634) /* ty=Tensor[(1, 512), float32] */;
  %23636 = %23632.0 /* ty=Tensor[(1, 512), float32] */;
  %23637 = %23632.2 /* ty=Tensor[(1, 512), float32] */;
  %23638 = sigmoid(%23636) /* ty=Tensor[(1, 512), float32] */;
  %23639 = tanh(%23637) /* ty=Tensor[(1, 512), float32] */;
  %23640 = multiply(%23635, %23599) /* ty=Tensor[(1, 512), float32] */;
  %23641 = multiply(%23638, %23639) /* ty=Tensor[(1, 512), float32] */;
  %23642 = add(%23640, %23641) /* ty=Tensor[(1, 512), float32] */;
  %23643 = sigmoid(%23633) /* ty=Tensor[(1, 512), float32] */;
  %23644 = tanh(%23642) /* ty=Tensor[(1, 512), float32] */;
  %23645 = %21822.42 /* ty=Tensor[(1, 512), float32] */;
  %23646 = (%23645, %23623) /* ty=(Tensor[(1, 512), float32], Tensor[(1, 512), float32]) */;
  %23647 = (%prediction.dec_rnn.lstm.weight_ih_l0, %prediction.dec_rnn.lstm.weight_hh_l0) /* ty=(Tensor[(2048, 512), float32], Tensor[(2048, 512), float32]) */;
  %23648 = concatenate(%23646, axis=1) /* ty=Tensor[(1, 1024), float32] */;
  %23649 = concatenate(%23647, axis=1) /* ty=Tensor[(2048, 1024), float32] */;
  %23650 = nn.dense(%23648, %23649, units=None) /* ty=Tensor[(1, 2048), float32] */;
  %23651 = add(%23650, %prediction.dec_rnn.lstm.bias_ih_l0) /* ty=Tensor[(1, 2048), float32] */;
  %23652 = add(%23651, %prediction.dec_rnn.lstm.bias_hh_l0) /* ty=Tensor[(1, 2048), float32] */;
  %23653 = split(%23652, indices_or_sections=4, axis=-1) /* ty=(Tensor[(1, 512), float32], Tensor[(1, 512), float32], Tensor[(1, 512), float32], Tensor[(1, 512), float32]) */;
  %23654 = %23653.3 /* ty=Tensor[(1, 512), float32] */;
  %23655 = %23653.1 /* ty=Tensor[(1, 512), float32] */;
  %23656 = sigmoid(%23655) /* ty=Tensor[(1, 512), float32] */;
  %23657 = %23653.0 /* ty=Tensor[(1, 512), float32] */;
  %23658 = %23653.2 /* ty=Tensor[(1, 512), float32] */;
  %23659 = sigmoid(%23657) /* ty=Tensor[(1, 512), float32] */;
  %23660 = tanh(%23658) /* ty=Tensor[(1, 512), float32] */;
  %23661 = multiply(%23656, %23620) /* ty=Tensor[(1, 512), float32] */;
  %23662 = multiply(%23659, %23660) /* ty=Tensor[(1, 512), float32] */;
  %23663 = add(%23661, %23662) /* ty=Tensor[(1, 512), float32] */;
  %23664 = sigmoid(%23654) /* ty=Tensor[(1, 512), float32] */;
  %23665 = tanh(%23663) /* ty=Tensor[(1, 512), float32] */;
  %23666 = multiply(%23664, %23665) /* ty=Tensor[(1, 512), float32] */;
  %23667 = multiply(%23643, %23644) /* ty=Tensor[(1, 512), float32] */;
  %23668 = (%23666, %23667) /* ty=(Tensor[(1, 512), float32], Tensor[(1, 512), float32]) */;
  %23669 = (%prediction.dec_rnn.lstm.weight_ih_l1, %prediction.dec_rnn.lstm.weight_hh_l1) /* ty=(Tensor[(2048, 512), float32], Tensor[(2048, 512), float32]) */;
  %23670 = concatenate(%23668, axis=1) /* ty=Tensor[(1, 1024), float32] */;
  %23671 = concatenate(%23669, axis=1) /* ty=Tensor[(2048, 1024), float32] */;
  %23672 = nn.dense(%23670, %23671, units=None) /* ty=Tensor[(1, 2048), float32] */;
  %23673 = add(%23672, %prediction.dec_rnn.lstm.bias_ih_l1) /* ty=Tensor[(1, 2048), float32] */;
  %23674 = add(%23673, %prediction.dec_rnn.lstm.bias_hh_l1) /* ty=Tensor[(1, 2048), float32] */;
  %23675 = split(%23674, indices_or_sections=4, axis=-1) /* ty=(Tensor[(1, 512), float32], Tensor[(1, 512), float32], Tensor[(1, 512), float32], Tensor[(1, 512), float32]) */;
  %23676 = %23675.3 /* ty=Tensor[(1, 512), float32] */;
  %23677 = %23675.1 /* ty=Tensor[(1, 512), float32] */;
  %23678 = sigmoid(%23677) /* ty=Tensor[(1, 512), float32] */;
  %23679 = %23675.0 /* ty=Tensor[(1, 512), float32] */;
  %23680 = %23675.2 /* ty=Tensor[(1, 512), float32] */;
  %23681 = sigmoid(%23679) /* ty=Tensor[(1, 512), float32] */;
  %23682 = tanh(%23680) /* ty=Tensor[(1, 512), float32] */;
  %23683 = multiply(%23678, %23642) /* ty=Tensor[(1, 512), float32] */;
  %23684 = multiply(%23681, %23682) /* ty=Tensor[(1, 512), float32] */;
  %23685 = add(%23683, %23684) /* ty=Tensor[(1, 512), float32] */;
  %23686 = sigmoid(%23676) /* ty=Tensor[(1, 512), float32] */;
  %23687 = tanh(%23685) /* ty=Tensor[(1, 512), float32] */;
  %23688 = %21822.43 /* ty=Tensor[(1, 512), float32] */;
  %23689 = (%23688, %23666) /* ty=(Tensor[(1, 512), float32], Tensor[(1, 512), float32]) */;
  %23690 = (%prediction.dec_rnn.lstm.weight_ih_l0, %prediction.dec_rnn.lstm.weight_hh_l0) /* ty=(Tensor[(2048, 512), float32], Tensor[(2048, 512), float32]) */;
  %23691 = concatenate(%23689, axis=1) /* ty=Tensor[(1, 1024), float32] */;
  %23692 = concatenate(%23690, axis=1) /* ty=Tensor[(2048, 1024), float32] */;
  %23693 = nn.dense(%23691, %23692, units=None) /* ty=Tensor[(1, 2048), float32] */;
  %23694 = add(%23693, %prediction.dec_rnn.lstm.bias_ih_l0) /* ty=Tensor[(1, 2048), float32] */;
  %23695 = add(%23694, %prediction.dec_rnn.lstm.bias_hh_l0) /* ty=Tensor[(1, 2048), float32] */;
  %23696 = split(%23695, indices_or_sections=4, axis=-1) /* ty=(Tensor[(1, 512), float32], Tensor[(1, 512), float32], Tensor[(1, 512), float32], Tensor[(1, 512), float32]) */;
  %23697 = %23696.3 /* ty=Tensor[(1, 512), float32] */;
  %23698 = %23696.1 /* ty=Tensor[(1, 512), float32] */;
  %23699 = sigmoid(%23698) /* ty=Tensor[(1, 512), float32] */;
  %23700 = %23696.0 /* ty=Tensor[(1, 512), float32] */;
  %23701 = %23696.2 /* ty=Tensor[(1, 512), float32] */;
  %23702 = sigmoid(%23700) /* ty=Tensor[(1, 512), float32] */;
  %23703 = tanh(%23701) /* ty=Tensor[(1, 512), float32] */;
  %23704 = multiply(%23699, %23663) /* ty=Tensor[(1, 512), float32] */;
  %23705 = multiply(%23702, %23703) /* ty=Tensor[(1, 512), float32] */;
  %23706 = add(%23704, %23705) /* ty=Tensor[(1, 512), float32] */;
  %23707 = sigmoid(%23697) /* ty=Tensor[(1, 512), float32] */;
  %23708 = tanh(%23706) /* ty=Tensor[(1, 512), float32] */;
  %23709 = multiply(%23707, %23708) /* ty=Tensor[(1, 512), float32] */;
  %23710 = multiply(%23686, %23687) /* ty=Tensor[(1, 512), float32] */;
  %23711 = (%23709, %23710) /* ty=(Tensor[(1, 512), float32], Tensor[(1, 512), float32]) */;
  %23712 = (%prediction.dec_rnn.lstm.weight_ih_l1, %prediction.dec_rnn.lstm.weight_hh_l1) /* ty=(Tensor[(2048, 512), float32], Tensor[(2048, 512), float32]) */;
  %23713 = concatenate(%23711, axis=1) /* ty=Tensor[(1, 1024), float32] */;
  %23714 = concatenate(%23712, axis=1) /* ty=Tensor[(2048, 1024), float32] */;
  %23715 = nn.dense(%23713, %23714, units=None) /* ty=Tensor[(1, 2048), float32] */;
  %23716 = add(%23715, %prediction.dec_rnn.lstm.bias_ih_l1) /* ty=Tensor[(1, 2048), float32] */;
  %23717 = add(%23716, %prediction.dec_rnn.lstm.bias_hh_l1) /* ty=Tensor[(1, 2048), float32] */;
  %23718 = split(%23717, indices_or_sections=4, axis=-1) /* ty=(Tensor[(1, 512), float32], Tensor[(1, 512), float32], Tensor[(1, 512), float32], Tensor[(1, 512), float32]) */;
  %23719 = %23718.3 /* ty=Tensor[(1, 512), float32] */;
  %23720 = %23718.1 /* ty=Tensor[(1, 512), float32] */;
  %23721 = sigmoid(%23720) /* ty=Tensor[(1, 512), float32] */;
  %23722 = %23718.0 /* ty=Tensor[(1, 512), float32] */;
  %23723 = %23718.2 /* ty=Tensor[(1, 512), float32] */;
  %23724 = sigmoid(%23722) /* ty=Tensor[(1, 512), float32] */;
  %23725 = tanh(%23723) /* ty=Tensor[(1, 512), float32] */;
  %23726 = multiply(%23721, %23685) /* ty=Tensor[(1, 512), float32] */;
  %23727 = multiply(%23724, %23725) /* ty=Tensor[(1, 512), float32] */;
  %23728 = add(%23726, %23727) /* ty=Tensor[(1, 512), float32] */;
  %23729 = sigmoid(%23719) /* ty=Tensor[(1, 512), float32] */;
  %23730 = tanh(%23728) /* ty=Tensor[(1, 512), float32] */;
  %23731 = %21822.44 /* ty=Tensor[(1, 512), float32] */;
  %23732 = (%23731, %23709) /* ty=(Tensor[(1, 512), float32], Tensor[(1, 512), float32]) */;
  %23733 = (%prediction.dec_rnn.lstm.weight_ih_l0, %prediction.dec_rnn.lstm.weight_hh_l0) /* ty=(Tensor[(2048, 512), float32], Tensor[(2048, 512), float32]) */;
  %23734 = concatenate(%23732, axis=1) /* ty=Tensor[(1, 1024), float32] */;
  %23735 = concatenate(%23733, axis=1) /* ty=Tensor[(2048, 1024), float32] */;
  %23736 = nn.dense(%23734, %23735, units=None) /* ty=Tensor[(1, 2048), float32] */;
  %23737 = add(%23736, %prediction.dec_rnn.lstm.bias_ih_l0) /* ty=Tensor[(1, 2048), float32] */;
  %23738 = add(%23737, %prediction.dec_rnn.lstm.bias_hh_l0) /* ty=Tensor[(1, 2048), float32] */;
  %23739 = split(%23738, indices_or_sections=4, axis=-1) /* ty=(Tensor[(1, 512), float32], Tensor[(1, 512), float32], Tensor[(1, 512), float32], Tensor[(1, 512), float32]) */;
  %23740 = %23739.3 /* ty=Tensor[(1, 512), float32] */;
  %23741 = %23739.1 /* ty=Tensor[(1, 512), float32] */;
  %23742 = sigmoid(%23741) /* ty=Tensor[(1, 512), float32] */;
  %23743 = %23739.0 /* ty=Tensor[(1, 512), float32] */;
  %23744 = %23739.2 /* ty=Tensor[(1, 512), float32] */;
  %23745 = sigmoid(%23743) /* ty=Tensor[(1, 512), float32] */;
  %23746 = tanh(%23744) /* ty=Tensor[(1, 512), float32] */;
  %23747 = multiply(%23742, %23706) /* ty=Tensor[(1, 512), float32] */;
  %23748 = multiply(%23745, %23746) /* ty=Tensor[(1, 512), float32] */;
  %23749 = add(%23747, %23748) /* ty=Tensor[(1, 512), float32] */;
  %23750 = sigmoid(%23740) /* ty=Tensor[(1, 512), float32] */;
  %23751 = tanh(%23749) /* ty=Tensor[(1, 512), float32] */;
  %23752 = multiply(%23750, %23751) /* ty=Tensor[(1, 512), float32] */;
  %23753 = multiply(%23729, %23730) /* ty=Tensor[(1, 512), float32] */;
  %23754 = (%23752, %23753) /* ty=(Tensor[(1, 512), float32], Tensor[(1, 512), float32]) */;
  %23755 = (%prediction.dec_rnn.lstm.weight_ih_l1, %prediction.dec_rnn.lstm.weight_hh_l1) /* ty=(Tensor[(2048, 512), float32], Tensor[(2048, 512), float32]) */;
  %23756 = concatenate(%23754, axis=1) /* ty=Tensor[(1, 1024), float32] */;
  %23757 = concatenate(%23755, axis=1) /* ty=Tensor[(2048, 1024), float32] */;
  %23758 = nn.dense(%23756, %23757, units=None) /* ty=Tensor[(1, 2048), float32] */;
  %23759 = add(%23758, %prediction.dec_rnn.lstm.bias_ih_l1) /* ty=Tensor[(1, 2048), float32] */;
  %23760 = add(%23759, %prediction.dec_rnn.lstm.bias_hh_l1) /* ty=Tensor[(1, 2048), float32] */;
  %23761 = split(%23760, indices_or_sections=4, axis=-1) /* ty=(Tensor[(1, 512), float32], Tensor[(1, 512), float32], Tensor[(1, 512), float32], Tensor[(1, 512), float32]) */;
  %23762 = %23761.3 /* ty=Tensor[(1, 512), float32] */;
  %23763 = %23761.1 /* ty=Tensor[(1, 512), float32] */;
  %23764 = sigmoid(%23763) /* ty=Tensor[(1, 512), float32] */;
  %23765 = %23761.0 /* ty=Tensor[(1, 512), float32] */;
  %23766 = %23761.2 /* ty=Tensor[(1, 512), float32] */;
  %23767 = sigmoid(%23765) /* ty=Tensor[(1, 512), float32] */;
  %23768 = tanh(%23766) /* ty=Tensor[(1, 512), float32] */;
  %23769 = multiply(%23764, %23728) /* ty=Tensor[(1, 512), float32] */;
  %23770 = multiply(%23767, %23768) /* ty=Tensor[(1, 512), float32] */;
  %23771 = add(%23769, %23770) /* ty=Tensor[(1, 512), float32] */;
  %23772 = sigmoid(%23762) /* ty=Tensor[(1, 512), float32] */;
  %23773 = tanh(%23771) /* ty=Tensor[(1, 512), float32] */;
  %23774 = %21822.45 /* ty=Tensor[(1, 512), float32] */;
  %23775 = (%23774, %23752) /* ty=(Tensor[(1, 512), float32], Tensor[(1, 512), float32]) */;
  %23776 = (%prediction.dec_rnn.lstm.weight_ih_l0, %prediction.dec_rnn.lstm.weight_hh_l0) /* ty=(Tensor[(2048, 512), float32], Tensor[(2048, 512), float32]) */;
  %23777 = concatenate(%23775, axis=1) /* ty=Tensor[(1, 1024), float32] */;
  %23778 = concatenate(%23776, axis=1) /* ty=Tensor[(2048, 1024), float32] */;
  %23779 = nn.dense(%23777, %23778, units=None) /* ty=Tensor[(1, 2048), float32] */;
  %23780 = add(%23779, %prediction.dec_rnn.lstm.bias_ih_l0) /* ty=Tensor[(1, 2048), float32] */;
  %23781 = add(%23780, %prediction.dec_rnn.lstm.bias_hh_l0) /* ty=Tensor[(1, 2048), float32] */;
  %23782 = split(%23781, indices_or_sections=4, axis=-1) /* ty=(Tensor[(1, 512), float32], Tensor[(1, 512), float32], Tensor[(1, 512), float32], Tensor[(1, 512), float32]) */;
  %23783 = %23782.3 /* ty=Tensor[(1, 512), float32] */;
  %23784 = %23782.1 /* ty=Tensor[(1, 512), float32] */;
  %23785 = sigmoid(%23784) /* ty=Tensor[(1, 512), float32] */;
  %23786 = %23782.0 /* ty=Tensor[(1, 512), float32] */;
  %23787 = %23782.2 /* ty=Tensor[(1, 512), float32] */;
  %23788 = sigmoid(%23786) /* ty=Tensor[(1, 512), float32] */;
  %23789 = tanh(%23787) /* ty=Tensor[(1, 512), float32] */;
  %23790 = multiply(%23785, %23749) /* ty=Tensor[(1, 512), float32] */;
  %23791 = multiply(%23788, %23789) /* ty=Tensor[(1, 512), float32] */;
  %23792 = add(%23790, %23791) /* ty=Tensor[(1, 512), float32] */;
  %23793 = sigmoid(%23783) /* ty=Tensor[(1, 512), float32] */;
  %23794 = tanh(%23792) /* ty=Tensor[(1, 512), float32] */;
  %23795 = multiply(%23793, %23794) /* ty=Tensor[(1, 512), float32] */;
  %23796 = multiply(%23772, %23773) /* ty=Tensor[(1, 512), float32] */;
  %23797 = (%23795, %23796) /* ty=(Tensor[(1, 512), float32], Tensor[(1, 512), float32]) */;
  %23798 = (%prediction.dec_rnn.lstm.weight_ih_l1, %prediction.dec_rnn.lstm.weight_hh_l1) /* ty=(Tensor[(2048, 512), float32], Tensor[(2048, 512), float32]) */;
  %23799 = concatenate(%23797, axis=1) /* ty=Tensor[(1, 1024), float32] */;
  %23800 = concatenate(%23798, axis=1) /* ty=Tensor[(2048, 1024), float32] */;
  %23801 = nn.dense(%23799, %23800, units=None) /* ty=Tensor[(1, 2048), float32] */;
  %23802 = add(%23801, %prediction.dec_rnn.lstm.bias_ih_l1) /* ty=Tensor[(1, 2048), float32] */;
  %23803 = add(%23802, %prediction.dec_rnn.lstm.bias_hh_l1) /* ty=Tensor[(1, 2048), float32] */;
  %23804 = split(%23803, indices_or_sections=4, axis=-1) /* ty=(Tensor[(1, 512), float32], Tensor[(1, 512), float32], Tensor[(1, 512), float32], Tensor[(1, 512), float32]) */;
  %23805 = %23804.3 /* ty=Tensor[(1, 512), float32] */;
  %23806 = %23804.1 /* ty=Tensor[(1, 512), float32] */;
  %23807 = sigmoid(%23806) /* ty=Tensor[(1, 512), float32] */;
  %23808 = %23804.0 /* ty=Tensor[(1, 512), float32] */;
  %23809 = %23804.2 /* ty=Tensor[(1, 512), float32] */;
  %23810 = sigmoid(%23808) /* ty=Tensor[(1, 512), float32] */;
  %23811 = tanh(%23809) /* ty=Tensor[(1, 512), float32] */;
  %23812 = multiply(%23807, %23771) /* ty=Tensor[(1, 512), float32] */;
  %23813 = multiply(%23810, %23811) /* ty=Tensor[(1, 512), float32] */;
  %23814 = add(%23812, %23813) /* ty=Tensor[(1, 512), float32] */;
  %23815 = sigmoid(%23805) /* ty=Tensor[(1, 512), float32] */;
  %23816 = tanh(%23814) /* ty=Tensor[(1, 512), float32] */;
  %23817 = %21822.46 /* ty=Tensor[(1, 512), float32] */;
  %23818 = (%23817, %23795) /* ty=(Tensor[(1, 512), float32], Tensor[(1, 512), float32]) */;
  %23819 = (%prediction.dec_rnn.lstm.weight_ih_l0, %prediction.dec_rnn.lstm.weight_hh_l0) /* ty=(Tensor[(2048, 512), float32], Tensor[(2048, 512), float32]) */;
  %23820 = concatenate(%23818, axis=1) /* ty=Tensor[(1, 1024), float32] */;
  %23821 = concatenate(%23819, axis=1) /* ty=Tensor[(2048, 1024), float32] */;
  %23822 = nn.dense(%23820, %23821, units=None) /* ty=Tensor[(1, 2048), float32] */;
  %23823 = add(%23822, %prediction.dec_rnn.lstm.bias_ih_l0) /* ty=Tensor[(1, 2048), float32] */;
  %23824 = add(%23823, %prediction.dec_rnn.lstm.bias_hh_l0) /* ty=Tensor[(1, 2048), float32] */;
  %23825 = split(%23824, indices_or_sections=4, axis=-1) /* ty=(Tensor[(1, 512), float32], Tensor[(1, 512), float32], Tensor[(1, 512), float32], Tensor[(1, 512), float32]) */;
  %23826 = %23825.3 /* ty=Tensor[(1, 512), float32] */;
  %23827 = %23825.1 /* ty=Tensor[(1, 512), float32] */;
  %23828 = sigmoid(%23827) /* ty=Tensor[(1, 512), float32] */;
  %23829 = %23825.0 /* ty=Tensor[(1, 512), float32] */;
  %23830 = %23825.2 /* ty=Tensor[(1, 512), float32] */;
  %23831 = sigmoid(%23829) /* ty=Tensor[(1, 512), float32] */;
  %23832 = tanh(%23830) /* ty=Tensor[(1, 512), float32] */;
  %23833 = multiply(%23828, %23792) /* ty=Tensor[(1, 512), float32] */;
  %23834 = multiply(%23831, %23832) /* ty=Tensor[(1, 512), float32] */;
  %23835 = add(%23833, %23834) /* ty=Tensor[(1, 512), float32] */;
  %23836 = sigmoid(%23826) /* ty=Tensor[(1, 512), float32] */;
  %23837 = tanh(%23835) /* ty=Tensor[(1, 512), float32] */;
  %23838 = multiply(%23836, %23837) /* ty=Tensor[(1, 512), float32] */;
  %23839 = multiply(%23815, %23816) /* ty=Tensor[(1, 512), float32] */;
  %23840 = (%23838, %23839) /* ty=(Tensor[(1, 512), float32], Tensor[(1, 512), float32]) */;
  %23841 = (%prediction.dec_rnn.lstm.weight_ih_l1, %prediction.dec_rnn.lstm.weight_hh_l1) /* ty=(Tensor[(2048, 512), float32], Tensor[(2048, 512), float32]) */;
  %23842 = concatenate(%23840, axis=1) /* ty=Tensor[(1, 1024), float32] */;
  %23843 = concatenate(%23841, axis=1) /* ty=Tensor[(2048, 1024), float32] */;
  %23844 = nn.dense(%23842, %23843, units=None) /* ty=Tensor[(1, 2048), float32] */;
  %23845 = add(%23844, %prediction.dec_rnn.lstm.bias_ih_l1) /* ty=Tensor[(1, 2048), float32] */;
  %23846 = add(%23845, %prediction.dec_rnn.lstm.bias_hh_l1) /* ty=Tensor[(1, 2048), float32] */;
  %23847 = split(%23846, indices_or_sections=4, axis=-1) /* ty=(Tensor[(1, 512), float32], Tensor[(1, 512), float32], Tensor[(1, 512), float32], Tensor[(1, 512), float32]) */;
  %23848 = %23847.3 /* ty=Tensor[(1, 512), float32] */;
  %23849 = %23847.1 /* ty=Tensor[(1, 512), float32] */;
  %23850 = sigmoid(%23849) /* ty=Tensor[(1, 512), float32] */;
  %23851 = %23847.0 /* ty=Tensor[(1, 512), float32] */;
  %23852 = %23847.2 /* ty=Tensor[(1, 512), float32] */;
  %23853 = sigmoid(%23851) /* ty=Tensor[(1, 512), float32] */;
  %23854 = tanh(%23852) /* ty=Tensor[(1, 512), float32] */;
  %23855 = multiply(%23850, %23814) /* ty=Tensor[(1, 512), float32] */;
  %23856 = multiply(%23853, %23854) /* ty=Tensor[(1, 512), float32] */;
  %23857 = add(%23855, %23856) /* ty=Tensor[(1, 512), float32] */;
  %23858 = sigmoid(%23848) /* ty=Tensor[(1, 512), float32] */;
  %23859 = tanh(%23857) /* ty=Tensor[(1, 512), float32] */;
  %23860 = %21822.47 /* ty=Tensor[(1, 512), float32] */;
  %23861 = (%23860, %23838) /* ty=(Tensor[(1, 512), float32], Tensor[(1, 512), float32]) */;
  %23862 = (%prediction.dec_rnn.lstm.weight_ih_l0, %prediction.dec_rnn.lstm.weight_hh_l0) /* ty=(Tensor[(2048, 512), float32], Tensor[(2048, 512), float32]) */;
  %23863 = concatenate(%23861, axis=1) /* ty=Tensor[(1, 1024), float32] */;
  %23864 = concatenate(%23862, axis=1) /* ty=Tensor[(2048, 1024), float32] */;
  %23865 = nn.dense(%23863, %23864, units=None) /* ty=Tensor[(1, 2048), float32] */;
  %23866 = add(%23865, %prediction.dec_rnn.lstm.bias_ih_l0) /* ty=Tensor[(1, 2048), float32] */;
  %23867 = add(%23866, %prediction.dec_rnn.lstm.bias_hh_l0) /* ty=Tensor[(1, 2048), float32] */;
  %23868 = split(%23867, indices_or_sections=4, axis=-1) /* ty=(Tensor[(1, 512), float32], Tensor[(1, 512), float32], Tensor[(1, 512), float32], Tensor[(1, 512), float32]) */;
  %23869 = %23868.3 /* ty=Tensor[(1, 512), float32] */;
  %23870 = %23868.1 /* ty=Tensor[(1, 512), float32] */;
  %23871 = sigmoid(%23870) /* ty=Tensor[(1, 512), float32] */;
  %23872 = %23868.0 /* ty=Tensor[(1, 512), float32] */;
  %23873 = %23868.2 /* ty=Tensor[(1, 512), float32] */;
  %23874 = sigmoid(%23872) /* ty=Tensor[(1, 512), float32] */;
  %23875 = tanh(%23873) /* ty=Tensor[(1, 512), float32] */;
  %23876 = multiply(%23871, %23835) /* ty=Tensor[(1, 512), float32] */;
  %23877 = multiply(%23874, %23875) /* ty=Tensor[(1, 512), float32] */;
  %23878 = add(%23876, %23877) /* ty=Tensor[(1, 512), float32] */;
  %23879 = sigmoid(%23869) /* ty=Tensor[(1, 512), float32] */;
  %23880 = tanh(%23878) /* ty=Tensor[(1, 512), float32] */;
  %23881 = multiply(%23879, %23880) /* ty=Tensor[(1, 512), float32] */;
  %23882 = multiply(%23858, %23859) /* ty=Tensor[(1, 512), float32] */;
  %23883 = (%23881, %23882) /* ty=(Tensor[(1, 512), float32], Tensor[(1, 512), float32]) */;
  %23884 = (%prediction.dec_rnn.lstm.weight_ih_l1, %prediction.dec_rnn.lstm.weight_hh_l1) /* ty=(Tensor[(2048, 512), float32], Tensor[(2048, 512), float32]) */;
  %23885 = concatenate(%23883, axis=1) /* ty=Tensor[(1, 1024), float32] */;
  %23886 = concatenate(%23884, axis=1) /* ty=Tensor[(2048, 1024), float32] */;
  %23887 = nn.dense(%23885, %23886, units=None) /* ty=Tensor[(1, 2048), float32] */;
  %23888 = add(%23887, %prediction.dec_rnn.lstm.bias_ih_l1) /* ty=Tensor[(1, 2048), float32] */;
  %23889 = add(%23888, %prediction.dec_rnn.lstm.bias_hh_l1) /* ty=Tensor[(1, 2048), float32] */;
  %23890 = split(%23889, indices_or_sections=4, axis=-1) /* ty=(Tensor[(1, 512), float32], Tensor[(1, 512), float32], Tensor[(1, 512), float32], Tensor[(1, 512), float32]) */;
  %23891 = %23890.3 /* ty=Tensor[(1, 512), float32] */;
  %23892 = %23890.1 /* ty=Tensor[(1, 512), float32] */;
  %23893 = sigmoid(%23892) /* ty=Tensor[(1, 512), float32] */;
  %23894 = %23890.0 /* ty=Tensor[(1, 512), float32] */;
  %23895 = %23890.2 /* ty=Tensor[(1, 512), float32] */;
  %23896 = sigmoid(%23894) /* ty=Tensor[(1, 512), float32] */;
  %23897 = tanh(%23895) /* ty=Tensor[(1, 512), float32] */;
  %23898 = multiply(%23893, %23857) /* ty=Tensor[(1, 512), float32] */;
  %23899 = multiply(%23896, %23897) /* ty=Tensor[(1, 512), float32] */;
  %23900 = add(%23898, %23899) /* ty=Tensor[(1, 512), float32] */;
  %23901 = sigmoid(%23891) /* ty=Tensor[(1, 512), float32] */;
  %23902 = tanh(%23900) /* ty=Tensor[(1, 512), float32] */;
  %23903 = multiply(%23901, %23902) /* ty=Tensor[(1, 512), float32] */;
  %23904 = (%21904, %21947, %21990, %22033, %22076, %22119, %22162, %22205, %22248, %22291, %22334, %22377, %22420, %22463, %22506, %22549, %22592, %22635, %22678, %22721, %22764, %22807, %22850, %22893, %22936, %22979, %23022, %23065, %23108, %23151, %23194, %23237, %23280, %23323, %23366, %23409, %23452, %23495, %23538, %23581, %23624, %23667, %23710, %23753, %23796, %23839, %23882, %23903) /* ty=(Tensor[(1, 512), float32], Tensor[(1, 512), float32], Tensor[(1, 512), float32], Tensor[(1, 512), float32], Tensor[(1, 512), float32], Tensor[(1, 512), float32], Tensor[(1, 512), float32], Tensor[(1, 512), float32], Tensor[(1, 512), float32], Tensor[(1, 512), float32], Tensor[(1, 512), float32], Tensor[(1, 512), float32], Tensor[(1, 512), float32], Tensor[(1, 512), float32], Tensor[(1, 512), float32], Tensor[(1, 512), float32], Tensor[(1, 512), float32], Tensor[(1, 512), float32], Tensor[(1, 512), float32], Tensor[(1, 512), float32], Tensor[(1, 512), float32], Tensor[(1, 512), float32], Tensor[(1, 512), float32], Tensor[(1, 512), float32], Tensor[(1, 512), float32], Tensor[(1, 512), float32], Tensor[(1, 512), float32], Tensor[(1, 512), float32], Tensor[(1, 512), float32], Tensor[(1, 512), float32], Tensor[(1, 512), float32], Tensor[(1, 512), float32], Tensor[(1, 512), float32], Tensor[(1, 512), float32], Tensor[(1, 512), float32], Tensor[(1, 512), float32], Tensor[(1, 512), float32], Tensor[(1, 512), float32], Tensor[(1, 512), float32], Tensor[(1, 512), float32], Tensor[(1, 512), float32], Tensor[(1, 512), float32], Tensor[(1, 512), float32], Tensor[(1, 512), float32], Tensor[(1, 512), float32], Tensor[(1, 512), float32], Tensor[(1, 512), float32], Tensor[(1, 512), float32]) */;
  %23905 = stack(%23904) /* ty=Tensor[(48, 1, 512), float32] */;
  %23906 = nn.dropout(%23905, rate=0.3f) /* ty=(Tensor[(48, 1, 512), float32], Tensor[(48, 1, 512), float32]) */;
  %23907 = %23906.0 /* ty=Tensor[(48, 1, 512), float32] */;
  %23908 = transpose(%23907, axes=[1, 0, 2]) /* ty=Tensor[(1, 48, 512), float32] */;
  %23909 = transpose(%joint_pred.weight, axes=[1, 0]) /* ty=Tensor[(512, 512), float32] */;
  %23910 = reshape(%23908, newshape=[-1, 512]) /* ty=Tensor[(48, 512), float32] */;
  %23911 = transpose(%23909, axes=[1, 0]) /* ty=Tensor[(512, 512), float32] */;
  %23912 = nn.dense(%23910, %23911, units=None) /* ty=Tensor[(48, 512), float32] */;
  %23913 = reshape(%23912, newshape=[1, 48, 512]) /* ty=Tensor[(1, 48, 512), float32] */;
  %23914 = add(%23913, %joint_pred.bias) /* ty=Tensor[(1, 48, 512), float32] */;
  %23915 = expand_dims(%21718, axis=2) /* ty=Tensor[(1, 139, 1, 512), float32] */;
  %23916 = expand_dims(%23914, axis=1) /* ty=Tensor[(1, 1, 48, 512), float32] */;
  %23917 = add(%23915, %23916) /* ty=Tensor[(1, 139, 48, 512), float32] */;
  %23918 = nn.relu(%23917) /* ty=Tensor[(1, 139, 48, 512), float32] */;
  %23919 = nn.dropout(%23918, rate=0.3f) /* ty=(Tensor[(1, 139, 48, 512), float32], Tensor[(1, 139, 48, 512), float32]) */;
  %23920 = %23919.0 /* ty=Tensor[(1, 139, 48, 512), float32] */;
  %23921 = transpose(%joint_net.2.weight, axes=[1, 0]) /* ty=Tensor[(512, 501), float32] */;
  %23922 = reshape(%23920, newshape=[-1, 512]) /* ty=Tensor[(6672, 512), float32] */;
  %23923 = transpose(%23921, axes=[1, 0]) /* ty=Tensor[(501, 512), float32] */;
  %23924 = nn.dense(%23922, %23923, units=None) /* ty=Tensor[(6672, 501), float32] */;
  %23925 = reshape(%23924, newshape=[1, 139, 48, 501]) /* ty=Tensor[(1, 139, 48, 501), float32] */;
  %23926 = add(%feat_lens, 2 /* ty=int32 */) /* ty=Tensor[(1), int32] */;
  %23927 = multiply(1 /* ty=int32 */, 1 /* ty=int32 */) /* ty=int32 */;
  %23928 = subtract(%23926, %23927) /* ty=Tensor[(1), int32] */;
  %23929 = add(%23925, %joint_net.2.bias) /* ty=Tensor[(1, 139, 48, 501), float32] */;
  %23930 = floor_divide(%23928, 2 /* ty=int32 */) /* ty=Tensor[(1), int32] */;
  (%23929, %23930) /* ty=(Tensor[(1, 139, 48, 501), float32], Tensor[(1), int32]) */
}


