#[version = "0.0.5"]
def @main(%data: Tensor[(1, 3, 416, 416), float32], %LAYERTYPE.CONVOLUTIONAL0_weight: Tensor[(32, 3, 3, 3), float32], %LAYERTYPE.CONVOLUTIONAL0_gamma: Tensor[(32), float32], %LAYERTYPE.CONVOLUTIONAL0_beta: Tensor[(32), float32], %LAYERTYPE.CONVOLUTIONAL0_moving_mean: Tensor[(32), float32], %LAYERTYPE.CONVOLUTIONAL0_moving_var: Tensor[(32), float32], %LAYERTYPE.CONVOLUTIONAL1_weight: Tensor[(64, 32, 3, 3), float32], %LAYERTYPE.CONVOLUTIONAL1_gamma: Tensor[(64), float32], %LAYERTYPE.CONVOLUTIONAL1_beta: Tensor[(64), float32], %LAYERTYPE.CONVOLUTIONAL1_moving_mean: Tensor[(64), float32], %LAYERTYPE.CONVOLUTIONAL1_moving_var: Tensor[(64), float32], %LAYERTYPE.CONVOLUTIONAL2_weight: Tensor[(32, 64, 1, 1), float32], %LAYERTYPE.CONVOLUTIONAL2_gamma: Tensor[(32), float32], %LAYERTYPE.CONVOLUTIONAL2_beta: Tensor[(32), float32], %LAYERTYPE.CONVOLUTIONAL2_moving_mean: Tensor[(32), float32], %LAYERTYPE.CONVOLUTIONAL2_moving_var: Tensor[(32), float32], %LAYERTYPE.CONVOLUTIONAL3_weight: Tensor[(64, 32, 3, 3), float32], %LAYERTYPE.CONVOLUTIONAL3_gamma: Tensor[(64), float32], %LAYERTYPE.CONVOLUTIONAL3_beta: Tensor[(64), float32], %LAYERTYPE.CONVOLUTIONAL3_moving_mean: Tensor[(64), float32], %LAYERTYPE.CONVOLUTIONAL3_moving_var: Tensor[(64), float32], %LAYERTYPE.CONVOLUTIONAL5_weight: Tensor[(128, 64, 3, 3), float32], %LAYERTYPE.CONVOLUTIONAL5_gamma: Tensor[(128), float32], %LAYERTYPE.CONVOLUTIONAL5_beta: Tensor[(128), float32], %LAYERTYPE.CONVOLUTIONAL5_moving_mean: Tensor[(128), float32], %LAYERTYPE.CONVOLUTIONAL5_moving_var: Tensor[(128), float32], %LAYERTYPE.CONVOLUTIONAL6_weight: Tensor[(64, 128, 1, 1), float32], %LAYERTYPE.CONVOLUTIONAL6_gamma: Tensor[(64), float32], %LAYERTYPE.CONVOLUTIONAL6_beta: Tensor[(64), float32], %LAYERTYPE.CONVOLUTIONAL6_moving_mean: Tensor[(64), float32], %LAYERTYPE.CONVOLUTIONAL6_moving_var: Tensor[(64), float32], %LAYERTYPE.CONVOLUTIONAL7_weight: Tensor[(128, 64, 3, 3), float32], %LAYERTYPE.CONVOLUTIONAL7_gamma: Tensor[(128), float32], %LAYERTYPE.CONVOLUTIONAL7_beta: Tensor[(128), float32], %LAYERTYPE.CONVOLUTIONAL7_moving_mean: Tensor[(128), float32], %LAYERTYPE.CONVOLUTIONAL7_moving_var: Tensor[(128), float32], %LAYERTYPE.CONVOLUTIONAL9_weight: Tensor[(64, 128, 1, 1), float32], %LAYERTYPE.CONVOLUTIONAL9_gamma: Tensor[(64), float32], %LAYERTYPE.CONVOLUTIONAL9_beta: Tensor[(64), float32], %LAYERTYPE.CONVOLUTIONAL9_moving_mean: Tensor[(64), float32], %LAYERTYPE.CONVOLUTIONAL9_moving_var: Tensor[(64), float32], %LAYERTYPE.CONVOLUTIONAL10_weight: Tensor[(128, 64, 3, 3), float32], %LAYERTYPE.CONVOLUTIONAL10_gamma: Tensor[(128), float32], %LAYERTYPE.CONVOLUTIONAL10_beta: Tensor[(128), float32], %LAYERTYPE.CONVOLUTIONAL10_moving_mean: Tensor[(128), float32], %LAYERTYPE.CONVOLUTIONAL10_moving_var: Tensor[(128), float32], %LAYERTYPE.CONVOLUTIONAL12_weight: Tensor[(256, 128, 3, 3), float32], %LAYERTYPE.CONVOLUTIONAL12_gamma: Tensor[(256), float32], %LAYERTYPE.CONVOLUTIONAL12_beta: Tensor[(256), float32], %LAYERTYPE.CONVOLUTIONAL12_moving_mean: Tensor[(256), float32], %LAYERTYPE.CONVOLUTIONAL12_moving_var: Tensor[(256), float32], %LAYERTYPE.CONVOLUTIONAL13_weight: Tensor[(128, 256, 1, 1), float32], %LAYERTYPE.CONVOLUTIONAL13_gamma: Tensor[(128), float32], %LAYERTYPE.CONVOLUTIONAL13_beta: Tensor[(128), float32], %LAYERTYPE.CONVOLUTIONAL13_moving_mean: Tensor[(128), float32], %LAYERTYPE.CONVOLUTIONAL13_moving_var: Tensor[(128), float32], %LAYERTYPE.CONVOLUTIONAL14_weight: Tensor[(256, 128, 3, 3), float32], %LAYERTYPE.CONVOLUTIONAL14_gamma: Tensor[(256), float32], %LAYERTYPE.CONVOLUTIONAL14_beta: Tensor[(256), float32], %LAYERTYPE.CONVOLUTIONAL14_moving_mean: Tensor[(256), float32], %LAYERTYPE.CONVOLUTIONAL14_moving_var: Tensor[(256), float32], %LAYERTYPE.CONVOLUTIONAL16_weight: Tensor[(128, 256, 1, 1), float32], %LAYERTYPE.CONVOLUTIONAL16_gamma: Tensor[(128), float32], %LAYERTYPE.CONVOLUTIONAL16_beta: Tensor[(128), float32], %LAYERTYPE.CONVOLUTIONAL16_moving_mean: Tensor[(128), float32], %LAYERTYPE.CONVOLUTIONAL16_moving_var: Tensor[(128), float32], %LAYERTYPE.CONVOLUTIONAL17_weight: Tensor[(256, 128, 3, 3), float32], %LAYERTYPE.CONVOLUTIONAL17_gamma: Tensor[(256), float32], %LAYERTYPE.CONVOLUTIONAL17_beta: Tensor[(256), float32], %LAYERTYPE.CONVOLUTIONAL17_moving_mean: Tensor[(256), float32], %LAYERTYPE.CONVOLUTIONAL17_moving_var: Tensor[(256), float32], %LAYERTYPE.CONVOLUTIONAL19_weight: Tensor[(128, 256, 1, 1), float32], %LAYERTYPE.CONVOLUTIONAL19_gamma: Tensor[(128), float32], %LAYERTYPE.CONVOLUTIONAL19_beta: Tensor[(128), float32], %LAYERTYPE.CONVOLUTIONAL19_moving_mean: Tensor[(128), float32], %LAYERTYPE.CONVOLUTIONAL19_moving_var: Tensor[(128), float32], %LAYERTYPE.CONVOLUTIONAL20_weight: Tensor[(256, 128, 3, 3), float32], %LAYERTYPE.CONVOLUTIONAL20_gamma: Tensor[(256), float32], %LAYERTYPE.CONVOLUTIONAL20_beta: Tensor[(256), float32], %LAYERTYPE.CONVOLUTIONAL20_moving_mean: Tensor[(256), float32], %LAYERTYPE.CONVOLUTIONAL20_moving_var: Tensor[(256), float32], %LAYERTYPE.CONVOLUTIONAL22_weight: Tensor[(128, 256, 1, 1), float32], %LAYERTYPE.CONVOLUTIONAL22_gamma: Tensor[(128), float32], %LAYERTYPE.CONVOLUTIONAL22_beta: Tensor[(128), float32], %LAYERTYPE.CONVOLUTIONAL22_moving_mean: Tensor[(128), float32], %LAYERTYPE.CONVOLUTIONAL22_moving_var: Tensor[(128), float32], %LAYERTYPE.CONVOLUTIONAL23_weight: Tensor[(256, 128, 3, 3), float32], %LAYERTYPE.CONVOLUTIONAL23_gamma: Tensor[(256), float32], %LAYERTYPE.CONVOLUTIONAL23_beta: Tensor[(256), float32], %LAYERTYPE.CONVOLUTIONAL23_moving_mean: Tensor[(256), float32], %LAYERTYPE.CONVOLUTIONAL23_moving_var: Tensor[(256), float32], %LAYERTYPE.CONVOLUTIONAL25_weight: Tensor[(128, 256, 1, 1), float32], %LAYERTYPE.CONVOLUTIONAL25_gamma: Tensor[(128), float32], %LAYERTYPE.CONVOLUTIONAL25_beta: Tensor[(128), float32], %LAYERTYPE.CONVOLUTIONAL25_moving_mean: Tensor[(128), float32], %LAYERTYPE.CONVOLUTIONAL25_moving_var: Tensor[(128), float32], %LAYERTYPE.CONVOLUTIONAL26_weight: Tensor[(256, 128, 3, 3), float32], %LAYERTYPE.CONVOLUTIONAL26_gamma: Tensor[(256), float32], %LAYERTYPE.CONVOLUTIONAL26_beta: Tensor[(256), float32], %LAYERTYPE.CONVOLUTIONAL26_moving_mean: Tensor[(256), float32], %LAYERTYPE.CONVOLUTIONAL26_moving_var: Tensor[(256), float32], %LAYERTYPE.CONVOLUTIONAL28_weight: Tensor[(128, 256, 1, 1), float32], %LAYERTYPE.CONVOLUTIONAL28_gamma: Tensor[(128), float32], %LAYERTYPE.CONVOLUTIONAL28_beta: Tensor[(128), float32], %LAYERTYPE.CONVOLUTIONAL28_moving_mean: Tensor[(128), float32], %LAYERTYPE.CONVOLUTIONAL28_moving_var: Tensor[(128), float32], %LAYERTYPE.CONVOLUTIONAL29_weight: Tensor[(256, 128, 3, 3), float32], %LAYERTYPE.CONVOLUTIONAL29_gamma: Tensor[(256), float32], %LAYERTYPE.CONVOLUTIONAL29_beta: Tensor[(256), float32], %LAYERTYPE.CONVOLUTIONAL29_moving_mean: Tensor[(256), float32], %LAYERTYPE.CONVOLUTIONAL29_moving_var: Tensor[(256), float32], %LAYERTYPE.CONVOLUTIONAL31_weight: Tensor[(128, 256, 1, 1), float32], %LAYERTYPE.CONVOLUTIONAL31_gamma: Tensor[(128), float32], %LAYERTYPE.CONVOLUTIONAL31_beta: Tensor[(128), float32], %LAYERTYPE.CONVOLUTIONAL31_moving_mean: Tensor[(128), float32], %LAYERTYPE.CONVOLUTIONAL31_moving_var: Tensor[(128), float32], %LAYERTYPE.CONVOLUTIONAL32_weight: Tensor[(256, 128, 3, 3), float32], %LAYERTYPE.CONVOLUTIONAL32_gamma: Tensor[(256), float32], %LAYERTYPE.CONVOLUTIONAL32_beta: Tensor[(256), float32], %LAYERTYPE.CONVOLUTIONAL32_moving_mean: Tensor[(256), float32], %LAYERTYPE.CONVOLUTIONAL32_moving_var: Tensor[(256), float32], %LAYERTYPE.CONVOLUTIONAL34_weight: Tensor[(128, 256, 1, 1), float32], %LAYERTYPE.CONVOLUTIONAL34_gamma: Tensor[(128), float32], %LAYERTYPE.CONVOLUTIONAL34_beta: Tensor[(128), float32], %LAYERTYPE.CONVOLUTIONAL34_moving_mean: Tensor[(128), float32], %LAYERTYPE.CONVOLUTIONAL34_moving_var: Tensor[(128), float32], %LAYERTYPE.CONVOLUTIONAL35_weight: Tensor[(256, 128, 3, 3), float32], %LAYERTYPE.CONVOLUTIONAL35_gamma: Tensor[(256), float32], %LAYERTYPE.CONVOLUTIONAL35_beta: Tensor[(256), float32], %LAYERTYPE.CONVOLUTIONAL35_moving_mean: Tensor[(256), float32], %LAYERTYPE.CONVOLUTIONAL35_moving_var: Tensor[(256), float32], %LAYERTYPE.CONVOLUTIONAL37_weight: Tensor[(512, 256, 3, 3), float32], %LAYERTYPE.CONVOLUTIONAL37_gamma: Tensor[(512), float32], %LAYERTYPE.CONVOLUTIONAL37_beta: Tensor[(512), float32], %LAYERTYPE.CONVOLUTIONAL37_moving_mean: Tensor[(512), float32], %LAYERTYPE.CONVOLUTIONAL37_moving_var: Tensor[(512), float32], %LAYERTYPE.CONVOLUTIONAL38_weight: Tensor[(256, 512, 1, 1), float32], %LAYERTYPE.CONVOLUTIONAL38_gamma: Tensor[(256), float32], %LAYERTYPE.CONVOLUTIONAL38_beta: Tensor[(256), float32], %LAYERTYPE.CONVOLUTIONAL38_moving_mean: Tensor[(256), float32], %LAYERTYPE.CONVOLUTIONAL38_moving_var: Tensor[(256), float32], %LAYERTYPE.CONVOLUTIONAL39_weight: Tensor[(512, 256, 3, 3), float32], %LAYERTYPE.CONVOLUTIONAL39_gamma: Tensor[(512), float32], %LAYERTYPE.CONVOLUTIONAL39_beta: Tensor[(512), float32], %LAYERTYPE.CONVOLUTIONAL39_moving_mean: Tensor[(512), float32], %LAYERTYPE.CONVOLUTIONAL39_moving_var: Tensor[(512), float32], %LAYERTYPE.CONVOLUTIONAL41_weight: Tensor[(256, 512, 1, 1), float32], %LAYERTYPE.CONVOLUTIONAL41_gamma: Tensor[(256), float32], %LAYERTYPE.CONVOLUTIONAL41_beta: Tensor[(256), float32], %LAYERTYPE.CONVOLUTIONAL41_moving_mean: Tensor[(256), float32], %LAYERTYPE.CONVOLUTIONAL41_moving_var: Tensor[(256), float32], %LAYERTYPE.CONVOLUTIONAL42_weight: Tensor[(512, 256, 3, 3), float32], %LAYERTYPE.CONVOLUTIONAL42_gamma: Tensor[(512), float32], %LAYERTYPE.CONVOLUTIONAL42_beta: Tensor[(512), float32], %LAYERTYPE.CONVOLUTIONAL42_moving_mean: Tensor[(512), float32], %LAYERTYPE.CONVOLUTIONAL42_moving_var: Tensor[(512), float32], %LAYERTYPE.CONVOLUTIONAL44_weight: Tensor[(256, 512, 1, 1), float32], %LAYERTYPE.CONVOLUTIONAL44_gamma: Tensor[(256), float32], %LAYERTYPE.CONVOLUTIONAL44_beta: Tensor[(256), float32], %LAYERTYPE.CONVOLUTIONAL44_moving_mean: Tensor[(256), float32], %LAYERTYPE.CONVOLUTIONAL44_moving_var: Tensor[(256), float32], %LAYERTYPE.CONVOLUTIONAL45_weight: Tensor[(512, 256, 3, 3), float32], %LAYERTYPE.CONVOLUTIONAL45_gamma: Tensor[(512), float32], %LAYERTYPE.CONVOLUTIONAL45_beta: Tensor[(512), float32], %LAYERTYPE.CONVOLUTIONAL45_moving_mean: Tensor[(512), float32], %LAYERTYPE.CONVOLUTIONAL45_moving_var: Tensor[(512), float32], %LAYERTYPE.CONVOLUTIONAL47_weight: Tensor[(256, 512, 1, 1), float32], %LAYERTYPE.CONVOLUTIONAL47_gamma: Tensor[(256), float32], %LAYERTYPE.CONVOLUTIONAL47_beta: Tensor[(256), float32], %LAYERTYPE.CONVOLUTIONAL47_moving_mean: Tensor[(256), float32], %LAYERTYPE.CONVOLUTIONAL47_moving_var: Tensor[(256), float32], %LAYERTYPE.CONVOLUTIONAL48_weight: Tensor[(512, 256, 3, 3), float32], %LAYERTYPE.CONVOLUTIONAL48_gamma: Tensor[(512), float32], %LAYERTYPE.CONVOLUTIONAL48_beta: Tensor[(512), float32], %LAYERTYPE.CONVOLUTIONAL48_moving_mean: Tensor[(512), float32], %LAYERTYPE.CONVOLUTIONAL48_moving_var: Tensor[(512), float32], %LAYERTYPE.CONVOLUTIONAL50_weight: Tensor[(256, 512, 1, 1), float32], %LAYERTYPE.CONVOLUTIONAL50_gamma: Tensor[(256), float32], %LAYERTYPE.CONVOLUTIONAL50_beta: Tensor[(256), float32], %LAYERTYPE.CONVOLUTIONAL50_moving_mean: Tensor[(256), float32], %LAYERTYPE.CONVOLUTIONAL50_moving_var: Tensor[(256), float32], %LAYERTYPE.CONVOLUTIONAL51_weight: Tensor[(512, 256, 3, 3), float32], %LAYERTYPE.CONVOLUTIONAL51_gamma: Tensor[(512), float32], %LAYERTYPE.CONVOLUTIONAL51_beta: Tensor[(512), float32], %LAYERTYPE.CONVOLUTIONAL51_moving_mean: Tensor[(512), float32], %LAYERTYPE.CONVOLUTIONAL51_moving_var: Tensor[(512), float32], %LAYERTYPE.CONVOLUTIONAL53_weight: Tensor[(256, 512, 1, 1), float32], %LAYERTYPE.CONVOLUTIONAL53_gamma: Tensor[(256), float32], %LAYERTYPE.CONVOLUTIONAL53_beta: Tensor[(256), float32], %LAYERTYPE.CONVOLUTIONAL53_moving_mean: Tensor[(256), float32], %LAYERTYPE.CONVOLUTIONAL53_moving_var: Tensor[(256), float32], %LAYERTYPE.CONVOLUTIONAL54_weight: Tensor[(512, 256, 3, 3), float32], %LAYERTYPE.CONVOLUTIONAL54_gamma: Tensor[(512), float32], %LAYERTYPE.CONVOLUTIONAL54_beta: Tensor[(512), float32], %LAYERTYPE.CONVOLUTIONAL54_moving_mean: Tensor[(512), float32], %LAYERTYPE.CONVOLUTIONAL54_moving_var: Tensor[(512), float32], %LAYERTYPE.CONVOLUTIONAL56_weight: Tensor[(256, 512, 1, 1), float32], %LAYERTYPE.CONVOLUTIONAL56_gamma: Tensor[(256), float32], %LAYERTYPE.CONVOLUTIONAL56_beta: Tensor[(256), float32], %LAYERTYPE.CONVOLUTIONAL56_moving_mean: Tensor[(256), float32], %LAYERTYPE.CONVOLUTIONAL56_moving_var: Tensor[(256), float32], %LAYERTYPE.CONVOLUTIONAL57_weight: Tensor[(512, 256, 3, 3), float32], %LAYERTYPE.CONVOLUTIONAL57_gamma: Tensor[(512), float32], %LAYERTYPE.CONVOLUTIONAL57_beta: Tensor[(512), float32], %LAYERTYPE.CONVOLUTIONAL57_moving_mean: Tensor[(512), float32], %LAYERTYPE.CONVOLUTIONAL57_moving_var: Tensor[(512), float32], %LAYERTYPE.CONVOLUTIONAL59_weight: Tensor[(256, 512, 1, 1), float32], %LAYERTYPE.CONVOLUTIONAL59_gamma: Tensor[(256), float32], %LAYERTYPE.CONVOLUTIONAL59_beta: Tensor[(256), float32], %LAYERTYPE.CONVOLUTIONAL59_moving_mean: Tensor[(256), float32], %LAYERTYPE.CONVOLUTIONAL59_moving_var: Tensor[(256), float32], %LAYERTYPE.CONVOLUTIONAL60_weight: Tensor[(512, 256, 3, 3), float32], %LAYERTYPE.CONVOLUTIONAL60_gamma: Tensor[(512), float32], %LAYERTYPE.CONVOLUTIONAL60_beta: Tensor[(512), float32], %LAYERTYPE.CONVOLUTIONAL60_moving_mean: Tensor[(512), float32], %LAYERTYPE.CONVOLUTIONAL60_moving_var: Tensor[(512), float32], %LAYERTYPE.CONVOLUTIONAL62_weight: Tensor[(1024, 512, 3, 3), float32], %LAYERTYPE.CONVOLUTIONAL62_gamma: Tensor[(1024), float32], %LAYERTYPE.CONVOLUTIONAL62_beta: Tensor[(1024), float32], %LAYERTYPE.CONVOLUTIONAL62_moving_mean: Tensor[(1024), float32], %LAYERTYPE.CONVOLUTIONAL62_moving_var: Tensor[(1024), float32], %LAYERTYPE.CONVOLUTIONAL63_weight: Tensor[(512, 1024, 1, 1), float32], %LAYERTYPE.CONVOLUTIONAL63_gamma: Tensor[(512), float32], %LAYERTYPE.CONVOLUTIONAL63_beta: Tensor[(512), float32], %LAYERTYPE.CONVOLUTIONAL63_moving_mean: Tensor[(512), float32], %LAYERTYPE.CONVOLUTIONAL63_moving_var: Tensor[(512), float32], %LAYERTYPE.CONVOLUTIONAL64_weight: Tensor[(1024, 512, 3, 3), float32], %LAYERTYPE.CONVOLUTIONAL64_gamma: Tensor[(1024), float32], %LAYERTYPE.CONVOLUTIONAL64_beta: Tensor[(1024), float32], %LAYERTYPE.CONVOLUTIONAL64_moving_mean: Tensor[(1024), float32], %LAYERTYPE.CONVOLUTIONAL64_moving_var: Tensor[(1024), float32], %LAYERTYPE.CONVOLUTIONAL66_weight: Tensor[(512, 1024, 1, 1), float32], %LAYERTYPE.CONVOLUTIONAL66_gamma: Tensor[(512), float32], %LAYERTYPE.CONVOLUTIONAL66_beta: Tensor[(512), float32], %LAYERTYPE.CONVOLUTIONAL66_moving_mean: Tensor[(512), float32], %LAYERTYPE.CONVOLUTIONAL66_moving_var: Tensor[(512), float32], %LAYERTYPE.CONVOLUTIONAL67_weight: Tensor[(1024, 512, 3, 3), float32], %LAYERTYPE.CONVOLUTIONAL67_gamma: Tensor[(1024), float32], %LAYERTYPE.CONVOLUTIONAL67_beta: Tensor[(1024), float32], %LAYERTYPE.CONVOLUTIONAL67_moving_mean: Tensor[(1024), float32], %LAYERTYPE.CONVOLUTIONAL67_moving_var: Tensor[(1024), float32], %LAYERTYPE.CONVOLUTIONAL69_weight: Tensor[(512, 1024, 1, 1), float32], %LAYERTYPE.CONVOLUTIONAL69_gamma: Tensor[(512), float32], %LAYERTYPE.CONVOLUTIONAL69_beta: Tensor[(512), float32], %LAYERTYPE.CONVOLUTIONAL69_moving_mean: Tensor[(512), float32], %LAYERTYPE.CONVOLUTIONAL69_moving_var: Tensor[(512), float32], %LAYERTYPE.CONVOLUTIONAL70_weight: Tensor[(1024, 512, 3, 3), float32], %LAYERTYPE.CONVOLUTIONAL70_gamma: Tensor[(1024), float32], %LAYERTYPE.CONVOLUTIONAL70_beta: Tensor[(1024), float32], %LAYERTYPE.CONVOLUTIONAL70_moving_mean: Tensor[(1024), float32], %LAYERTYPE.CONVOLUTIONAL70_moving_var: Tensor[(1024), float32], %LAYERTYPE.CONVOLUTIONAL72_weight: Tensor[(512, 1024, 1, 1), float32], %LAYERTYPE.CONVOLUTIONAL72_gamma: Tensor[(512), float32], %LAYERTYPE.CONVOLUTIONAL72_beta: Tensor[(512), float32], %LAYERTYPE.CONVOLUTIONAL72_moving_mean: Tensor[(512), float32], %LAYERTYPE.CONVOLUTIONAL72_moving_var: Tensor[(512), float32], %LAYERTYPE.CONVOLUTIONAL73_weight: Tensor[(1024, 512, 3, 3), float32], %LAYERTYPE.CONVOLUTIONAL73_gamma: Tensor[(1024), float32], %LAYERTYPE.CONVOLUTIONAL73_beta: Tensor[(1024), float32], %LAYERTYPE.CONVOLUTIONAL73_moving_mean: Tensor[(1024), float32], %LAYERTYPE.CONVOLUTIONAL73_moving_var: Tensor[(1024), float32], %LAYERTYPE.CONVOLUTIONAL75_weight: Tensor[(512, 1024, 1, 1), float32], %LAYERTYPE.CONVOLUTIONAL75_gamma: Tensor[(512), float32], %LAYERTYPE.CONVOLUTIONAL75_beta: Tensor[(512), float32], %LAYERTYPE.CONVOLUTIONAL75_moving_mean: Tensor[(512), float32], %LAYERTYPE.CONVOLUTIONAL75_moving_var: Tensor[(512), float32], %LAYERTYPE.CONVOLUTIONAL76_weight: Tensor[(1024, 512, 3, 3), float32], %LAYERTYPE.CONVOLUTIONAL76_gamma: Tensor[(1024), float32], %LAYERTYPE.CONVOLUTIONAL76_beta: Tensor[(1024), float32], %LAYERTYPE.CONVOLUTIONAL76_moving_mean: Tensor[(1024), float32], %LAYERTYPE.CONVOLUTIONAL76_moving_var: Tensor[(1024), float32], %LAYERTYPE.CONVOLUTIONAL77_weight: Tensor[(512, 1024, 1, 1), float32], %LAYERTYPE.CONVOLUTIONAL77_gamma: Tensor[(512), float32], %LAYERTYPE.CONVOLUTIONAL77_beta: Tensor[(512), float32], %LAYERTYPE.CONVOLUTIONAL77_moving_mean: Tensor[(512), float32], %LAYERTYPE.CONVOLUTIONAL77_moving_var: Tensor[(512), float32], %LAYERTYPE.CONVOLUTIONAL78_weight: Tensor[(1024, 512, 3, 3), float32], %LAYERTYPE.CONVOLUTIONAL78_gamma: Tensor[(1024), float32], %LAYERTYPE.CONVOLUTIONAL78_beta: Tensor[(1024), float32], %LAYERTYPE.CONVOLUTIONAL78_moving_mean: Tensor[(1024), float32], %LAYERTYPE.CONVOLUTIONAL78_moving_var: Tensor[(1024), float32], %LAYERTYPE.CONVOLUTIONAL79_weight: Tensor[(512, 1024, 1, 1), float32], %LAYERTYPE.CONVOLUTIONAL79_gamma: Tensor[(512), float32], %LAYERTYPE.CONVOLUTIONAL79_beta: Tensor[(512), float32], %LAYERTYPE.CONVOLUTIONAL79_moving_mean: Tensor[(512), float32], %LAYERTYPE.CONVOLUTIONAL79_moving_var: Tensor[(512), float32], %LAYERTYPE.CONVOLUTIONAL84_weight: Tensor[(256, 512, 1, 1), float32], %LAYERTYPE.CONVOLUTIONAL84_gamma: Tensor[(256), float32], %LAYERTYPE.CONVOLUTIONAL84_beta: Tensor[(256), float32], %LAYERTYPE.CONVOLUTIONAL84_moving_mean: Tensor[(256), float32], %LAYERTYPE.CONVOLUTIONAL84_moving_var: Tensor[(256), float32], %LAYERTYPE.CONVOLUTIONAL87_weight: Tensor[(256, 768, 1, 1), float32], %LAYERTYPE.CONVOLUTIONAL87_gamma: Tensor[(256), float32], %LAYERTYPE.CONVOLUTIONAL87_beta: Tensor[(256), float32], %LAYERTYPE.CONVOLUTIONAL87_moving_mean: Tensor[(256), float32], %LAYERTYPE.CONVOLUTIONAL87_moving_var: Tensor[(256), float32], %LAYERTYPE.CONVOLUTIONAL88_weight: Tensor[(512, 256, 3, 3), float32], %LAYERTYPE.CONVOLUTIONAL88_gamma: Tensor[(512), float32], %LAYERTYPE.CONVOLUTIONAL88_beta: Tensor[(512), float32], %LAYERTYPE.CONVOLUTIONAL88_moving_mean: Tensor[(512), float32], %LAYERTYPE.CONVOLUTIONAL88_moving_var: Tensor[(512), float32], %LAYERTYPE.CONVOLUTIONAL89_weight: Tensor[(256, 512, 1, 1), float32], %LAYERTYPE.CONVOLUTIONAL89_gamma: Tensor[(256), float32], %LAYERTYPE.CONVOLUTIONAL89_beta: Tensor[(256), float32], %LAYERTYPE.CONVOLUTIONAL89_moving_mean: Tensor[(256), float32], %LAYERTYPE.CONVOLUTIONAL89_moving_var: Tensor[(256), float32], %LAYERTYPE.CONVOLUTIONAL90_weight: Tensor[(512, 256, 3, 3), float32], %LAYERTYPE.CONVOLUTIONAL90_gamma: Tensor[(512), float32], %LAYERTYPE.CONVOLUTIONAL90_beta: Tensor[(512), float32], %LAYERTYPE.CONVOLUTIONAL90_moving_mean: Tensor[(512), float32], %LAYERTYPE.CONVOLUTIONAL90_moving_var: Tensor[(512), float32], %LAYERTYPE.CONVOLUTIONAL91_weight: Tensor[(256, 512, 1, 1), float32], %LAYERTYPE.CONVOLUTIONAL91_gamma: Tensor[(256), float32], %LAYERTYPE.CONVOLUTIONAL91_beta: Tensor[(256), float32], %LAYERTYPE.CONVOLUTIONAL91_moving_mean: Tensor[(256), float32], %LAYERTYPE.CONVOLUTIONAL91_moving_var: Tensor[(256), float32], %LAYERTYPE.CONVOLUTIONAL96_weight: Tensor[(128, 256, 1, 1), float32], %LAYERTYPE.CONVOLUTIONAL96_gamma: Tensor[(128), float32], %LAYERTYPE.CONVOLUTIONAL96_beta: Tensor[(128), float32], %LAYERTYPE.CONVOLUTIONAL96_moving_mean: Tensor[(128), float32], %LAYERTYPE.CONVOLUTIONAL96_moving_var: Tensor[(128), float32], %LAYERTYPE.CONVOLUTIONAL99_weight: Tensor[(128, 384, 1, 1), float32], %LAYERTYPE.CONVOLUTIONAL99_gamma: Tensor[(128), float32], %LAYERTYPE.CONVOLUTIONAL99_beta: Tensor[(128), float32], %LAYERTYPE.CONVOLUTIONAL99_moving_mean: Tensor[(128), float32], %LAYERTYPE.CONVOLUTIONAL99_moving_var: Tensor[(128), float32], %LAYERTYPE.CONVOLUTIONAL100_weight: Tensor[(256, 128, 3, 3), float32], %LAYERTYPE.CONVOLUTIONAL100_gamma: Tensor[(256), float32], %LAYERTYPE.CONVOLUTIONAL100_beta: Tensor[(256), float32], %LAYERTYPE.CONVOLUTIONAL100_moving_mean: Tensor[(256), float32], %LAYERTYPE.CONVOLUTIONAL100_moving_var: Tensor[(256), float32], %LAYERTYPE.CONVOLUTIONAL101_weight: Tensor[(128, 256, 1, 1), float32], %LAYERTYPE.CONVOLUTIONAL101_gamma: Tensor[(128), float32], %LAYERTYPE.CONVOLUTIONAL101_beta: Tensor[(128), float32], %LAYERTYPE.CONVOLUTIONAL101_moving_mean: Tensor[(128), float32], %LAYERTYPE.CONVOLUTIONAL101_moving_var: Tensor[(128), float32], %LAYERTYPE.CONVOLUTIONAL102_weight: Tensor[(256, 128, 3, 3), float32], %LAYERTYPE.CONVOLUTIONAL102_gamma: Tensor[(256), float32], %LAYERTYPE.CONVOLUTIONAL102_beta: Tensor[(256), float32], %LAYERTYPE.CONVOLUTIONAL102_moving_mean: Tensor[(256), float32], %LAYERTYPE.CONVOLUTIONAL102_moving_var: Tensor[(256), float32], %LAYERTYPE.CONVOLUTIONAL103_weight: Tensor[(128, 256, 1, 1), float32], %LAYERTYPE.CONVOLUTIONAL103_gamma: Tensor[(128), float32], %LAYERTYPE.CONVOLUTIONAL103_beta: Tensor[(128), float32], %LAYERTYPE.CONVOLUTIONAL103_moving_mean: Tensor[(128), float32], %LAYERTYPE.CONVOLUTIONAL103_moving_var: Tensor[(128), float32], %LAYERTYPE.CONVOLUTIONAL104_weight: Tensor[(256, 128, 3, 3), float32], %LAYERTYPE.CONVOLUTIONAL104_gamma: Tensor[(256), float32], %LAYERTYPE.CONVOLUTIONAL104_beta: Tensor[(256), float32], %LAYERTYPE.CONVOLUTIONAL104_moving_mean: Tensor[(256), float32], %LAYERTYPE.CONVOLUTIONAL104_moving_var: Tensor[(256), float32], %LAYERTYPE.CONVOLUTIONAL105_weight: Tensor[(255, 256, 1, 1), float32], %LAYERTYPE.CONVOLUTIONAL105_bias: Tensor[(255), float32], %LAYERTYPE.YOLO106_mask: Tensor[(3), int32], %LAYERTYPE.YOLO106_bias: Tensor[(18), float32], %LAYERTYPE.YOLO106_attr: Tensor[(6), int32], %LAYERTYPE.CONVOLUTIONAL92_weight: Tensor[(512, 256, 3, 3), float32], %LAYERTYPE.CONVOLUTIONAL92_gamma: Tensor[(512), float32], %LAYERTYPE.CONVOLUTIONAL92_beta: Tensor[(512), float32], %LAYERTYPE.CONVOLUTIONAL92_moving_mean: Tensor[(512), float32], %LAYERTYPE.CONVOLUTIONAL92_moving_var: Tensor[(512), float32], %LAYERTYPE.CONVOLUTIONAL93_weight: Tensor[(255, 512, 1, 1), float32], %LAYERTYPE.CONVOLUTIONAL93_bias: Tensor[(255), float32], %LAYERTYPE.YOLO94_mask: Tensor[(3), int32], %LAYERTYPE.YOLO94_bias: Tensor[(18), float32], %LAYERTYPE.YOLO94_attr: Tensor[(6), int32], %LAYERTYPE.CONVOLUTIONAL80_weight: Tensor[(1024, 512, 3, 3), float32], %LAYERTYPE.CONVOLUTIONAL80_gamma: Tensor[(1024), float32], %LAYERTYPE.CONVOLUTIONAL80_beta: Tensor[(1024), float32], %LAYERTYPE.CONVOLUTIONAL80_moving_mean: Tensor[(1024), float32], %LAYERTYPE.CONVOLUTIONAL80_moving_var: Tensor[(1024), float32], %LAYERTYPE.CONVOLUTIONAL81_weight: Tensor[(255, 1024, 1, 1), float32], %LAYERTYPE.CONVOLUTIONAL81_bias: Tensor[(255), float32], %LAYERTYPE.YOLO82_mask: Tensor[(3), int32], %LAYERTYPE.YOLO82_bias: Tensor[(18), float32], %LAYERTYPE.YOLO82_attr: Tensor[(6), int32]) -> (Tensor[(1, 255, 52, 52), float32], Tensor[(3), int32], Tensor[(18), float32], Tensor[(6), int32], Tensor[(1, 255, 26, 26), float32], Tensor[(3), int32], Tensor[(18), float32], Tensor[(6), int32], Tensor[(1, 255, 13, 13), float32], Tensor[(3), int32], Tensor[(18), float32], Tensor[(6), int32]) {
  %0 = nn.conv2d(%data, %LAYERTYPE.CONVOLUTIONAL0_weight, padding=[1, 1, 1, 1], channels=32, kernel_size=[3, 3]) /* ty=Tensor[(1, 32, 416, 416), float32] */;
  %1 = nn.batch_norm(%0, %LAYERTYPE.CONVOLUTIONAL0_gamma, %LAYERTYPE.CONVOLUTIONAL0_beta, %LAYERTYPE.CONVOLUTIONAL0_moving_mean, %LAYERTYPE.CONVOLUTIONAL0_moving_var, epsilon=1e-06f) /* ty=(Tensor[(1, 32, 416, 416), float32], Tensor[(32), float32], Tensor[(32), float32]) */;
  %2 = %1.0;
  %3 = nn.leaky_relu(%2, alpha=0.1f) /* ty=Tensor[(1, 32, 416, 416), float32] */;
  %4 = nn.conv2d(%3, %LAYERTYPE.CONVOLUTIONAL1_weight, strides=[2, 2], padding=[1, 1, 1, 1], channels=64, kernel_size=[3, 3]) /* ty=Tensor[(1, 64, 208, 208), float32] */;
  %5 = nn.batch_norm(%4, %LAYERTYPE.CONVOLUTIONAL1_gamma, %LAYERTYPE.CONVOLUTIONAL1_beta, %LAYERTYPE.CONVOLUTIONAL1_moving_mean, %LAYERTYPE.CONVOLUTIONAL1_moving_var, epsilon=1e-06f) /* ty=(Tensor[(1, 64, 208, 208), float32], Tensor[(64), float32], Tensor[(64), float32]) */;
  %6 = %5.0;
  %7 = nn.leaky_relu(%6, alpha=0.1f) /* ty=Tensor[(1, 64, 208, 208), float32] */;
  %8 = nn.conv2d(%7, %LAYERTYPE.CONVOLUTIONAL2_weight, padding=[0, 0, 0, 0], channels=32, kernel_size=[1, 1]) /* ty=Tensor[(1, 32, 208, 208), float32] */;
  %9 = nn.batch_norm(%8, %LAYERTYPE.CONVOLUTIONAL2_gamma, %LAYERTYPE.CONVOLUTIONAL2_beta, %LAYERTYPE.CONVOLUTIONAL2_moving_mean, %LAYERTYPE.CONVOLUTIONAL2_moving_var, epsilon=1e-06f) /* ty=(Tensor[(1, 32, 208, 208), float32], Tensor[(32), float32], Tensor[(32), float32]) */;
  %10 = %9.0;
  %11 = nn.leaky_relu(%10, alpha=0.1f) /* ty=Tensor[(1, 32, 208, 208), float32] */;
  %12 = nn.conv2d(%11, %LAYERTYPE.CONVOLUTIONAL3_weight, padding=[1, 1, 1, 1], channels=64, kernel_size=[3, 3]) /* ty=Tensor[(1, 64, 208, 208), float32] */;
  %13 = nn.batch_norm(%12, %LAYERTYPE.CONVOLUTIONAL3_gamma, %LAYERTYPE.CONVOLUTIONAL3_beta, %LAYERTYPE.CONVOLUTIONAL3_moving_mean, %LAYERTYPE.CONVOLUTIONAL3_moving_var, epsilon=1e-06f) /* ty=(Tensor[(1, 64, 208, 208), float32], Tensor[(64), float32], Tensor[(64), float32]) */;
  %14 = %13.0;
  %15 = nn.leaky_relu(%14, alpha=0.1f) /* ty=Tensor[(1, 64, 208, 208), float32] */;
  %16 = add(%15, %7) /* ty=Tensor[(1, 64, 208, 208), float32] */;
  %17 = nn.conv2d(%16, %LAYERTYPE.CONVOLUTIONAL5_weight, strides=[2, 2], padding=[1, 1, 1, 1], channels=128, kernel_size=[3, 3]) /* ty=Tensor[(1, 128, 104, 104), float32] */;
  %18 = nn.batch_norm(%17, %LAYERTYPE.CONVOLUTIONAL5_gamma, %LAYERTYPE.CONVOLUTIONAL5_beta, %LAYERTYPE.CONVOLUTIONAL5_moving_mean, %LAYERTYPE.CONVOLUTIONAL5_moving_var, epsilon=1e-06f) /* ty=(Tensor[(1, 128, 104, 104), float32], Tensor[(128), float32], Tensor[(128), float32]) */;
  %19 = %18.0;
  %20 = nn.leaky_relu(%19, alpha=0.1f) /* ty=Tensor[(1, 128, 104, 104), float32] */;
  %21 = nn.conv2d(%20, %LAYERTYPE.CONVOLUTIONAL6_weight, padding=[0, 0, 0, 0], channels=64, kernel_size=[1, 1]) /* ty=Tensor[(1, 64, 104, 104), float32] */;
  %22 = nn.batch_norm(%21, %LAYERTYPE.CONVOLUTIONAL6_gamma, %LAYERTYPE.CONVOLUTIONAL6_beta, %LAYERTYPE.CONVOLUTIONAL6_moving_mean, %LAYERTYPE.CONVOLUTIONAL6_moving_var, epsilon=1e-06f) /* ty=(Tensor[(1, 64, 104, 104), float32], Tensor[(64), float32], Tensor[(64), float32]) */;
  %23 = %22.0;
  %24 = nn.leaky_relu(%23, alpha=0.1f) /* ty=Tensor[(1, 64, 104, 104), float32] */;
  %25 = nn.conv2d(%24, %LAYERTYPE.CONVOLUTIONAL7_weight, padding=[1, 1, 1, 1], channels=128, kernel_size=[3, 3]) /* ty=Tensor[(1, 128, 104, 104), float32] */;
  %26 = nn.batch_norm(%25, %LAYERTYPE.CONVOLUTIONAL7_gamma, %LAYERTYPE.CONVOLUTIONAL7_beta, %LAYERTYPE.CONVOLUTIONAL7_moving_mean, %LAYERTYPE.CONVOLUTIONAL7_moving_var, epsilon=1e-06f) /* ty=(Tensor[(1, 128, 104, 104), float32], Tensor[(128), float32], Tensor[(128), float32]) */;
  %27 = %26.0;
  %28 = nn.leaky_relu(%27, alpha=0.1f) /* ty=Tensor[(1, 128, 104, 104), float32] */;
  %29 = add(%28, %20) /* ty=Tensor[(1, 128, 104, 104), float32] */;
  %30 = nn.conv2d(%29, %LAYERTYPE.CONVOLUTIONAL9_weight, padding=[0, 0, 0, 0], channels=64, kernel_size=[1, 1]) /* ty=Tensor[(1, 64, 104, 104), float32] */;
  %31 = nn.batch_norm(%30, %LAYERTYPE.CONVOLUTIONAL9_gamma, %LAYERTYPE.CONVOLUTIONAL9_beta, %LAYERTYPE.CONVOLUTIONAL9_moving_mean, %LAYERTYPE.CONVOLUTIONAL9_moving_var, epsilon=1e-06f) /* ty=(Tensor[(1, 64, 104, 104), float32], Tensor[(64), float32], Tensor[(64), float32]) */;
  %32 = %31.0;
  %33 = nn.leaky_relu(%32, alpha=0.1f) /* ty=Tensor[(1, 64, 104, 104), float32] */;
  %34 = nn.conv2d(%33, %LAYERTYPE.CONVOLUTIONAL10_weight, padding=[1, 1, 1, 1], channels=128, kernel_size=[3, 3]) /* ty=Tensor[(1, 128, 104, 104), float32] */;
  %35 = nn.batch_norm(%34, %LAYERTYPE.CONVOLUTIONAL10_gamma, %LAYERTYPE.CONVOLUTIONAL10_beta, %LAYERTYPE.CONVOLUTIONAL10_moving_mean, %LAYERTYPE.CONVOLUTIONAL10_moving_var, epsilon=1e-06f) /* ty=(Tensor[(1, 128, 104, 104), float32], Tensor[(128), float32], Tensor[(128), float32]) */;
  %36 = %35.0;
  %37 = nn.leaky_relu(%36, alpha=0.1f) /* ty=Tensor[(1, 128, 104, 104), float32] */;
  %38 = add(%37, %29) /* ty=Tensor[(1, 128, 104, 104), float32] */;
  %39 = nn.conv2d(%38, %LAYERTYPE.CONVOLUTIONAL12_weight, strides=[2, 2], padding=[1, 1, 1, 1], channels=256, kernel_size=[3, 3]) /* ty=Tensor[(1, 256, 52, 52), float32] */;
  %40 = nn.batch_norm(%39, %LAYERTYPE.CONVOLUTIONAL12_gamma, %LAYERTYPE.CONVOLUTIONAL12_beta, %LAYERTYPE.CONVOLUTIONAL12_moving_mean, %LAYERTYPE.CONVOLUTIONAL12_moving_var, epsilon=1e-06f) /* ty=(Tensor[(1, 256, 52, 52), float32], Tensor[(256), float32], Tensor[(256), float32]) */;
  %41 = %40.0;
  %42 = nn.leaky_relu(%41, alpha=0.1f) /* ty=Tensor[(1, 256, 52, 52), float32] */;
  %43 = nn.conv2d(%42, %LAYERTYPE.CONVOLUTIONAL13_weight, padding=[0, 0, 0, 0], channels=128, kernel_size=[1, 1]) /* ty=Tensor[(1, 128, 52, 52), float32] */;
  %44 = nn.batch_norm(%43, %LAYERTYPE.CONVOLUTIONAL13_gamma, %LAYERTYPE.CONVOLUTIONAL13_beta, %LAYERTYPE.CONVOLUTIONAL13_moving_mean, %LAYERTYPE.CONVOLUTIONAL13_moving_var, epsilon=1e-06f) /* ty=(Tensor[(1, 128, 52, 52), float32], Tensor[(128), float32], Tensor[(128), float32]) */;
  %45 = %44.0;
  %46 = nn.leaky_relu(%45, alpha=0.1f) /* ty=Tensor[(1, 128, 52, 52), float32] */;
  %47 = nn.conv2d(%46, %LAYERTYPE.CONVOLUTIONAL14_weight, padding=[1, 1, 1, 1], channels=256, kernel_size=[3, 3]) /* ty=Tensor[(1, 256, 52, 52), float32] */;
  %48 = nn.batch_norm(%47, %LAYERTYPE.CONVOLUTIONAL14_gamma, %LAYERTYPE.CONVOLUTIONAL14_beta, %LAYERTYPE.CONVOLUTIONAL14_moving_mean, %LAYERTYPE.CONVOLUTIONAL14_moving_var, epsilon=1e-06f) /* ty=(Tensor[(1, 256, 52, 52), float32], Tensor[(256), float32], Tensor[(256), float32]) */;
  %49 = %48.0;
  %50 = nn.leaky_relu(%49, alpha=0.1f) /* ty=Tensor[(1, 256, 52, 52), float32] */;
  %51 = add(%50, %42) /* ty=Tensor[(1, 256, 52, 52), float32] */;
  %52 = nn.conv2d(%51, %LAYERTYPE.CONVOLUTIONAL16_weight, padding=[0, 0, 0, 0], channels=128, kernel_size=[1, 1]) /* ty=Tensor[(1, 128, 52, 52), float32] */;
  %53 = nn.batch_norm(%52, %LAYERTYPE.CONVOLUTIONAL16_gamma, %LAYERTYPE.CONVOLUTIONAL16_beta, %LAYERTYPE.CONVOLUTIONAL16_moving_mean, %LAYERTYPE.CONVOLUTIONAL16_moving_var, epsilon=1e-06f) /* ty=(Tensor[(1, 128, 52, 52), float32], Tensor[(128), float32], Tensor[(128), float32]) */;
  %54 = %53.0;
  %55 = nn.leaky_relu(%54, alpha=0.1f) /* ty=Tensor[(1, 128, 52, 52), float32] */;
  %56 = nn.conv2d(%55, %LAYERTYPE.CONVOLUTIONAL17_weight, padding=[1, 1, 1, 1], channels=256, kernel_size=[3, 3]) /* ty=Tensor[(1, 256, 52, 52), float32] */;
  %57 = nn.batch_norm(%56, %LAYERTYPE.CONVOLUTIONAL17_gamma, %LAYERTYPE.CONVOLUTIONAL17_beta, %LAYERTYPE.CONVOLUTIONAL17_moving_mean, %LAYERTYPE.CONVOLUTIONAL17_moving_var, epsilon=1e-06f) /* ty=(Tensor[(1, 256, 52, 52), float32], Tensor[(256), float32], Tensor[(256), float32]) */;
  %58 = %57.0;
  %59 = nn.leaky_relu(%58, alpha=0.1f) /* ty=Tensor[(1, 256, 52, 52), float32] */;
  %60 = add(%59, %51) /* ty=Tensor[(1, 256, 52, 52), float32] */;
  %61 = nn.conv2d(%60, %LAYERTYPE.CONVOLUTIONAL19_weight, padding=[0, 0, 0, 0], channels=128, kernel_size=[1, 1]) /* ty=Tensor[(1, 128, 52, 52), float32] */;
  %62 = nn.batch_norm(%61, %LAYERTYPE.CONVOLUTIONAL19_gamma, %LAYERTYPE.CONVOLUTIONAL19_beta, %LAYERTYPE.CONVOLUTIONAL19_moving_mean, %LAYERTYPE.CONVOLUTIONAL19_moving_var, epsilon=1e-06f) /* ty=(Tensor[(1, 128, 52, 52), float32], Tensor[(128), float32], Tensor[(128), float32]) */;
  %63 = %62.0;
  %64 = nn.leaky_relu(%63, alpha=0.1f) /* ty=Tensor[(1, 128, 52, 52), float32] */;
  %65 = nn.conv2d(%64, %LAYERTYPE.CONVOLUTIONAL20_weight, padding=[1, 1, 1, 1], channels=256, kernel_size=[3, 3]) /* ty=Tensor[(1, 256, 52, 52), float32] */;
  %66 = nn.batch_norm(%65, %LAYERTYPE.CONVOLUTIONAL20_gamma, %LAYERTYPE.CONVOLUTIONAL20_beta, %LAYERTYPE.CONVOLUTIONAL20_moving_mean, %LAYERTYPE.CONVOLUTIONAL20_moving_var, epsilon=1e-06f) /* ty=(Tensor[(1, 256, 52, 52), float32], Tensor[(256), float32], Tensor[(256), float32]) */;
  %67 = %66.0;
  %68 = nn.leaky_relu(%67, alpha=0.1f) /* ty=Tensor[(1, 256, 52, 52), float32] */;
  %69 = add(%68, %60) /* ty=Tensor[(1, 256, 52, 52), float32] */;
  %70 = nn.conv2d(%69, %LAYERTYPE.CONVOLUTIONAL22_weight, padding=[0, 0, 0, 0], channels=128, kernel_size=[1, 1]) /* ty=Tensor[(1, 128, 52, 52), float32] */;
  %71 = nn.batch_norm(%70, %LAYERTYPE.CONVOLUTIONAL22_gamma, %LAYERTYPE.CONVOLUTIONAL22_beta, %LAYERTYPE.CONVOLUTIONAL22_moving_mean, %LAYERTYPE.CONVOLUTIONAL22_moving_var, epsilon=1e-06f) /* ty=(Tensor[(1, 128, 52, 52), float32], Tensor[(128), float32], Tensor[(128), float32]) */;
  %72 = %71.0;
  %73 = nn.leaky_relu(%72, alpha=0.1f) /* ty=Tensor[(1, 128, 52, 52), float32] */;
  %74 = nn.conv2d(%73, %LAYERTYPE.CONVOLUTIONAL23_weight, padding=[1, 1, 1, 1], channels=256, kernel_size=[3, 3]) /* ty=Tensor[(1, 256, 52, 52), float32] */;
  %75 = nn.batch_norm(%74, %LAYERTYPE.CONVOLUTIONAL23_gamma, %LAYERTYPE.CONVOLUTIONAL23_beta, %LAYERTYPE.CONVOLUTIONAL23_moving_mean, %LAYERTYPE.CONVOLUTIONAL23_moving_var, epsilon=1e-06f) /* ty=(Tensor[(1, 256, 52, 52), float32], Tensor[(256), float32], Tensor[(256), float32]) */;
  %76 = %75.0;
  %77 = nn.leaky_relu(%76, alpha=0.1f) /* ty=Tensor[(1, 256, 52, 52), float32] */;
  %78 = add(%77, %69) /* ty=Tensor[(1, 256, 52, 52), float32] */;
  %79 = nn.conv2d(%78, %LAYERTYPE.CONVOLUTIONAL25_weight, padding=[0, 0, 0, 0], channels=128, kernel_size=[1, 1]) /* ty=Tensor[(1, 128, 52, 52), float32] */;
  %80 = nn.batch_norm(%79, %LAYERTYPE.CONVOLUTIONAL25_gamma, %LAYERTYPE.CONVOLUTIONAL25_beta, %LAYERTYPE.CONVOLUTIONAL25_moving_mean, %LAYERTYPE.CONVOLUTIONAL25_moving_var, epsilon=1e-06f) /* ty=(Tensor[(1, 128, 52, 52), float32], Tensor[(128), float32], Tensor[(128), float32]) */;
  %81 = %80.0;
  %82 = nn.leaky_relu(%81, alpha=0.1f) /* ty=Tensor[(1, 128, 52, 52), float32] */;
  %83 = nn.conv2d(%82, %LAYERTYPE.CONVOLUTIONAL26_weight, padding=[1, 1, 1, 1], channels=256, kernel_size=[3, 3]) /* ty=Tensor[(1, 256, 52, 52), float32] */;
  %84 = nn.batch_norm(%83, %LAYERTYPE.CONVOLUTIONAL26_gamma, %LAYERTYPE.CONVOLUTIONAL26_beta, %LAYERTYPE.CONVOLUTIONAL26_moving_mean, %LAYERTYPE.CONVOLUTIONAL26_moving_var, epsilon=1e-06f) /* ty=(Tensor[(1, 256, 52, 52), float32], Tensor[(256), float32], Tensor[(256), float32]) */;
  %85 = %84.0;
  %86 = nn.leaky_relu(%85, alpha=0.1f) /* ty=Tensor[(1, 256, 52, 52), float32] */;
  %87 = add(%86, %78) /* ty=Tensor[(1, 256, 52, 52), float32] */;
  %88 = nn.conv2d(%87, %LAYERTYPE.CONVOLUTIONAL28_weight, padding=[0, 0, 0, 0], channels=128, kernel_size=[1, 1]) /* ty=Tensor[(1, 128, 52, 52), float32] */;
  %89 = nn.batch_norm(%88, %LAYERTYPE.CONVOLUTIONAL28_gamma, %LAYERTYPE.CONVOLUTIONAL28_beta, %LAYERTYPE.CONVOLUTIONAL28_moving_mean, %LAYERTYPE.CONVOLUTIONAL28_moving_var, epsilon=1e-06f) /* ty=(Tensor[(1, 128, 52, 52), float32], Tensor[(128), float32], Tensor[(128), float32]) */;
  %90 = %89.0;
  %91 = nn.leaky_relu(%90, alpha=0.1f) /* ty=Tensor[(1, 128, 52, 52), float32] */;
  %92 = nn.conv2d(%91, %LAYERTYPE.CONVOLUTIONAL29_weight, padding=[1, 1, 1, 1], channels=256, kernel_size=[3, 3]) /* ty=Tensor[(1, 256, 52, 52), float32] */;
  %93 = nn.batch_norm(%92, %LAYERTYPE.CONVOLUTIONAL29_gamma, %LAYERTYPE.CONVOLUTIONAL29_beta, %LAYERTYPE.CONVOLUTIONAL29_moving_mean, %LAYERTYPE.CONVOLUTIONAL29_moving_var, epsilon=1e-06f) /* ty=(Tensor[(1, 256, 52, 52), float32], Tensor[(256), float32], Tensor[(256), float32]) */;
  %94 = %93.0;
  %95 = nn.leaky_relu(%94, alpha=0.1f) /* ty=Tensor[(1, 256, 52, 52), float32] */;
  %96 = add(%95, %87) /* ty=Tensor[(1, 256, 52, 52), float32] */;
  %97 = nn.conv2d(%96, %LAYERTYPE.CONVOLUTIONAL31_weight, padding=[0, 0, 0, 0], channels=128, kernel_size=[1, 1]) /* ty=Tensor[(1, 128, 52, 52), float32] */;
  %98 = nn.batch_norm(%97, %LAYERTYPE.CONVOLUTIONAL31_gamma, %LAYERTYPE.CONVOLUTIONAL31_beta, %LAYERTYPE.CONVOLUTIONAL31_moving_mean, %LAYERTYPE.CONVOLUTIONAL31_moving_var, epsilon=1e-06f) /* ty=(Tensor[(1, 128, 52, 52), float32], Tensor[(128), float32], Tensor[(128), float32]) */;
  %99 = %98.0;
  %100 = nn.leaky_relu(%99, alpha=0.1f) /* ty=Tensor[(1, 128, 52, 52), float32] */;
  %101 = nn.conv2d(%100, %LAYERTYPE.CONVOLUTIONAL32_weight, padding=[1, 1, 1, 1], channels=256, kernel_size=[3, 3]) /* ty=Tensor[(1, 256, 52, 52), float32] */;
  %102 = nn.batch_norm(%101, %LAYERTYPE.CONVOLUTIONAL32_gamma, %LAYERTYPE.CONVOLUTIONAL32_beta, %LAYERTYPE.CONVOLUTIONAL32_moving_mean, %LAYERTYPE.CONVOLUTIONAL32_moving_var, epsilon=1e-06f) /* ty=(Tensor[(1, 256, 52, 52), float32], Tensor[(256), float32], Tensor[(256), float32]) */;
  %103 = %102.0;
  %104 = nn.leaky_relu(%103, alpha=0.1f) /* ty=Tensor[(1, 256, 52, 52), float32] */;
  %105 = add(%104, %96) /* ty=Tensor[(1, 256, 52, 52), float32] */;
  %106 = nn.conv2d(%105, %LAYERTYPE.CONVOLUTIONAL34_weight, padding=[0, 0, 0, 0], channels=128, kernel_size=[1, 1]) /* ty=Tensor[(1, 128, 52, 52), float32] */;
  %107 = nn.batch_norm(%106, %LAYERTYPE.CONVOLUTIONAL34_gamma, %LAYERTYPE.CONVOLUTIONAL34_beta, %LAYERTYPE.CONVOLUTIONAL34_moving_mean, %LAYERTYPE.CONVOLUTIONAL34_moving_var, epsilon=1e-06f) /* ty=(Tensor[(1, 128, 52, 52), float32], Tensor[(128), float32], Tensor[(128), float32]) */;
  %108 = %107.0;
  %109 = nn.leaky_relu(%108, alpha=0.1f) /* ty=Tensor[(1, 128, 52, 52), float32] */;
  %110 = nn.conv2d(%109, %LAYERTYPE.CONVOLUTIONAL35_weight, padding=[1, 1, 1, 1], channels=256, kernel_size=[3, 3]) /* ty=Tensor[(1, 256, 52, 52), float32] */;
  %111 = nn.batch_norm(%110, %LAYERTYPE.CONVOLUTIONAL35_gamma, %LAYERTYPE.CONVOLUTIONAL35_beta, %LAYERTYPE.CONVOLUTIONAL35_moving_mean, %LAYERTYPE.CONVOLUTIONAL35_moving_var, epsilon=1e-06f) /* ty=(Tensor[(1, 256, 52, 52), float32], Tensor[(256), float32], Tensor[(256), float32]) */;
  %112 = %111.0;
  %113 = nn.leaky_relu(%112, alpha=0.1f) /* ty=Tensor[(1, 256, 52, 52), float32] */;
  %114 = add(%113, %105) /* ty=Tensor[(1, 256, 52, 52), float32] */;
  %115 = nn.conv2d(%114, %LAYERTYPE.CONVOLUTIONAL37_weight, strides=[2, 2], padding=[1, 1, 1, 1], channels=512, kernel_size=[3, 3]) /* ty=Tensor[(1, 512, 26, 26), float32] */;
  %116 = nn.batch_norm(%115, %LAYERTYPE.CONVOLUTIONAL37_gamma, %LAYERTYPE.CONVOLUTIONAL37_beta, %LAYERTYPE.CONVOLUTIONAL37_moving_mean, %LAYERTYPE.CONVOLUTIONAL37_moving_var, epsilon=1e-06f) /* ty=(Tensor[(1, 512, 26, 26), float32], Tensor[(512), float32], Tensor[(512), float32]) */;
  %117 = %116.0;
  %118 = nn.leaky_relu(%117, alpha=0.1f) /* ty=Tensor[(1, 512, 26, 26), float32] */;
  %119 = nn.conv2d(%118, %LAYERTYPE.CONVOLUTIONAL38_weight, padding=[0, 0, 0, 0], channels=256, kernel_size=[1, 1]) /* ty=Tensor[(1, 256, 26, 26), float32] */;
  %120 = nn.batch_norm(%119, %LAYERTYPE.CONVOLUTIONAL38_gamma, %LAYERTYPE.CONVOLUTIONAL38_beta, %LAYERTYPE.CONVOLUTIONAL38_moving_mean, %LAYERTYPE.CONVOLUTIONAL38_moving_var, epsilon=1e-06f) /* ty=(Tensor[(1, 256, 26, 26), float32], Tensor[(256), float32], Tensor[(256), float32]) */;
  %121 = %120.0;
  %122 = nn.leaky_relu(%121, alpha=0.1f) /* ty=Tensor[(1, 256, 26, 26), float32] */;
  %123 = nn.conv2d(%122, %LAYERTYPE.CONVOLUTIONAL39_weight, padding=[1, 1, 1, 1], channels=512, kernel_size=[3, 3]) /* ty=Tensor[(1, 512, 26, 26), float32] */;
  %124 = nn.batch_norm(%123, %LAYERTYPE.CONVOLUTIONAL39_gamma, %LAYERTYPE.CONVOLUTIONAL39_beta, %LAYERTYPE.CONVOLUTIONAL39_moving_mean, %LAYERTYPE.CONVOLUTIONAL39_moving_var, epsilon=1e-06f) /* ty=(Tensor[(1, 512, 26, 26), float32], Tensor[(512), float32], Tensor[(512), float32]) */;
  %125 = %124.0;
  %126 = nn.leaky_relu(%125, alpha=0.1f) /* ty=Tensor[(1, 512, 26, 26), float32] */;
  %127 = add(%126, %118) /* ty=Tensor[(1, 512, 26, 26), float32] */;
  %128 = nn.conv2d(%127, %LAYERTYPE.CONVOLUTIONAL41_weight, padding=[0, 0, 0, 0], channels=256, kernel_size=[1, 1]) /* ty=Tensor[(1, 256, 26, 26), float32] */;
  %129 = nn.batch_norm(%128, %LAYERTYPE.CONVOLUTIONAL41_gamma, %LAYERTYPE.CONVOLUTIONAL41_beta, %LAYERTYPE.CONVOLUTIONAL41_moving_mean, %LAYERTYPE.CONVOLUTIONAL41_moving_var, epsilon=1e-06f) /* ty=(Tensor[(1, 256, 26, 26), float32], Tensor[(256), float32], Tensor[(256), float32]) */;
  %130 = %129.0;
  %131 = nn.leaky_relu(%130, alpha=0.1f) /* ty=Tensor[(1, 256, 26, 26), float32] */;
  %132 = nn.conv2d(%131, %LAYERTYPE.CONVOLUTIONAL42_weight, padding=[1, 1, 1, 1], channels=512, kernel_size=[3, 3]) /* ty=Tensor[(1, 512, 26, 26), float32] */;
  %133 = nn.batch_norm(%132, %LAYERTYPE.CONVOLUTIONAL42_gamma, %LAYERTYPE.CONVOLUTIONAL42_beta, %LAYERTYPE.CONVOLUTIONAL42_moving_mean, %LAYERTYPE.CONVOLUTIONAL42_moving_var, epsilon=1e-06f) /* ty=(Tensor[(1, 512, 26, 26), float32], Tensor[(512), float32], Tensor[(512), float32]) */;
  %134 = %133.0;
  %135 = nn.leaky_relu(%134, alpha=0.1f) /* ty=Tensor[(1, 512, 26, 26), float32] */;
  %136 = add(%135, %127) /* ty=Tensor[(1, 512, 26, 26), float32] */;
  %137 = nn.conv2d(%136, %LAYERTYPE.CONVOLUTIONAL44_weight, padding=[0, 0, 0, 0], channels=256, kernel_size=[1, 1]) /* ty=Tensor[(1, 256, 26, 26), float32] */;
  %138 = nn.batch_norm(%137, %LAYERTYPE.CONVOLUTIONAL44_gamma, %LAYERTYPE.CONVOLUTIONAL44_beta, %LAYERTYPE.CONVOLUTIONAL44_moving_mean, %LAYERTYPE.CONVOLUTIONAL44_moving_var, epsilon=1e-06f) /* ty=(Tensor[(1, 256, 26, 26), float32], Tensor[(256), float32], Tensor[(256), float32]) */;
  %139 = %138.0;
  %140 = nn.leaky_relu(%139, alpha=0.1f) /* ty=Tensor[(1, 256, 26, 26), float32] */;
  %141 = nn.conv2d(%140, %LAYERTYPE.CONVOLUTIONAL45_weight, padding=[1, 1, 1, 1], channels=512, kernel_size=[3, 3]) /* ty=Tensor[(1, 512, 26, 26), float32] */;
  %142 = nn.batch_norm(%141, %LAYERTYPE.CONVOLUTIONAL45_gamma, %LAYERTYPE.CONVOLUTIONAL45_beta, %LAYERTYPE.CONVOLUTIONAL45_moving_mean, %LAYERTYPE.CONVOLUTIONAL45_moving_var, epsilon=1e-06f) /* ty=(Tensor[(1, 512, 26, 26), float32], Tensor[(512), float32], Tensor[(512), float32]) */;
  %143 = %142.0;
  %144 = nn.leaky_relu(%143, alpha=0.1f) /* ty=Tensor[(1, 512, 26, 26), float32] */;
  %145 = add(%144, %136) /* ty=Tensor[(1, 512, 26, 26), float32] */;
  %146 = nn.conv2d(%145, %LAYERTYPE.CONVOLUTIONAL47_weight, padding=[0, 0, 0, 0], channels=256, kernel_size=[1, 1]) /* ty=Tensor[(1, 256, 26, 26), float32] */;
  %147 = nn.batch_norm(%146, %LAYERTYPE.CONVOLUTIONAL47_gamma, %LAYERTYPE.CONVOLUTIONAL47_beta, %LAYERTYPE.CONVOLUTIONAL47_moving_mean, %LAYERTYPE.CONVOLUTIONAL47_moving_var, epsilon=1e-06f) /* ty=(Tensor[(1, 256, 26, 26), float32], Tensor[(256), float32], Tensor[(256), float32]) */;
  %148 = %147.0;
  %149 = nn.leaky_relu(%148, alpha=0.1f) /* ty=Tensor[(1, 256, 26, 26), float32] */;
  %150 = nn.conv2d(%149, %LAYERTYPE.CONVOLUTIONAL48_weight, padding=[1, 1, 1, 1], channels=512, kernel_size=[3, 3]) /* ty=Tensor[(1, 512, 26, 26), float32] */;
  %151 = nn.batch_norm(%150, %LAYERTYPE.CONVOLUTIONAL48_gamma, %LAYERTYPE.CONVOLUTIONAL48_beta, %LAYERTYPE.CONVOLUTIONAL48_moving_mean, %LAYERTYPE.CONVOLUTIONAL48_moving_var, epsilon=1e-06f) /* ty=(Tensor[(1, 512, 26, 26), float32], Tensor[(512), float32], Tensor[(512), float32]) */;
  %152 = %151.0;
  %153 = nn.leaky_relu(%152, alpha=0.1f) /* ty=Tensor[(1, 512, 26, 26), float32] */;
  %154 = add(%153, %145) /* ty=Tensor[(1, 512, 26, 26), float32] */;
  %155 = nn.conv2d(%154, %LAYERTYPE.CONVOLUTIONAL50_weight, padding=[0, 0, 0, 0], channels=256, kernel_size=[1, 1]) /* ty=Tensor[(1, 256, 26, 26), float32] */;
  %156 = nn.batch_norm(%155, %LAYERTYPE.CONVOLUTIONAL50_gamma, %LAYERTYPE.CONVOLUTIONAL50_beta, %LAYERTYPE.CONVOLUTIONAL50_moving_mean, %LAYERTYPE.CONVOLUTIONAL50_moving_var, epsilon=1e-06f) /* ty=(Tensor[(1, 256, 26, 26), float32], Tensor[(256), float32], Tensor[(256), float32]) */;
  %157 = %156.0;
  %158 = nn.leaky_relu(%157, alpha=0.1f) /* ty=Tensor[(1, 256, 26, 26), float32] */;
  %159 = nn.conv2d(%158, %LAYERTYPE.CONVOLUTIONAL51_weight, padding=[1, 1, 1, 1], channels=512, kernel_size=[3, 3]) /* ty=Tensor[(1, 512, 26, 26), float32] */;
  %160 = nn.batch_norm(%159, %LAYERTYPE.CONVOLUTIONAL51_gamma, %LAYERTYPE.CONVOLUTIONAL51_beta, %LAYERTYPE.CONVOLUTIONAL51_moving_mean, %LAYERTYPE.CONVOLUTIONAL51_moving_var, epsilon=1e-06f) /* ty=(Tensor[(1, 512, 26, 26), float32], Tensor[(512), float32], Tensor[(512), float32]) */;
  %161 = %160.0;
  %162 = nn.leaky_relu(%161, alpha=0.1f) /* ty=Tensor[(1, 512, 26, 26), float32] */;
  %163 = add(%162, %154) /* ty=Tensor[(1, 512, 26, 26), float32] */;
  %164 = nn.conv2d(%163, %LAYERTYPE.CONVOLUTIONAL53_weight, padding=[0, 0, 0, 0], channels=256, kernel_size=[1, 1]) /* ty=Tensor[(1, 256, 26, 26), float32] */;
  %165 = nn.batch_norm(%164, %LAYERTYPE.CONVOLUTIONAL53_gamma, %LAYERTYPE.CONVOLUTIONAL53_beta, %LAYERTYPE.CONVOLUTIONAL53_moving_mean, %LAYERTYPE.CONVOLUTIONAL53_moving_var, epsilon=1e-06f) /* ty=(Tensor[(1, 256, 26, 26), float32], Tensor[(256), float32], Tensor[(256), float32]) */;
  %166 = %165.0;
  %167 = nn.leaky_relu(%166, alpha=0.1f) /* ty=Tensor[(1, 256, 26, 26), float32] */;
  %168 = nn.conv2d(%167, %LAYERTYPE.CONVOLUTIONAL54_weight, padding=[1, 1, 1, 1], channels=512, kernel_size=[3, 3]) /* ty=Tensor[(1, 512, 26, 26), float32] */;
  %169 = nn.batch_norm(%168, %LAYERTYPE.CONVOLUTIONAL54_gamma, %LAYERTYPE.CONVOLUTIONAL54_beta, %LAYERTYPE.CONVOLUTIONAL54_moving_mean, %LAYERTYPE.CONVOLUTIONAL54_moving_var, epsilon=1e-06f) /* ty=(Tensor[(1, 512, 26, 26), float32], Tensor[(512), float32], Tensor[(512), float32]) */;
  %170 = %169.0;
  %171 = nn.leaky_relu(%170, alpha=0.1f) /* ty=Tensor[(1, 512, 26, 26), float32] */;
  %172 = add(%171, %163) /* ty=Tensor[(1, 512, 26, 26), float32] */;
  %173 = nn.conv2d(%172, %LAYERTYPE.CONVOLUTIONAL56_weight, padding=[0, 0, 0, 0], channels=256, kernel_size=[1, 1]) /* ty=Tensor[(1, 256, 26, 26), float32] */;
  %174 = nn.batch_norm(%173, %LAYERTYPE.CONVOLUTIONAL56_gamma, %LAYERTYPE.CONVOLUTIONAL56_beta, %LAYERTYPE.CONVOLUTIONAL56_moving_mean, %LAYERTYPE.CONVOLUTIONAL56_moving_var, epsilon=1e-06f) /* ty=(Tensor[(1, 256, 26, 26), float32], Tensor[(256), float32], Tensor[(256), float32]) */;
  %175 = %174.0;
  %176 = nn.leaky_relu(%175, alpha=0.1f) /* ty=Tensor[(1, 256, 26, 26), float32] */;
  %177 = nn.conv2d(%176, %LAYERTYPE.CONVOLUTIONAL57_weight, padding=[1, 1, 1, 1], channels=512, kernel_size=[3, 3]) /* ty=Tensor[(1, 512, 26, 26), float32] */;
  %178 = nn.batch_norm(%177, %LAYERTYPE.CONVOLUTIONAL57_gamma, %LAYERTYPE.CONVOLUTIONAL57_beta, %LAYERTYPE.CONVOLUTIONAL57_moving_mean, %LAYERTYPE.CONVOLUTIONAL57_moving_var, epsilon=1e-06f) /* ty=(Tensor[(1, 512, 26, 26), float32], Tensor[(512), float32], Tensor[(512), float32]) */;
  %179 = %178.0;
  %180 = nn.leaky_relu(%179, alpha=0.1f) /* ty=Tensor[(1, 512, 26, 26), float32] */;
  %181 = add(%180, %172) /* ty=Tensor[(1, 512, 26, 26), float32] */;
  %182 = nn.conv2d(%181, %LAYERTYPE.CONVOLUTIONAL59_weight, padding=[0, 0, 0, 0], channels=256, kernel_size=[1, 1]) /* ty=Tensor[(1, 256, 26, 26), float32] */;
  %183 = nn.batch_norm(%182, %LAYERTYPE.CONVOLUTIONAL59_gamma, %LAYERTYPE.CONVOLUTIONAL59_beta, %LAYERTYPE.CONVOLUTIONAL59_moving_mean, %LAYERTYPE.CONVOLUTIONAL59_moving_var, epsilon=1e-06f) /* ty=(Tensor[(1, 256, 26, 26), float32], Tensor[(256), float32], Tensor[(256), float32]) */;
  %184 = %183.0;
  %185 = nn.leaky_relu(%184, alpha=0.1f) /* ty=Tensor[(1, 256, 26, 26), float32] */;
  %186 = nn.conv2d(%185, %LAYERTYPE.CONVOLUTIONAL60_weight, padding=[1, 1, 1, 1], channels=512, kernel_size=[3, 3]) /* ty=Tensor[(1, 512, 26, 26), float32] */;
  %187 = nn.batch_norm(%186, %LAYERTYPE.CONVOLUTIONAL60_gamma, %LAYERTYPE.CONVOLUTIONAL60_beta, %LAYERTYPE.CONVOLUTIONAL60_moving_mean, %LAYERTYPE.CONVOLUTIONAL60_moving_var, epsilon=1e-06f) /* ty=(Tensor[(1, 512, 26, 26), float32], Tensor[(512), float32], Tensor[(512), float32]) */;
  %188 = %187.0;
  %189 = nn.leaky_relu(%188, alpha=0.1f) /* ty=Tensor[(1, 512, 26, 26), float32] */;
  %190 = add(%189, %181) /* ty=Tensor[(1, 512, 26, 26), float32] */;
  %191 = nn.conv2d(%190, %LAYERTYPE.CONVOLUTIONAL62_weight, strides=[2, 2], padding=[1, 1, 1, 1], channels=1024, kernel_size=[3, 3]) /* ty=Tensor[(1, 1024, 13, 13), float32] */;
  %192 = nn.batch_norm(%191, %LAYERTYPE.CONVOLUTIONAL62_gamma, %LAYERTYPE.CONVOLUTIONAL62_beta, %LAYERTYPE.CONVOLUTIONAL62_moving_mean, %LAYERTYPE.CONVOLUTIONAL62_moving_var, epsilon=1e-06f) /* ty=(Tensor[(1, 1024, 13, 13), float32], Tensor[(1024), float32], Tensor[(1024), float32]) */;
  %193 = %192.0;
  %194 = nn.leaky_relu(%193, alpha=0.1f) /* ty=Tensor[(1, 1024, 13, 13), float32] */;
  %195 = nn.conv2d(%194, %LAYERTYPE.CONVOLUTIONAL63_weight, padding=[0, 0, 0, 0], channels=512, kernel_size=[1, 1]) /* ty=Tensor[(1, 512, 13, 13), float32] */;
  %196 = nn.batch_norm(%195, %LAYERTYPE.CONVOLUTIONAL63_gamma, %LAYERTYPE.CONVOLUTIONAL63_beta, %LAYERTYPE.CONVOLUTIONAL63_moving_mean, %LAYERTYPE.CONVOLUTIONAL63_moving_var, epsilon=1e-06f) /* ty=(Tensor[(1, 512, 13, 13), float32], Tensor[(512), float32], Tensor[(512), float32]) */;
  %197 = %196.0;
  %198 = nn.leaky_relu(%197, alpha=0.1f) /* ty=Tensor[(1, 512, 13, 13), float32] */;
  %199 = nn.conv2d(%198, %LAYERTYPE.CONVOLUTIONAL64_weight, padding=[1, 1, 1, 1], channels=1024, kernel_size=[3, 3]) /* ty=Tensor[(1, 1024, 13, 13), float32] */;
  %200 = nn.batch_norm(%199, %LAYERTYPE.CONVOLUTIONAL64_gamma, %LAYERTYPE.CONVOLUTIONAL64_beta, %LAYERTYPE.CONVOLUTIONAL64_moving_mean, %LAYERTYPE.CONVOLUTIONAL64_moving_var, epsilon=1e-06f) /* ty=(Tensor[(1, 1024, 13, 13), float32], Tensor[(1024), float32], Tensor[(1024), float32]) */;
  %201 = %200.0;
  %202 = nn.leaky_relu(%201, alpha=0.1f) /* ty=Tensor[(1, 1024, 13, 13), float32] */;
  %203 = add(%202, %194) /* ty=Tensor[(1, 1024, 13, 13), float32] */;
  %204 = nn.conv2d(%203, %LAYERTYPE.CONVOLUTIONAL66_weight, padding=[0, 0, 0, 0], channels=512, kernel_size=[1, 1]) /* ty=Tensor[(1, 512, 13, 13), float32] */;
  %205 = nn.batch_norm(%204, %LAYERTYPE.CONVOLUTIONAL66_gamma, %LAYERTYPE.CONVOLUTIONAL66_beta, %LAYERTYPE.CONVOLUTIONAL66_moving_mean, %LAYERTYPE.CONVOLUTIONAL66_moving_var, epsilon=1e-06f) /* ty=(Tensor[(1, 512, 13, 13), float32], Tensor[(512), float32], Tensor[(512), float32]) */;
  %206 = %205.0;
  %207 = nn.leaky_relu(%206, alpha=0.1f) /* ty=Tensor[(1, 512, 13, 13), float32] */;
  %208 = nn.conv2d(%207, %LAYERTYPE.CONVOLUTIONAL67_weight, padding=[1, 1, 1, 1], channels=1024, kernel_size=[3, 3]) /* ty=Tensor[(1, 1024, 13, 13), float32] */;
  %209 = nn.batch_norm(%208, %LAYERTYPE.CONVOLUTIONAL67_gamma, %LAYERTYPE.CONVOLUTIONAL67_beta, %LAYERTYPE.CONVOLUTIONAL67_moving_mean, %LAYERTYPE.CONVOLUTIONAL67_moving_var, epsilon=1e-06f) /* ty=(Tensor[(1, 1024, 13, 13), float32], Tensor[(1024), float32], Tensor[(1024), float32]) */;
  %210 = %209.0;
  %211 = nn.leaky_relu(%210, alpha=0.1f) /* ty=Tensor[(1, 1024, 13, 13), float32] */;
  %212 = add(%211, %203) /* ty=Tensor[(1, 1024, 13, 13), float32] */;
  %213 = nn.conv2d(%212, %LAYERTYPE.CONVOLUTIONAL69_weight, padding=[0, 0, 0, 0], channels=512, kernel_size=[1, 1]) /* ty=Tensor[(1, 512, 13, 13), float32] */;
  %214 = nn.batch_norm(%213, %LAYERTYPE.CONVOLUTIONAL69_gamma, %LAYERTYPE.CONVOLUTIONAL69_beta, %LAYERTYPE.CONVOLUTIONAL69_moving_mean, %LAYERTYPE.CONVOLUTIONAL69_moving_var, epsilon=1e-06f) /* ty=(Tensor[(1, 512, 13, 13), float32], Tensor[(512), float32], Tensor[(512), float32]) */;
  %215 = %214.0;
  %216 = nn.leaky_relu(%215, alpha=0.1f) /* ty=Tensor[(1, 512, 13, 13), float32] */;
  %217 = nn.conv2d(%216, %LAYERTYPE.CONVOLUTIONAL70_weight, padding=[1, 1, 1, 1], channels=1024, kernel_size=[3, 3]) /* ty=Tensor[(1, 1024, 13, 13), float32] */;
  %218 = nn.batch_norm(%217, %LAYERTYPE.CONVOLUTIONAL70_gamma, %LAYERTYPE.CONVOLUTIONAL70_beta, %LAYERTYPE.CONVOLUTIONAL70_moving_mean, %LAYERTYPE.CONVOLUTIONAL70_moving_var, epsilon=1e-06f) /* ty=(Tensor[(1, 1024, 13, 13), float32], Tensor[(1024), float32], Tensor[(1024), float32]) */;
  %219 = %218.0;
  %220 = nn.leaky_relu(%219, alpha=0.1f) /* ty=Tensor[(1, 1024, 13, 13), float32] */;
  %221 = add(%220, %212) /* ty=Tensor[(1, 1024, 13, 13), float32] */;
  %222 = nn.conv2d(%221, %LAYERTYPE.CONVOLUTIONAL72_weight, padding=[0, 0, 0, 0], channels=512, kernel_size=[1, 1]) /* ty=Tensor[(1, 512, 13, 13), float32] */;
  %223 = nn.batch_norm(%222, %LAYERTYPE.CONVOLUTIONAL72_gamma, %LAYERTYPE.CONVOLUTIONAL72_beta, %LAYERTYPE.CONVOLUTIONAL72_moving_mean, %LAYERTYPE.CONVOLUTIONAL72_moving_var, epsilon=1e-06f) /* ty=(Tensor[(1, 512, 13, 13), float32], Tensor[(512), float32], Tensor[(512), float32]) */;
  %224 = %223.0;
  %225 = nn.leaky_relu(%224, alpha=0.1f) /* ty=Tensor[(1, 512, 13, 13), float32] */;
  %226 = nn.conv2d(%225, %LAYERTYPE.CONVOLUTIONAL73_weight, padding=[1, 1, 1, 1], channels=1024, kernel_size=[3, 3]) /* ty=Tensor[(1, 1024, 13, 13), float32] */;
  %227 = nn.batch_norm(%226, %LAYERTYPE.CONVOLUTIONAL73_gamma, %LAYERTYPE.CONVOLUTIONAL73_beta, %LAYERTYPE.CONVOLUTIONAL73_moving_mean, %LAYERTYPE.CONVOLUTIONAL73_moving_var, epsilon=1e-06f) /* ty=(Tensor[(1, 1024, 13, 13), float32], Tensor[(1024), float32], Tensor[(1024), float32]) */;
  %228 = %227.0;
  %229 = nn.leaky_relu(%228, alpha=0.1f) /* ty=Tensor[(1, 1024, 13, 13), float32] */;
  %230 = add(%229, %221) /* ty=Tensor[(1, 1024, 13, 13), float32] */;
  %231 = nn.conv2d(%230, %LAYERTYPE.CONVOLUTIONAL75_weight, padding=[0, 0, 0, 0], channels=512, kernel_size=[1, 1]) /* ty=Tensor[(1, 512, 13, 13), float32] */;
  %232 = nn.batch_norm(%231, %LAYERTYPE.CONVOLUTIONAL75_gamma, %LAYERTYPE.CONVOLUTIONAL75_beta, %LAYERTYPE.CONVOLUTIONAL75_moving_mean, %LAYERTYPE.CONVOLUTIONAL75_moving_var, epsilon=1e-06f) /* ty=(Tensor[(1, 512, 13, 13), float32], Tensor[(512), float32], Tensor[(512), float32]) */;
  %233 = %232.0;
  %234 = nn.leaky_relu(%233, alpha=0.1f) /* ty=Tensor[(1, 512, 13, 13), float32] */;
  %235 = nn.conv2d(%234, %LAYERTYPE.CONVOLUTIONAL76_weight, padding=[1, 1, 1, 1], channels=1024, kernel_size=[3, 3]) /* ty=Tensor[(1, 1024, 13, 13), float32] */;
  %236 = nn.batch_norm(%235, %LAYERTYPE.CONVOLUTIONAL76_gamma, %LAYERTYPE.CONVOLUTIONAL76_beta, %LAYERTYPE.CONVOLUTIONAL76_moving_mean, %LAYERTYPE.CONVOLUTIONAL76_moving_var, epsilon=1e-06f) /* ty=(Tensor[(1, 1024, 13, 13), float32], Tensor[(1024), float32], Tensor[(1024), float32]) */;
  %237 = %236.0;
  %238 = nn.leaky_relu(%237, alpha=0.1f) /* ty=Tensor[(1, 1024, 13, 13), float32] */;
  %239 = nn.conv2d(%238, %LAYERTYPE.CONVOLUTIONAL77_weight, padding=[0, 0, 0, 0], channels=512, kernel_size=[1, 1]) /* ty=Tensor[(1, 512, 13, 13), float32] */;
  %240 = nn.batch_norm(%239, %LAYERTYPE.CONVOLUTIONAL77_gamma, %LAYERTYPE.CONVOLUTIONAL77_beta, %LAYERTYPE.CONVOLUTIONAL77_moving_mean, %LAYERTYPE.CONVOLUTIONAL77_moving_var, epsilon=1e-06f) /* ty=(Tensor[(1, 512, 13, 13), float32], Tensor[(512), float32], Tensor[(512), float32]) */;
  %241 = %240.0;
  %242 = nn.leaky_relu(%241, alpha=0.1f) /* ty=Tensor[(1, 512, 13, 13), float32] */;
  %243 = nn.conv2d(%242, %LAYERTYPE.CONVOLUTIONAL78_weight, padding=[1, 1, 1, 1], channels=1024, kernel_size=[3, 3]) /* ty=Tensor[(1, 1024, 13, 13), float32] */;
  %244 = nn.batch_norm(%243, %LAYERTYPE.CONVOLUTIONAL78_gamma, %LAYERTYPE.CONVOLUTIONAL78_beta, %LAYERTYPE.CONVOLUTIONAL78_moving_mean, %LAYERTYPE.CONVOLUTIONAL78_moving_var, epsilon=1e-06f) /* ty=(Tensor[(1, 1024, 13, 13), float32], Tensor[(1024), float32], Tensor[(1024), float32]) */;
  %245 = %244.0;
  %246 = nn.leaky_relu(%245, alpha=0.1f) /* ty=Tensor[(1, 1024, 13, 13), float32] */;
  %247 = nn.conv2d(%246, %LAYERTYPE.CONVOLUTIONAL79_weight, padding=[0, 0, 0, 0], channels=512, kernel_size=[1, 1]) /* ty=Tensor[(1, 512, 13, 13), float32] */;
  %248 = nn.batch_norm(%247, %LAYERTYPE.CONVOLUTIONAL79_gamma, %LAYERTYPE.CONVOLUTIONAL79_beta, %LAYERTYPE.CONVOLUTIONAL79_moving_mean, %LAYERTYPE.CONVOLUTIONAL79_moving_var, epsilon=1e-06f) /* ty=(Tensor[(1, 512, 13, 13), float32], Tensor[(512), float32], Tensor[(512), float32]) */;
  %249 = %248.0;
  %250 = nn.leaky_relu(%249, alpha=0.1f) /* ty=Tensor[(1, 512, 13, 13), float32] */;
  %251 = nn.conv2d(%250, %LAYERTYPE.CONVOLUTIONAL84_weight, padding=[0, 0, 0, 0], channels=256, kernel_size=[1, 1]) /* ty=Tensor[(1, 256, 13, 13), float32] */;
  %252 = nn.batch_norm(%251, %LAYERTYPE.CONVOLUTIONAL84_gamma, %LAYERTYPE.CONVOLUTIONAL84_beta, %LAYERTYPE.CONVOLUTIONAL84_moving_mean, %LAYERTYPE.CONVOLUTIONAL84_moving_var, epsilon=1e-06f) /* ty=(Tensor[(1, 256, 13, 13), float32], Tensor[(256), float32], Tensor[(256), float32]) */;
  %253 = %252.0;
  %254 = nn.leaky_relu(%253, alpha=0.1f) /* ty=Tensor[(1, 256, 13, 13), float32] */;
  %255 = nn.upsampling(%254, scale_h=2f, scale_w=2f) /* ty=Tensor[(1, 256, 26, 26), float32] */;
  %256 = (%255, %190);
  %257 = concatenate(%256, axis=1) /* ty=Tensor[(1, 768, 26, 26), float32] */;
  %258 = nn.conv2d(%257, %LAYERTYPE.CONVOLUTIONAL87_weight, padding=[0, 0, 0, 0], channels=256, kernel_size=[1, 1]) /* ty=Tensor[(1, 256, 26, 26), float32] */;
  %259 = nn.batch_norm(%258, %LAYERTYPE.CONVOLUTIONAL87_gamma, %LAYERTYPE.CONVOLUTIONAL87_beta, %LAYERTYPE.CONVOLUTIONAL87_moving_mean, %LAYERTYPE.CONVOLUTIONAL87_moving_var, epsilon=1e-06f) /* ty=(Tensor[(1, 256, 26, 26), float32], Tensor[(256), float32], Tensor[(256), float32]) */;
  %260 = %259.0;
  %261 = nn.leaky_relu(%260, alpha=0.1f) /* ty=Tensor[(1, 256, 26, 26), float32] */;
  %262 = nn.conv2d(%261, %LAYERTYPE.CONVOLUTIONAL88_weight, padding=[1, 1, 1, 1], channels=512, kernel_size=[3, 3]) /* ty=Tensor[(1, 512, 26, 26), float32] */;
  %263 = nn.batch_norm(%262, %LAYERTYPE.CONVOLUTIONAL88_gamma, %LAYERTYPE.CONVOLUTIONAL88_beta, %LAYERTYPE.CONVOLUTIONAL88_moving_mean, %LAYERTYPE.CONVOLUTIONAL88_moving_var, epsilon=1e-06f) /* ty=(Tensor[(1, 512, 26, 26), float32], Tensor[(512), float32], Tensor[(512), float32]) */;
  %264 = %263.0;
  %265 = nn.leaky_relu(%264, alpha=0.1f) /* ty=Tensor[(1, 512, 26, 26), float32] */;
  %266 = nn.conv2d(%265, %LAYERTYPE.CONVOLUTIONAL89_weight, padding=[0, 0, 0, 0], channels=256, kernel_size=[1, 1]) /* ty=Tensor[(1, 256, 26, 26), float32] */;
  %267 = nn.batch_norm(%266, %LAYERTYPE.CONVOLUTIONAL89_gamma, %LAYERTYPE.CONVOLUTIONAL89_beta, %LAYERTYPE.CONVOLUTIONAL89_moving_mean, %LAYERTYPE.CONVOLUTIONAL89_moving_var, epsilon=1e-06f) /* ty=(Tensor[(1, 256, 26, 26), float32], Tensor[(256), float32], Tensor[(256), float32]) */;
  %268 = %267.0;
  %269 = nn.leaky_relu(%268, alpha=0.1f) /* ty=Tensor[(1, 256, 26, 26), float32] */;
  %270 = nn.conv2d(%269, %LAYERTYPE.CONVOLUTIONAL90_weight, padding=[1, 1, 1, 1], channels=512, kernel_size=[3, 3]) /* ty=Tensor[(1, 512, 26, 26), float32] */;
  %271 = nn.batch_norm(%270, %LAYERTYPE.CONVOLUTIONAL90_gamma, %LAYERTYPE.CONVOLUTIONAL90_beta, %LAYERTYPE.CONVOLUTIONAL90_moving_mean, %LAYERTYPE.CONVOLUTIONAL90_moving_var, epsilon=1e-06f) /* ty=(Tensor[(1, 512, 26, 26), float32], Tensor[(512), float32], Tensor[(512), float32]) */;
  %272 = %271.0;
  %273 = nn.leaky_relu(%272, alpha=0.1f) /* ty=Tensor[(1, 512, 26, 26), float32] */;
  %274 = nn.conv2d(%273, %LAYERTYPE.CONVOLUTIONAL91_weight, padding=[0, 0, 0, 0], channels=256, kernel_size=[1, 1]) /* ty=Tensor[(1, 256, 26, 26), float32] */;
  %275 = nn.batch_norm(%274, %LAYERTYPE.CONVOLUTIONAL91_gamma, %LAYERTYPE.CONVOLUTIONAL91_beta, %LAYERTYPE.CONVOLUTIONAL91_moving_mean, %LAYERTYPE.CONVOLUTIONAL91_moving_var, epsilon=1e-06f) /* ty=(Tensor[(1, 256, 26, 26), float32], Tensor[(256), float32], Tensor[(256), float32]) */;
  %276 = %275.0;
  %277 = nn.leaky_relu(%276, alpha=0.1f) /* ty=Tensor[(1, 256, 26, 26), float32] */;
  %278 = nn.conv2d(%277, %LAYERTYPE.CONVOLUTIONAL96_weight, padding=[0, 0, 0, 0], channels=128, kernel_size=[1, 1]) /* ty=Tensor[(1, 128, 26, 26), float32] */;
  %279 = nn.batch_norm(%278, %LAYERTYPE.CONVOLUTIONAL96_gamma, %LAYERTYPE.CONVOLUTIONAL96_beta, %LAYERTYPE.CONVOLUTIONAL96_moving_mean, %LAYERTYPE.CONVOLUTIONAL96_moving_var, epsilon=1e-06f) /* ty=(Tensor[(1, 128, 26, 26), float32], Tensor[(128), float32], Tensor[(128), float32]) */;
  %280 = %279.0;
  %281 = nn.leaky_relu(%280, alpha=0.1f) /* ty=Tensor[(1, 128, 26, 26), float32] */;
  %282 = nn.upsampling(%281, scale_h=2f, scale_w=2f) /* ty=Tensor[(1, 128, 52, 52), float32] */;
  %283 = (%282, %114);
  %284 = concatenate(%283, axis=1) /* ty=Tensor[(1, 384, 52, 52), float32] */;
  %285 = nn.conv2d(%284, %LAYERTYPE.CONVOLUTIONAL99_weight, padding=[0, 0, 0, 0], channels=128, kernel_size=[1, 1]) /* ty=Tensor[(1, 128, 52, 52), float32] */;
  %286 = nn.batch_norm(%285, %LAYERTYPE.CONVOLUTIONAL99_gamma, %LAYERTYPE.CONVOLUTIONAL99_beta, %LAYERTYPE.CONVOLUTIONAL99_moving_mean, %LAYERTYPE.CONVOLUTIONAL99_moving_var, epsilon=1e-06f) /* ty=(Tensor[(1, 128, 52, 52), float32], Tensor[(128), float32], Tensor[(128), float32]) */;
  %287 = %286.0;
  %288 = nn.leaky_relu(%287, alpha=0.1f) /* ty=Tensor[(1, 128, 52, 52), float32] */;
  %289 = nn.conv2d(%288, %LAYERTYPE.CONVOLUTIONAL100_weight, padding=[1, 1, 1, 1], channels=256, kernel_size=[3, 3]) /* ty=Tensor[(1, 256, 52, 52), float32] */;
  %290 = nn.batch_norm(%289, %LAYERTYPE.CONVOLUTIONAL100_gamma, %LAYERTYPE.CONVOLUTIONAL100_beta, %LAYERTYPE.CONVOLUTIONAL100_moving_mean, %LAYERTYPE.CONVOLUTIONAL100_moving_var, epsilon=1e-06f) /* ty=(Tensor[(1, 256, 52, 52), float32], Tensor[(256), float32], Tensor[(256), float32]) */;
  %291 = %290.0;
  %292 = nn.leaky_relu(%291, alpha=0.1f) /* ty=Tensor[(1, 256, 52, 52), float32] */;
  %293 = nn.conv2d(%292, %LAYERTYPE.CONVOLUTIONAL101_weight, padding=[0, 0, 0, 0], channels=128, kernel_size=[1, 1]) /* ty=Tensor[(1, 128, 52, 52), float32] */;
  %294 = nn.batch_norm(%293, %LAYERTYPE.CONVOLUTIONAL101_gamma, %LAYERTYPE.CONVOLUTIONAL101_beta, %LAYERTYPE.CONVOLUTIONAL101_moving_mean, %LAYERTYPE.CONVOLUTIONAL101_moving_var, epsilon=1e-06f) /* ty=(Tensor[(1, 128, 52, 52), float32], Tensor[(128), float32], Tensor[(128), float32]) */;
  %295 = %294.0;
  %296 = nn.leaky_relu(%295, alpha=0.1f) /* ty=Tensor[(1, 128, 52, 52), float32] */;
  %297 = nn.conv2d(%296, %LAYERTYPE.CONVOLUTIONAL102_weight, padding=[1, 1, 1, 1], channels=256, kernel_size=[3, 3]) /* ty=Tensor[(1, 256, 52, 52), float32] */;
  %298 = nn.batch_norm(%297, %LAYERTYPE.CONVOLUTIONAL102_gamma, %LAYERTYPE.CONVOLUTIONAL102_beta, %LAYERTYPE.CONVOLUTIONAL102_moving_mean, %LAYERTYPE.CONVOLUTIONAL102_moving_var, epsilon=1e-06f) /* ty=(Tensor[(1, 256, 52, 52), float32], Tensor[(256), float32], Tensor[(256), float32]) */;
  %299 = %298.0;
  %300 = nn.leaky_relu(%299, alpha=0.1f) /* ty=Tensor[(1, 256, 52, 52), float32] */;
  %301 = nn.conv2d(%300, %LAYERTYPE.CONVOLUTIONAL103_weight, padding=[0, 0, 0, 0], channels=128, kernel_size=[1, 1]) /* ty=Tensor[(1, 128, 52, 52), float32] */;
  %302 = nn.batch_norm(%301, %LAYERTYPE.CONVOLUTIONAL103_gamma, %LAYERTYPE.CONVOLUTIONAL103_beta, %LAYERTYPE.CONVOLUTIONAL103_moving_mean, %LAYERTYPE.CONVOLUTIONAL103_moving_var, epsilon=1e-06f) /* ty=(Tensor[(1, 128, 52, 52), float32], Tensor[(128), float32], Tensor[(128), float32]) */;
  %303 = %302.0;
  %304 = nn.leaky_relu(%303, alpha=0.1f) /* ty=Tensor[(1, 128, 52, 52), float32] */;
  %305 = nn.conv2d(%304, %LAYERTYPE.CONVOLUTIONAL104_weight, padding=[1, 1, 1, 1], channels=256, kernel_size=[3, 3]) /* ty=Tensor[(1, 256, 52, 52), float32] */;
  %306 = nn.batch_norm(%305, %LAYERTYPE.CONVOLUTIONAL104_gamma, %LAYERTYPE.CONVOLUTIONAL104_beta, %LAYERTYPE.CONVOLUTIONAL104_moving_mean, %LAYERTYPE.CONVOLUTIONAL104_moving_var, epsilon=1e-06f) /* ty=(Tensor[(1, 256, 52, 52), float32], Tensor[(256), float32], Tensor[(256), float32]) */;
  %307 = %306.0;
  %308 = nn.leaky_relu(%307, alpha=0.1f) /* ty=Tensor[(1, 256, 52, 52), float32] */;
  %309 = nn.conv2d(%308, %LAYERTYPE.CONVOLUTIONAL105_weight, padding=[0, 0, 0, 0], channels=255, kernel_size=[1, 1]) /* ty=Tensor[(1, 255, 52, 52), float32] */;
  %310 = nn.bias_add(%309, %LAYERTYPE.CONVOLUTIONAL105_bias) /* ty=Tensor[(1, 255, 52, 52), float32] */;
  %311 = reshape(%310, newshape=[-1, 3, 85, 52, 52]) /* ty=Tensor[(1, 3, 85, 52, 52), float32] */;
  %312 = split(%311, indices_or_sections=[2, 4], axis=2) /* ty=(Tensor[(1, 3, 2, 52, 52), float32], Tensor[(1, 3, 2, 52, 52), float32], Tensor[(1, 3, 81, 52, 52), float32]) */;
  %313 = %312.0;
  %314 = sigmoid(%313) /* ty=Tensor[(1, 3, 2, 52, 52), float32] */;
  %315 = %312.1;
  %316 = %312.2;
  %317 = sigmoid(%316) /* ty=Tensor[(1, 3, 81, 52, 52), float32] */;
  %318 = (%314, %315, %317);
  %319 = concatenate(%318, axis=2) /* ty=Tensor[(1, 3, 85, 52, 52), float32] */;
  %320 = reshape(%319, newshape=[-1, 255, 52, 52]) /* ty=Tensor[(1, 255, 52, 52), float32] */;
  %321 = nn.conv2d(%277, %LAYERTYPE.CONVOLUTIONAL92_weight, padding=[1, 1, 1, 1], channels=512, kernel_size=[3, 3]) /* ty=Tensor[(1, 512, 26, 26), float32] */;
  %322 = nn.batch_norm(%321, %LAYERTYPE.CONVOLUTIONAL92_gamma, %LAYERTYPE.CONVOLUTIONAL92_beta, %LAYERTYPE.CONVOLUTIONAL92_moving_mean, %LAYERTYPE.CONVOLUTIONAL92_moving_var, epsilon=1e-06f) /* ty=(Tensor[(1, 512, 26, 26), float32], Tensor[(512), float32], Tensor[(512), float32]) */;
  %323 = %322.0;
  %324 = nn.leaky_relu(%323, alpha=0.1f) /* ty=Tensor[(1, 512, 26, 26), float32] */;
  %325 = nn.conv2d(%324, %LAYERTYPE.CONVOLUTIONAL93_weight, padding=[0, 0, 0, 0], channels=255, kernel_size=[1, 1]) /* ty=Tensor[(1, 255, 26, 26), float32] */;
  %326 = nn.bias_add(%325, %LAYERTYPE.CONVOLUTIONAL93_bias) /* ty=Tensor[(1, 255, 26, 26), float32] */;
  %327 = reshape(%326, newshape=[-1, 3, 85, 26, 26]) /* ty=Tensor[(1, 3, 85, 26, 26), float32] */;
  %328 = split(%327, indices_or_sections=[2, 4], axis=2) /* ty=(Tensor[(1, 3, 2, 26, 26), float32], Tensor[(1, 3, 2, 26, 26), float32], Tensor[(1, 3, 81, 26, 26), float32]) */;
  %329 = %328.0;
  %330 = sigmoid(%329) /* ty=Tensor[(1, 3, 2, 26, 26), float32] */;
  %331 = %328.1;
  %332 = %328.2;
  %333 = sigmoid(%332) /* ty=Tensor[(1, 3, 81, 26, 26), float32] */;
  %334 = (%330, %331, %333);
  %335 = concatenate(%334, axis=2) /* ty=Tensor[(1, 3, 85, 26, 26), float32] */;
  %336 = reshape(%335, newshape=[-1, 255, 26, 26]) /* ty=Tensor[(1, 255, 26, 26), float32] */;
  %337 = nn.conv2d(%250, %LAYERTYPE.CONVOLUTIONAL80_weight, padding=[1, 1, 1, 1], channels=1024, kernel_size=[3, 3]) /* ty=Tensor[(1, 1024, 13, 13), float32] */;
  %338 = nn.batch_norm(%337, %LAYERTYPE.CONVOLUTIONAL80_gamma, %LAYERTYPE.CONVOLUTIONAL80_beta, %LAYERTYPE.CONVOLUTIONAL80_moving_mean, %LAYERTYPE.CONVOLUTIONAL80_moving_var, epsilon=1e-06f) /* ty=(Tensor[(1, 1024, 13, 13), float32], Tensor[(1024), float32], Tensor[(1024), float32]) */;
  %339 = %338.0;
  %340 = nn.leaky_relu(%339, alpha=0.1f) /* ty=Tensor[(1, 1024, 13, 13), float32] */;
  %341 = nn.conv2d(%340, %LAYERTYPE.CONVOLUTIONAL81_weight, padding=[0, 0, 0, 0], channels=255, kernel_size=[1, 1]) /* ty=Tensor[(1, 255, 13, 13), float32] */;
  %342 = nn.bias_add(%341, %LAYERTYPE.CONVOLUTIONAL81_bias) /* ty=Tensor[(1, 255, 13, 13), float32] */;
  %343 = reshape(%342, newshape=[-1, 3, 85, 13, 13]) /* ty=Tensor[(1, 3, 85, 13, 13), float32] */;
  %344 = split(%343, indices_or_sections=[2, 4], axis=2) /* ty=(Tensor[(1, 3, 2, 13, 13), float32], Tensor[(1, 3, 2, 13, 13), float32], Tensor[(1, 3, 81, 13, 13), float32]) */;
  %345 = %344.0;
  %346 = sigmoid(%345) /* ty=Tensor[(1, 3, 2, 13, 13), float32] */;
  %347 = %344.1;
  %348 = %344.2;
  %349 = sigmoid(%348) /* ty=Tensor[(1, 3, 81, 13, 13), float32] */;
  %350 = (%346, %347, %349);
  %351 = concatenate(%350, axis=2) /* ty=Tensor[(1, 3, 85, 13, 13), float32] */;
  %352 = reshape(%351, newshape=[-1, 255, 13, 13]) /* ty=Tensor[(1, 255, 13, 13), float32] */;
  (%320, %LAYERTYPE.YOLO106_mask, %LAYERTYPE.YOLO106_bias, %LAYERTYPE.YOLO106_attr, %336, %LAYERTYPE.YOLO94_mask, %LAYERTYPE.YOLO94_bias, %LAYERTYPE.YOLO94_attr, %352, %LAYERTYPE.YOLO82_mask, %LAYERTYPE.YOLO82_bias, %LAYERTYPE.YOLO82_attr)
}
